root/tmva/sofie/input_models/Conv_d100_L1_B1.onnx (onnx, 530 bytes, 2 tensors)

conv0.weight f4 [2, 1, 5, 5]
000000 6d b8 0f 3d 1a 44 a2 3c 43 c0 a2 bd 37 b4 b0 3d
       0.03508799 0.019807864 -0.07946827 0.08628123
000010 00 fa 71 bb 83 e0 fa bd 5a 4b a6 bc 13 1e 38 be
       -0.0036922693 -0.122498535 -0.020299602 -0.17980222
000020 f0 ac 4b be 70 48 43 3e 78 83 42 3e 97 9c 90 3d
       -0.19890189 0.19070601 0.18995464 0.07061117
000030 ad 69 be bd a0 aa 38 be 9a 69 b3 3a 67 98 20 3b
       -0.092975 -0.18033838 0.0013688088 0.0024504901
000040 27 d4 35 bd a7 93 f8 3d 90 cc ea bd d7 fc d3 3d
       -0.044391777 0.121375374 -0.114647985 0.1035096
000050 07 39 6c bd 0d 5c 1e 3d 73 6a 44 bd 97 63 26 be
       -0.057671573 0.038662005 -0.04795308 -0.16248928
000060 b0 3d 2b be 95 ea 1d be b7 c3 87 bd f3 64 88 bd
       -0.1672275 -0.15421517 -0.066291265 -0.066598795
000070 27 37 2f be 5b 8c 16 be c2 c4 49 be 8d 6a ed bd
       -0.17110883 -0.14701979 -0.19703963 -0.115925886
000080 2a 90 9a 3d 73 58 8b bc 9a 37 37 bc c0 be 98 bc
       0.07547028 -0.01700995 -0.01118269 -0.018645644
000090 6d 44 17 3e 7d d0 2a 3e f7 c9 e9 3d 5a 88 2e 3d
       0.14772196 0.16681094 0.11415475 0.042610504
0000a0 97 09 ff bd 00 63 7c 3c 47 a1 56 3d 5a 8e 13 3e
       -0.12453001 0.015404463 0.0523999 0.14409772
0000b0 e7 53 2d 3d 93 b7 0f 3d e7 37 be bd 15 e1 3e 3e
       0.042316344 0.03508718 -0.09288006 0.1864055
0000c0 c0 eb 3b be 60 25 8a 3d
       -0.1835165 0.0674541

conv0.bias f4 [2]
000000 33 85 b3 bb fb 58 0d be
       -0.005478525 -0.13803475
