root/tmva/sofie/input_models/ConvTrans2dModel_B1.onnx (onnx, 3518 bytes, 7 tensors)

conv0.weight f4 [1, 4, 2, 2]
000000 b4 ad 97 bd d4 1e 41 3e ce 82 4d be c8 61 79 3e
       -0.07406178 0.18859416 -0.2006943 0.24353707
000010 e4 30 fa 3d aa b9 30 3e 20 1f 25 be 96 ed 25 be
       0.122163564 0.17258325 -0.16125154 -0.16203913
000020 f8 37 17 be 88 b0 4f bd ce 68 24 3e a0 85 1d bd
       -0.14767444 -0.050705463 0.16055605 -0.038457513
000030 f4 ff d9 3d 98 d8 50 bd 78 35 72 bd 72 a4 20 be
       0.10644522 -0.05098781 -0.059133023 -0.15687731

conv0.bias f4 [4]
000000 5a 47 56 be 1e 56 16 be aa 8d 7f be ac e4 38 be
       -0.20925656 -0.14681289 -0.24956384 -0.18055981

conv1.weight f4 [4, 8, 3, 3]
000000 4e b1 16 3d 59 42 a3 3d 10 db 95 bd 8a f6 b3 bd
       0.036790185 0.07971639 -0.073171735 -0.08787258
000010 4e e0 aa bd 64 2e 84 bd cd b9 82 3d 00 0d d6 ba
       -0.08343564 -0.06454161 0.06383095 -0.0016330779
000020 a4 c7 f5 3c 20 97 93 bc 93 81 c5 bd 03 a3 a1 3d
       0.030002423 -0.018016398 -0.09643855 0.0789242
000030 35 06 d4 3d 9f 17 d9 3d 26 ff 2d 3d 3e b6 d1 bd
       0.103527464 0.106002085 0.042479657 -0.10239838
000040 cb 7b 81 3d a5 ba a5 3d d8 a6 75 bc 62 a1 a1 bd
       0.0632244 0.0809224 -0.014993392 -0.078921095
000050 17 9e 85 3d a4 3c 4c bd 72 1d 75 3d 00 1c 49 3b
       0.06524294 -0.04986252 0.059842534 0.0030686855
000060 42 70 cb bd 56 12 60 3d e8 19 57 3c 95 51 81 3d
       -0.09933521 0.054704987 0.013128735 0.06314389
000070 52 f3 5c 3d 46 49 40 3d 1e a3 35 3d 6f 43 e6 bd
       0.053942986 0.04694488 0.044345014 -0.11243331
000080 9a b7 95 bd 48 85 f4 bc 50 10 62 bd 40 81 19 bd
       -0.0731041 -0.02984871 -0.055191338 -0.037476778
000090 7f ba e1 bd 1e 57 6a bd c0 6c e6 3a 74 2a ee bc
       -0.110218994 -0.057211988 0.0017580017 -0.029072978
0000a0 fa 58 bb bd 16 f5 de bd ca b6 59 bd b2 dc 1f 3d
       -0.0914783 -0.1088659 -0.053152837 0.03902883
0000b0 58 70 0c 3c 01 05 c0 bd 78 76 88 bc 89 bc 85 bd
       0.008571707 -0.093759544 -0.016658053 -0.06530101
0000c0 ea de 4b 3d 04 24 4a bd 5d c2 b7 3d d9 2a c8 3d
       0.049773134 -0.049350753 0.08972619 0.097737975
0000d0 18 5b 44 bc b4 d1 d8 bc a3 a9 b3 3d 8e 26 2a 3d
       -0.011984609 -0.026467182 0.0877259 0.041540675
0000e0 8d 48 cb 3d 3d 01 a2 3d ea 21 36 bd 8c 2a 8b 3c
       0.09925947 0.079103924 -0.044465937 0.016988061
0000f0 16 3f 36 bd 64 9c b2 3c f5 93 d1 bd b8 57 45 bc
       -0.044493757 0.021803088 -0.10233299 -0.01204484
000100 55 2d ba bd 00 31 99 39 90 64 74 bc 20 1d ec bb
       -0.09090678 0.00029218942 -0.014916554 -0.0072056204
000110 dc 2e b8 bd d2 52 bf bd 07 ce ef 3d b1 89 64 bd
       -0.08993313 -0.093419686 0.117092185 -0.055795375
000120 98 f3 6a 3c f4 cd f9 3c f6 dc 58 3d 3b a0 b3 3d
       0.014340304 0.030493714 0.0529451 0.08770796
000130 1d fb e1 3d 1c 32 b3 bc be 4a 25 3d 28 57 50 3c
       0.11034224 -0.02187448 0.040354483 0.012716092
000140 9d 0f cd 3d 32 cb a2 bd 14 74 8d bd 73 c0 d2 3d
       0.100127436 -0.07948913 -0.06906906 0.10290613
000150 3f b2 96 3d 68 e0 6a 3c 2d 54 8d 3d 17 cb 86 3d
       0.073582165 0.014335729 0.06900821 0.06581705
000160 9a 6d d0 bd 20 48 37 3b 76 c2 2c 3d 40 48 ed bc
       -0.10177155 0.0027966574 0.04217764 -0.028965116
000170 55 df da 3d c0 f7 83 ba a0 d2 63 bc f6 25 77 3d
       0.106871285 -0.0010068342 -0.013905197 0.060338937
000180 92 3c 62 bd aa cd 42 bd d0 71 0d bc 48 ec 30 bd
       -0.055233546 -0.047559418 -0.008633092 -0.043194085
000190 76 f8 2b 3d 5e f9 6c 3d f4 44 34 bd 7e e5 4e 3d
       0.041984998 0.057855003 -0.04401107 0.05051183
0001a0 1b 78 86 3d 00 74 f3 3a 03 57 b2 3d cd 2f 87 3d
       0.06565877 0.0018573999 0.087080024 0.06600914
0001b0 d0 be b0 3b d0 73 32 bd 4e 11 6a 3d 8c b5 a6 bd
       0.0053938404 -0.04356748 0.05714541 -0.08140096
0001c0 e6 ef 73 3d bf 8c 7b bd 67 2a ef 3d 50 67 0b bd
       0.059554957 -0.061413523 0.116780095 -0.034034073
0001d0 50 d7 67 bc 9d 37 cd 3d c5 78 b9 3d ee 41 6f 3d
       -0.014150456 0.10020373 0.09056238 0.058412485
0001e0 94 7b 99 3c e0 c8 06 bb dc 6b 86 bd 6c 6b ec 3c
       0.018735684 -0.0020566508 -0.06563541 0.028859816
0001f0 2d 5f 97 3d 26 c7 24 bd 56 8c 7c bd 40 05 95 3b
       0.073912 -0.040228985 -0.061657272 0.004547745
000200 ad 1e de 3d dd fb 9e 3d a4 df e0 3c f8 ab 15 bd
       0.10845695 0.07762883 0.02745039 -0.036540955
000210 a0 07 c4 bb 7f ed c5 bd 20 3e 07 bb c9 66 83 bd
       -0.0059823543 -0.096644394 -0.0020636395 -0.06416089
000220 a6 03 76 3d 96 02 59 3d 7e e9 32 3d ed f9 da 3d
       0.060062073 0.05298098 0.043679707 0.10692201
000230 05 9f 71 bd 5a fc 72 3d 74 6e 4a bd d8 d9 3a bc
       -0.058989543 0.059322692 -0.049421743 -0.011404477
000240 49 9b e7 3d 20 b5 4b bc 97 f0 d5 3d 6a 8b b2 bd
       0.11308915 -0.01243332 0.104462795 -0.08717997
000250 4c f4 cf bc 66 1e a0 bd 88 fe 04 bc 12 96 b9 bd
       -0.025385045 -0.07818298 -0.008117326 -0.09061827
000260 83 51 d6 bd 6a 46 00 3d 16 55 41 3d d1 9e e0 3d
       -0.10464766 0.031317152 0.047200285 0.10967792
000270 18 c7 55 3c 0a c9 43 bd 00 6d 1a bd ae ad 41 bd
       0.013047956 -0.047799148 -0.037701607 -0.047284774
000280 46 47 7c 3d 0c f6 82 bc d7 f9 c1 bd f8 7d 78 3c
       0.06159141 -0.015986465 -0.09471481 0.015166752
000290 c2 6e b5 bd 80 d4 37 bb bc 06 94 3c 53 c6 c9 3d
       -0.08859016 -0.0028050244 0.018069617 0.098522805
0002a0 d8 2e 4d 3c 1b e8 6c bd 7f 51 e9 3d d4 f9 89 bd
       0.012523375 -0.05783854 0.11392497 -0.06737104
0002b0 60 f4 f2 bb b6 30 16 3d 1f 63 d9 3d e2 70 61 3d
       -0.0074143857 0.036667548 0.10614609 0.055039294
0002c0 4f 23 a6 3d fd 08 7c bd dc f1 ec bc a8 1a 83 bd
       0.08112203 -0.06153201 -0.028923921 -0.06401569
0002d0 c0 53 e0 bd 30 4f c1 bc 97 ff 8d 3d cf a0 91 3d
       -0.10953474 -0.02359733 0.069335155 0.0711075
0002e0 4d 03 b1 3d c6 20 8e bd e4 f9 ca bd 25 b1 d4 3d
       0.08643208 -0.06939845 -0.09910944 0.1038535
0002f0 30 80 2b bd 0b e8 69 bd 7a 52 a9 bd f5 ae e0 3d
       -0.041870296 -0.05710606 -0.08267684 0.109708704
000300 fa 31 74 3d a8 fb 91 bc f7 6c a0 3d b7 35 9c 3d
       0.059617974 -0.017820194 0.078332834 0.07627433
000310 d7 93 e7 bd 76 2e 73 3d b0 ed 33 bc e2 b7 27 3d
       -0.11307495 0.05937048 -0.010981962 0.04094685
000320 5c d5 c1 3c 1b ab d3 3d d6 7a 46 bd 8e bf b9 bd
       0.023661308 0.1033537 -0.04845699 -0.09069739
000330 01 d0 b0 3d 40 9f a2 bb ea 72 a3 bd 07 3b a1 3d
       0.086334236 -0.0049628317 -0.079809025 0.07872587
000340 72 94 2e 3d a0 00 f3 bc 6d c1 ba 3d 8b 22 a6 bd
       0.042622037 -0.029663384 0.09118924 -0.08112057
000350 56 48 68 3d 24 b8 ee 3c 87 84 e1 3d 3d cc 8c bd
       0.05670961 0.02914054 0.11011606 -0.06874893
000360 6e 58 bd bd 91 0c 92 3d 5e 03 4a 3d 98 61 7a 3c
       -0.09245382 0.07131303 0.049319617 0.015282057
000370 3d 70 e6 bd a0 de 33 bc 53 8d e4 bd 26 1a d4 bd
       -0.112518765 -0.010978371 -0.11159768 -0.1035655
000380 b8 5f 84 bd 89 d9 c5 3d 03 2d a0 3d b0 1b 16 bd
       -0.064635694 0.09660632 0.07821085 -0.0366475
000390 dd 35 e3 3d 3f fd c8 3d 2e d6 de bd 4d 3b df bd
       0.11094258 0.09813928 -0.10880695 -0.108999826
0003a0 bc 80 9e 3c 79 c6 9d 3d ac 52 33 bd 90 10 fd bb
       0.019348495 0.07703871 -0.043780014 -0.0077229217
0003b0 a7 c3 e0 bd 70 0b 6b bc 61 c4 a8 bd d6 7b 9a bd
       -0.10974818 -0.014345989 -0.08240581 -0.07543151
0003c0 65 31 6c bd b2 fa b4 bd 9f c0 b7 3d 01 08 eb 3d
       -0.057664294 -0.08836879 0.089722864 0.11476136
0003d0 28 49 5f bd 44 6a 88 bd bb 92 a3 3d 50 5e a2 3b
       -0.054513127 -0.066608936 0.07986971 0.0049550906
0003e0 81 19 b3 3d 1b e6 7b bd 9d 8c 90 3d 35 90 d2 3d
       0.08745099 -0.061498743 0.0705807 0.102814116
0003f0 98 78 12 3c 18 87 34 3c 76 4c a7 bd 42 f7 0b 3d
       0.008939885 0.011018537 -0.08168881 0.03417135

conv1.bias f4 [8]
000000 f3 d4 b0 3d ca 3d 44 bd 54 a1 cd bd 43 80 88 3d
       0.08634367 -0.04791049 -0.100405365 0.06665089
000010 a4 2c 9e bc 96 0a 0d 3d d8 02 3b bd 47 67 90 3d
       -0.019308396 0.034433924 -0.04565701 0.070509486

conv2.weight f4 [8, 4, 3, 3]
000000 cd b6 13 3e 86 b3 c0 3d 2c b4 28 be 2d 7d 15 3e
       0.14425202 0.094092414 -0.1647498 0.14598532
000010 1e 35 a3 3d b3 b1 27 be c0 db 6d 3b ba 97 cd 3d
       0.07969116 -0.1637638 0.0036294311 0.10038705
000020 28 01 89 3d 30 1c 49 3d 8c 88 47 bd 15 62 0f 3e
       0.06689674 0.049099147 -0.048714206 0.14002259
000030 00 37 f3 bc a9 6e 08 3e 64 43 2a 3d 95 09 00 3e
       -0.029689312 0.13323463 0.041568175 0.12503655
000040 42 39 d5 3d f8 09 ac 3c 0e 79 aa bd 78 a9 9e bc
       0.10411312 0.021000847 -0.083238706 -0.019367918
000050 18 5d a8 bd 08 30 d2 3c 64 7a 0d be a0 c0 bf bb
       -0.08220881 0.025657669 -0.1381622 -0.00585182
000060 c3 84 15 3e 2b 4a dc bd 00 77 fb bb 5c 82 78 bd
       0.14601426 -0.10756334 -0.007674098 -0.060671195
000070 6b 5d 85 bd 54 be 16 be 74 6d 12 bd 21 39 0a 3e
       -0.06511959 -0.14721042 -0.035748914 0.13498355
000080 da 4e f4 3d 1f a8 09 3e dc 39 73 bd d0 05 19 bc
       0.11929102 0.1344304 -0.05938135 -0.009339765
000090 10 45 6a bd 5a 4a 08 be d2 39 c5 3d 9f d5 07 3e
       -0.05719477 -0.13309613 0.09630169 0.13265084
0000a0 61 7e 1f 3e d5 fb 0f 3e a6 c8 6d bd 6c 6c 1c be
       0.15575553 0.1406091 -0.05805268 -0.15275735
0000b0 ec c0 0e bd a0 06 e6 bc 80 0e 9c bd d0 0d 69 3d
       -0.034851953 -0.02807933 -0.07619953 0.05689794
0000c0 94 1f 25 be 58 bc 1d be e0 9f a5 3b ae 62 a1 bd
       -0.16125327 -0.15403879 0.005054459 -0.0788015
0000d0 9b 1d 11 3e 3a 33 f6 3d 60 bb 94 bd 03 df 80 bd
       0.1417145 0.120214894 -0.072623014 -0.06292536
0000e0 8e 5a f3 bd e3 19 09 be eb 2b fc bd 90 b5 45 3d
       -0.11882506 -0.13388781 -0.12313064 0.048268855
0000f0 75 e9 03 3e f0 cb 8f 3d 30 68 1e be 96 83 82 3d
       0.12882026 0.0702132 -0.15469432 0.06372754
000100 c4 b4 26 be 10 99 53 bd 2e 92 8f 3d 4b 53 cc bd
       -0.16279894 -0.051659644 0.070103034 -0.099768244
000110 38 db d9 3c 80 41 94 3a 00 21 cb 3b 50 eb 6b bd
       0.02659379 0.0011311024 0.0061990023 -0.05759746
000120 80 28 0c be 07 12 04 be 2c e3 68 bd 1c 35 11 3d
       -0.13687325 -0.12897502 -0.056857273 0.03545104
000130 d4 ce 03 3d 58 d6 a0 bd e3 4f b4 bd f2 c5 c9 3d
       0.03217967 -0.07853383 -0.088043 0.09852208
000140 6e 8f c5 3d 5c cb 25 be d8 3a ec bd c0 7e 63 3c
       0.09646498 -0.16190857 -0.11534661 0.0138852
000150 2a 95 e1 3d 64 ab 02 3d 1e 2f 07 be c4 ef 13 be
       0.11014779 0.031901732 -0.13201568 -0.14446932
000160 eb 92 d9 bd 50 53 6b bd 15 42 02 3e a6 0e 93 bd
       -0.106237255 -0.0574525 0.12720521 -0.07180528
000170 61 6d 20 3e d8 7b fe 3c 86 6f 83 bd e6 9f 6a bd
       0.15666725 0.031064913 -0.06417756 -0.057281397
000180 b8 13 fc 3c c2 83 ee 3d 9c 87 4d bd 0c 92 4f bd
       0.030771121 0.116462246 -0.050178155 -0.05067639
000190 18 1a 9f bc 6b 85 dc bd 62 a2 b3 3d b0 6f 13 bc
       -0.019421622 -0.10767635 0.087712064 -0.008998796
0001a0 f6 f5 46 bd 12 54 d2 3d 9b 06 99 bd 10 12 6b bc
       -0.04857441 0.102699414 -0.07471963 -0.014347568
0001b0 20 2a ce 3b 94 7c 79 3d 6e 9c a0 bd 9e c1 ce bd
       0.006291643 0.060909823 -0.078423366 -0.10095523
0001c0 e6 9f af bd ae 2a dc bd 73 a2 b0 bd 60 2e 8c bc
       -0.0857542 -0.10750328 -0.08624735 -0.017111957
0001d0 cc 04 2d 3d 0e 8e 24 be 3e 18 af bd ce 18 12 be
       0.042240903 -0.16069815 -0.08549546 -0.14267275
0001e0 ac a3 07 bd c0 93 d0 3c d0 28 24 3d db 18 17 be
       -0.033115074 0.025461078 0.040077984 -0.14755575
0001f0 0a b3 88 3d d6 b6 e0 3d fc 86 73 3d 67 9b 1d 3e
       0.06674774 0.10972373 0.059454903 0.15391313
000200 ce eb ce bd 3c 9f 2b 3d 58 cb d5 bd f8 d9 8f bd
       -0.1010357 0.041899905 -0.10439175 -0.07023996
000210 2c e9 1b 3d c0 4d f2 3c a1 a6 11 3e b6 d2 9a 3d
       0.038064167 0.02957809 0.1422372 0.07559721
000220 4b a3 b7 bd e4 18 25 be f8 2f ec bd 4b b4 0d be
       -0.089666925 -0.16122776 -0.11532587 -0.13838308
000230 ac 12 27 be 91 c5 1c 3e c6 94 40 bd 5b b3 ed bd
       -0.16315717 0.1530974 -0.04701688 -0.11606475
000240 bf d0 14 be 0b 3b 12 3e 42 36 f0 3d eb 2d 12 3e
       -0.14532755 0.14280336 0.11729099 0.14275329
000250 1b a7 9e bd eb 8a 8c bd 2c 29 6a 3d 95 de 1e 3e
       -0.077467166 -0.06862434 0.05716817 0.15514596
000260 68 c6 c6 3c b8 0a da bc 90 0f 40 3d 9e de 13 be
       0.02426453 -0.02661644 0.04688984 -0.1444039
000270 f7 62 1f 3e e3 0a 16 be ee 80 0a be 00 a5 fc bd
       0.15565096 -0.1465259 -0.13525745 -0.12336159
000280 0a a1 83 3d 26 22 0a be 92 06 2a be f6 a3 92 bd
       0.064272 -0.13489589 -0.16604069 -0.07160179
000290 70 cc 6f bd c8 24 8b 3c 5f 7d 14 3e 99 fa 1b 3e
       -0.058544576 0.016985312 0.1450095 0.15232314
0002a0 c8 ad e1 bc fc b5 36 3d 3e 13 dc 3d 2a c3 d0 3d
       -0.027548686 0.044607148 0.10745858 0.101934746
0002b0 e4 f6 7b 3d 67 4a 1d 3e 00 f4 9b bc f2 09 e1 3d
       0.06151475 0.15360413 -0.019037247 0.10988225
0002c0 06 c0 e9 bd 3e a3 9e bd 80 a0 1b be d0 02 0c be
       -0.11413579 -0.0774598 -0.15197945 -0.13672948
0002d0 06 5f c0 3d 80 5c 4a bd 20 34 da 3b 0c 4b 2c bd
       0.09393124 -0.04940462 0.006659046 -0.042063758
0002e0 28 15 f2 bc 26 8f 82 bd 2a 85 9d 3d 20 d9 8a bb
       -0.029551104 -0.0637496 0.07691415 -0.004237309
0002f0 ac 8c 41 3d 5a 45 f6 3d f6 10 c8 3d 84 ea 72 3d
       0.047253296 0.120249465 0.0976886 0.059305683
000300 f4 3f 04 3d 3e c6 bb bd 8b 6b 14 be 7e f5 1f be
       0.032287553 -0.09168671 -0.1449415 -0.15620992
000310 de 5e ad bd c3 a1 f9 bd 6c 8d 1d 3d c0 56 18 bb
       -0.0846536 -0.12189057 0.03846495 -0.0023245066
000320 1c 1e 5a bd cf 5c 0e 3e b0 a0 08 3c a6 50 fb 3d
       -0.05325137 0.13902591 0.008339092 0.12271242
000330 5c 76 3e bd 61 ea 09 3e 7b 4c e6 bd 80 40 60 bd
       -0.046499595 0.13468315 -0.11245056 -0.054749012
000340 5e 96 8f 3d d0 9b 7c 3c b2 88 c9 3d cd 03 26 3e
       0.07011102 0.015418008 0.09840526 0.16212387
000350 63 88 e6 bd e0 84 aa bc 20 fc fe bd 51 d5 24 3e
       -0.112564825 -0.020815313 -0.12450433 0.16096999
000360 6a c2 fc 3d 6c bc 69 3d f6 14 e5 3d e2 3d dc 3d
       0.12341769 0.05706446 0.111856386 0.10753991
000370 40 67 4b 3d 74 36 25 3d 51 46 15 3e d7 0e 11 3e
       0.049659014 0.040335134 0.14577605 0.14165817
000380 7c 38 16 bd 62 3a f4 3d 04 8e 0c bd 93 3d df bd
       -0.03667496 0.11925198 -0.034315124 -0.10900416
000390 d0 60 4e 3c 13 13 c7 bd 3b 1c 0c be e0 a0 a9 bd
       0.012596324 -0.09720435 -0.13682644 -0.082826376
0003a0 00 00 38 b8 f0 5e 2f bd 28 3a eb bc 40 22 72 bb
       -4.386902e-05 -0.04281515 -0.028714254 -0.0036946684
0003b0 c7 0b 28 be f4 ea 73 3d e0 ae ed bd 5c 6e 1d 3d
       -0.16410743 0.05955024 -0.116056204 0.038435325
0003c0 4e a7 f8 bd b4 9f 01 be 96 a0 d2 bd a2 c3 cb 3d
       -0.12141286 -0.12658578 -0.102845356 0.099494234
0003d0 0a b8 cf 3d 49 40 1d 3e 65 a9 09 3e f2 5b d1 3d
       0.101425245 0.15356554 0.13443525 0.10222615
0003e0 56 10 75 bd 32 73 8f 3d 9c 8d 2c bd 9a 33 2a be
       -0.059830032 0.07004394 -0.042127237 -0.16621247
0003f0 c0 f9 5d bb c0 17 7d 3c ce 56 9c bd 0e 28 a2 bd
       -0.0033870786 0.015447557 -0.07633744 -0.07917796

conv2.bias f4 [4]
000000 45 b2 08 3e 60 fa bf 3b 00 3f 93 bb 68 5c f7 bd
       0.13349254 0.0058587044 -0.004493594 -0.12078172

conv3.weight f4 [4, 1, 2, 2]
000000 a2 f4 ff 3e f2 08 83 3e 10 0d 1f bd ec b1 18 3e
       0.49991328 0.25592762 -0.038830817 0.14911622
000010 98 9d b0 be 5c e7 5c 3e 58 5a 0c be 28 2f 8e 3d
       -0.34495234 0.21572632 -0.13706338 0.06942588
000020 a8 c9 bc 3e 84 40 ba be a8 51 22 3e 90 ef 45 be
       0.36872602 -0.36377347 0.15851462 -0.19329667
000030 5c 55 56 be f4 c4 29 be 0e bb ed be 54 3b 98 3e
       -0.20931 -0.16579038 -0.46431774 0.29732764
