root/tmva/sofie/input_models/Conv3d_d32_L4_B1.onnx (onnx, 245928 bytes, 12 tensors)

conv0.weight f4 [32, 1, 5, 5, 5]
0	0xbce3463f	-0.027743457
1	0x3c7bf84d	0.015379024
2	0x3d3643ec	0.04449837
3	0xbd80a078	-0.06280607
4	0x3da7041c	0.08155081
5	0x3c341cd7	0.010993204
6	0x3d8cf724	0.06883076
7	0xbd9afe04	-0.07567981
8	0xbd4dbeeb	-0.0502309
9	0xbd6306d2	-0.055426426
10	0x3dadf221	0.08493448
11	0xbd1b968e	-0.037985377
12	0x3d9e2058	0.07721013
13	0xbd8a3a8e	-0.0674945
14	0xbccd284c	-0.02504363
15	0x3cd76198	0.026291654
16	0xbd068751	-0.03284389
17	0xbd504dd7	-0.050855484
18	0xbc7cc587	-0.015427954
19	0x3caef065	0.021354863
20	0xbd012dfb	-0.03153799
21	0x3d37f6fb	0.044913273
22	0xbcedf86c	-0.02904912
23	0x3d8a0cad	0.06740699
24	0x3d56ed79	0.052472565
25	0xbda5ee52	-0.081020966
26	0x3c4cb077	0.012493244
27	0xbd3f329d	-0.046679128
28	0x3c375e39	0.011191898
29	0x3d945a9f	0.07243847
30	0xbd30a465	-0.04312553
31	0xbd2fcaea	-0.042918123
32	0x3cf37c0d	0.029722238
33	0xbcedf2b8	-0.029046401
34	0xbbb964b9	-0.005657759
35	0x3d36b44b	0.044605535
36	0x3cac9fd7	0.021072311
37	0x3cf9339a	0.030420113
38	0x3a29b1f9	0.00064733584
39	0xbd98a624	-0.07453564
40	0xbd71c8f5	-0.05902954
41	0xbc788bcf	-0.015170052
42	0x3da547bf	0.08070325
43	0x3bec5d58	0.007213276
44	0x3da8f6d9	0.082502075
45	0x3da073eb	0.078346096
46	0xbd389e74	-0.045072988
47	0xbd22ad4e	-0.039716057
48	0xbd9639f2	-0.07335271
49	0xbd6903e9	-0.056888495
50	0xbd089e8e	-0.033354335
51	0xbcb0b93f	-0.021572707
52	0xbd669ce5	-0.05630197
53	0x3da34bbf	0.07973432
54	0x3cca247f	0.024675606
55	0xbcfd39bd	-0.03091132
56	0xbd9be28f	-0.07611572
57	0xba6b454c	-0.00089748646
58	0xbc4de64c	-0.012567114
59	0xbd40b390	-0.047046244
60	0x3ac4235b	0.001496415
61	0x3db1966e	0.0867127
62	0xbd758d1b	-0.05994902
63	0xbd411b51	-0.04714519
64	0x3d59e998	0.053201288
65	0xbc5eec70	-0.013606176
66	0x3d0db85f	0.034599658
67	0xbd49a51b	-0.049229722
68	0x3d737f90	0.059447825
69	0x3c9e6e5d	0.019339735
70	0xbd3efc7a	-0.0466275
71	0x3a061d20	0.00051160343
72	0xbda0d2aa	-0.07852681
73	0x3d0e4578	0.03473422
74	0xbd59d0cc	-0.05317764
75	0xbd4de860	-0.05027044
76	0xbda04d26	-0.07827215
77	0xbd50aa03	-0.050943386
78	0x3cf5d0fe	0.030006882
79	0x3d690df7	0.056898084
80	0xbcecc3b6	-0.028901916
81	0x3d8dec97	0.069298916
82	0xbccf582a	-0.025310595
83	0x3d866f3b	0.06564184
84	0xbd81ee53	-0.06344285
85	0xbced2cf6	-0.028952103
86	0xbd6b6ac1	-0.057474855
87	0x3cd8344c	0.026392125
88	0xbcf840a2	-0.030304257
89	0x3d5bad56	0.053632103
90	0xbd509277	-0.05092093
91	0xbd18b920	-0.037285924
92	0xbb22ca3a	-0.0024839775
93	0xbda8b03b	-0.08236738
94	0x3cb70f95	0.022346297
95	0x3c71d22c	0.014759582
96	0x3d44d6aa	0.048056282
97	0xbd41d325	-0.047320504
98	0xbd1d806f	-0.038452562
99	0xbd3c2a85	-0.045938987
100	0xbda8326b	-0.082127415
101	0xbd7422cc	-0.059603497
102	0x3dad5114	0.0846273
103	0xbd8aca4a	-0.06776865
104	0x3d65edd5	0.056135017
105	0xbc9e7296	-0.019341748
106	0xbd58a45c	-0.05289112
107	0x3db71322	0.08939196
108	0x3db33635	0.087505735
109	0xbd5ade6f	-0.053434785
110	0x3d6ad5bb	0.057332736
111	0x39f48507	0.0004663842
112	0x3d9923e6	0.0747755
113	0x3db1342d	0.0865253
114	0xbcabe515	-0.020983258
115	0xbd817481	-0.063210495
116	0x3d95d046	0.07315116
117	0xbdaa8676	-0.08326428
118	0x3d9b3877	0.07579129
119	0x3d732b57	0.059367504
120	0x3d2c8b39	0.04212496
121	0xbdb6a9ac	-0.08919081
122	0xbd7996bd	-0.06093477
123	0xbcb41dc2	-0.021986846
124	0xbc3032e7	-0.010754324
125	0x3bf2967f	0.0074031944
126	0x3d9c9ee9	0.07647497
127	0x3a6af805	0.00089633494
128	0x3cabd5d5	0.020975986
129	0xbcb33e82	-0.021880392
130	0xbba6f23d	-0.005094795
131	0x3d18136f	0.03712791
132	0x3d4c4813	0.049873423
133	0x3bf4167a	0.0074489685
134	0x3d9fb333	0.077978514
135	0x3d1fd480	0.039021015
136	0x3c4abbb9	0.012373858
137	0xbd3b3059	-0.045700405
138	0xba3df2ca	-0.0007245956
139	0x3cdf3a6e	0.027249541
140	0x3c7bfacf	0.015379622
141	0xbc03d62f	-0.008046671
142	0x3c876f32	0.016532514
143	0xbd75b8c7	-0.05999067
144	0xbd649a5a	-0.055811264
145	0x3d70a9d9	0.05875573
146	0xbcdb754d	-0.026789332
147	0x3c019f35	0.007911493
148	0xbd8865af	-0.066600196
149	0x3bf88802	0.007584573
150	0xbd831e6f	-0.06402289
151	0xbd4816d7	-0.048849907
152	0xbd06ca1e	-0.032907598
153	0x3d844b7a	0.064597085
154	0xbd64f4c4	-0.05589749
155	0x3aab9163	0.0013089593
156	0x3da15f15	0.078794636
157	0xbdac6c3e	-0.08419083
158	0xbca15e0f	-0.019698171
159	0xbd06c18b	-0.03289942
160	0xbd975a4c	-0.0739027
161	0xbce4e8a3	-0.027942961
162	0xbb61b681	-0.0034441056
163	0xbdb58e01	-0.08864976
164	0xbcb54406	-0.022127163
165	0xbc45c783	-0.012071493
166	0xbd7605e9	-0.06006423
167	0x3d97e5e8	0.07416898
168	0xbc99df8f	-0.018783359
169	0xbdb0f986	-0.08641343
170	0xbda77ae1	-0.08177734
171	0xbba97e19	-0.0051725027
172	0x3d7e7a72	0.06212849
173	0xbca281ea	-0.019837338
174	0xbca54a6f	-0.020177094
175	0x3cad9105	0.021187315
176	0x3c997135	0.01873074
177	0xbd9a3e47	-0.0753141
178	0x3d32927d	0.043596733
179	0x3da8a587	0.08234697
180	0xbd1e5e9c	-0.038664445
181	0x3cacf27c	0.02111172
182	0xbd5c9a84	-0.053858295
183	0xbd3fc6da	-0.0468205
184	0xbc9d8264	-0.019227214
185	0x3d9e056f	0.0771588
186	0x3d88c636	0.06678431
187	0x3d5b3af3	0.053523015
188	0x3cef1d98	0.029188916
189	0x3d187a03	0.037225734
190	0x3c330fc1	0.010929049
191	0x3d08b554	0.033376053
192	0x3d691730	0.05690688
193	0xbbab3d7d	-0.005225836
194	0xbac90958	-0.0015337868
195	0x3d4a99a5	0.049462933
196	0xbdaa9e20	-0.08330941
197	0xbd6a7163	-0.05723704
198	0x3d512377	0.051059213
199	0x3c5143e6	0.012772536
200	0xbda5a0dd	-0.08087323
201	0xbd11be82	-0.035582073
202	0x3d6fc1f5	0.05853458
203	0xbd69b42e	-0.0570566
204	0x3d99090b	0.07472428
205	0x3dab72f7	0.08371537
206	0xbd1cdfaf	-0.03829926
207	0xbd11916a	-0.03553907
208	0x3dade04a	0.08490045
209	0x3b079bc3	0.0020692206
210	0x3d984604	0.074352294
211	0x3d999c5c	0.07500526
212	0x3d49f47a	0.049305417
213	0x3ca44650	0.020053059
214	0x3b48d549	0.0030644706
215	0x3d871105	0.06595043
216	0xbd9565b2	-0.072947875
217	0xbd0cd9a0	-0.03438723
218	0xbcdc1d40	-0.026869416
219	0x3da06e27	0.0783351
220	0x3c861987	0.016369594
221	0xbd5c43d5	-0.053775627
222	0x3d6e5791	0.05818898
223	0xbcb85b14	-0.022504367
224	0xbb14e798	-0.0022721048
225	0xbd2ee554	-0.042699173
226	0xbd89b988	-0.067248404
227	0x3aa7a2fa	0.001278966
228	0xbd96fb81	-0.07372189
229	0xbd1cd983	-0.038293373
230	0x3d88f74b	0.066877924
231	0xbdad734c	-0.08469257
232	0x3da0a017	0.07843035
233	0x3d5d39f2	0.05401034
234	0x3d4d4276	0.05011221
235	0x3c48714a	0.0122340415
236	0x3d6ffe7f	0.058592316
237	0xbd64998c	-0.055810496
238	0x3c42a8e1	0.011881084
239	0x3c29a32b	0.010353844
240	0x3d943eca	0.072385386
241	0x3d37743d	0.044788588
242	0xbdb26b6b	-0.087118946
243	0x3d9eec56	0.07759921
244	0x3d9486fd	0.072523095
245	0x3ce3e788	0.027820364
246	0xbd4ba5df	-0.049718734
247	0x3d6eedee	0.058332376
248	0xbd900b39	-0.070333906
249	0xbd4e3780	-0.050345898
250	0xbd929a50	-0.07158339
251	0x3da3f8d3	0.08006444
252	0x3db6fc25	0.089348115
253	0x3d3b8867	0.04578438
254	0x3d1040c4	0.035218015
255	0xbcdaf4d1	-0.026728066

conv0.bias f4 [32]
0	0xbd11c8c2	-0.03559185
1	0xbc63059a	-0.013856316
2	0x3d522c06	0.051311515
3	0xbda1620c	-0.07880029
4	0x3d7c8ae6	0.0616559
5	0xbd9840c5	-0.07434229
6	0x3cecce44	0.028906949
7	0x3d1848eb	0.037178915
8	0x3d953a28	0.07286483
9	0xbda88f0a	-0.082304075
10	0x3c217a3c	0.009855803
11	0xbd94ff96	-0.07275312
12	0xbc393371	-0.0113037685
13	0x3d9de67e	0.077099785
14	0x3d998ab0	0.07497156
15	0x3d0c8b9c	0.03431283
16	0x3d4a06ef	0.04932302
17	0xbc04c7ae	-0.008104248
18	0x3daf4772	0.08558549
19	0xbdabade7	-0.083827786
20	0x3d44f976	0.048089467
21	0xbd27413a	-0.04083369
22	0xbd9314f7	-0.07181733
23	0xbc9999f3	-0.018750167
24	0x3c898474	0.016786791
25	0x3cc2ca32	0.023778055
26	0xbd751a1e	-0.05983936
27	0x3cda6f58	0.026664421
28	0x3d720e5e	0.059095733
29	0xbd97af35	-0.07406465
30	0x3c373f75	0.011184563
31	0x3d2f0b8b	0.042735618

conv1.weight f4 [8, 32, 5, 5, 5]
0	0xbc4a6fdb	-0.01235577
1	0xbbdca38b	-0.006733363
2	0x3bb08c40	0.005387813
3	0x3c60d19a	0.013721848
4	0xbc80e67d	-0.015734905
5	0xbc356081	-0.011070372
6	0x3bed6544	0.007244738
7	0xbc1ee3b0	-0.00969784
8	0xbba52889	-0.0050402326
9	0xbc3e7c1d	-0.011626271
10	0x3c523b4c	0.01283152
11	0x3c5823b1	0.013192103
12	0xbc6e9174	-0.014561046
13	0xbc282aaf	-0.010264083
14	0x3c7253c4	0.014790479
15	0xbaeaaec8	-0.0017904872
16	0xbbcee09f	-0.006313398
17	0xbc6e8e8b	-0.014560352
18	0x3c50c873	0.012743103
19	0xbc4d0726	-0.012513911
20	0xbc43e100	-0.0119555
21	0xbc00fc25	-0.007872616
22	0x3c6ec643	0.014573636
23	0xbb5ada9c	-0.0033394461
24	0x3c4e57b8	0.012594156
25	0x3bfd1222	0.007723109
26	0xbb14eaff	-0.0022723076
27	0x3c34b9de	0.011030642
28	0x3c46b2be	0.012127576
29	0x3c3f6f65	0.011684273
30	0x3c638cfa	0.013888592
31	0x3b960c68	0.0045791157
32	0xbc0a2fc2	-0.008434238
33	0xbbad8a18	-0.005296003
34	0x3bdcf774	0.006743366
35	0x3c2ff9d4	0.010740716
36	0xbbe9e6e1	-0.0071381186
37	0xbc652f4b	-0.013988326
38	0xbc3ec9a3	-0.011644754
39	0x3c2ef39f	0.010678201
40	0x3c5c7c8f	0.013457431
41	0x3baa48bd	0.0051966594
42	0x3b99b21a	0.004690421
43	0x3bf93822	0.0076055685
44	0x3c7461e6	0.014915919
45	0x3bebdc0d	0.007197863
46	0xbc78d42d	-0.015187305
47	0xbc5812fa	-0.013188118
48	0xbb0d37b2	-0.002154809
49	0xbbb72119	-0.0055886623
50	0xbc7287b5	-0.014802863
51	0xbc0a5eea	-0.008445481
52	0xbbba63f8	-0.0056881867
53	0xbbd4af1d	-0.0064906017
54	0x3c0bbbbd	0.008528647
55	0xbb94a2a0	-0.004535988
56	0x3c2e3e62	0.01063499
57	0x3c72127b	0.014774914
58	0x3b190c45	0.002335326
59	0xbbbd9ef8	-0.005786773
60	0x3c51fd15	0.012816687
61	0xbc7dcd9c	-0.015490916
62	0x3c01bff0	0.007919297
63	0xba906a60	-0.001101803
64	0x3c62db01	0.01384616
65	0x3bfe8b07	0.007768038
66	0x39a6f3d3	0.0003184365
67	0x3c5bbb5a	0.013411367
68	0x3b220cb7	0.0024726817
69	0xbb8edfa5	-0.0043601566
70	0x3b1b8366	0.0023729443
71	0xbae94401	-0.0017796756
72	0xb9a1f0f4	-0.00030887837
73	0x3b641b99	0.0034806489
74	0xbb16d0c9	-0.002301263
75	0xbbb95a7f	-0.00565654
76	0xbbb31eab	-0.0054663024
77	0x3c6bfb88	0.014403231
78	0x3bbab551	0.005697884
79	0x3bbddef1	0.005794399
80	0x3c003935	0.007826139
81	0xbc58329e	-0.013195662
82	0xbb5d4abf	-0.0033766476
83	0x3c18fa63	0.009337041
84	0x3bfe2d55	0.007756869
85	0x3b4ff93e	0.0031734253
86	0xbc2210f6	-0.009891739
87	0x3bd2388a	0.0064154314
88	0x3c4c9484	0.012486581
89	0xbb7dadf4	-0.003870842
90	0x3ac12379	0.0014735303
91	0xbc772ae9	-0.015085914
92	0xbbe4a78b	-0.0069779805
93	0x3c3a17d8	0.011358224
94	0xbc1864ca	-0.009301374
95	0x3b6e0d74	0.0036323937
96	0xbb7217ad	-0.0036940381
97	0x3b30d120	0.0026980117
98	0x3c13bf7b	0.0090178205
99	0x3bef8208	0.007309202
100	0x3c407352	0.0117462445
101	0x3be38749	0.0069436175
102	0x3c2e785d	0.010648814
103	0x3a22192d	0.0006183561
104	0x3c05d72f	0.00816898
105	0x3c60a1cb	0.013710449
106	0x3b643088	0.0034818966
107	0x3b8bac3c	0.0042624753
108	0x3ba8bddd	0.0051495866
109	0xbaabc806	-0.0013105876
110	0xbc0c3744	-0.008558098
111	0xbbead363	-0.0071663125
112	0x3bc95653	0.006144324
113	0x3c2d172f	0.010564609
114	0x3bc4ddf2	0.0060079033
115	0xbbe6656d	-0.007031134
116	0x3c7f9fc2	0.015602054
117	0xbc12e68e	-0.008966101
118	0xbb90ceab	-0.004419168
119	0xbc0014b9	-0.007817441
120	0xba4ba2a6	-0.0007768072
121	0x3c1daf2f	0.009624287
122	0x39af0d44	0.00033388485
123	0x3aeb741c	0.001796368
124	0xbb6c1dec	-0.0036028577
125	0x3c2063a9	0.009789386
126	0xbc800059	-0.015625166
127	0x38326865	4.2535732e-05
128	0x3c424f6c	0.011859756
129	0xbc524a93	-0.012835163
130	0xbc628c15	-0.0138273435
131	0x3bdb0466	0.006683874
132	0xbc576c4d	-0.0131483795
133	0xbbe1695e	-0.006879016
134	0xbc483c60	-0.012221426
135	0x3c3caffa	0.011516565
136	0x3c0ae57a	0.008477563
137	0x3b87ae65	0.0041406625
138	0x3c13d7f7	0.009023658
139	0xbb7d919f	-0.0038691533
140	0xbaeef1f5	-0.0018230068
141	0x3c6e620b	0.014549742
142	0xbc77fa51	-0.015135364
143	0x3b2440de	0.0025063078
144	0xbbf6ea2a	-0.0075352388
145	0x3c38180c	0.011236202
146	0xbc6b6b92	-0.0143689085
147	0xba60f786	-0.0008581806
148	0xbabbe2f0	-0.00143346
149	0x3c495402	0.012288095
150	0x3c688d1d	0.0141938
151	0xbc2021f0	-0.009773716
152	0x3c593fba	0.0132598225
153	0xbb9bc690	-0.004753895
154	0xbc1c870b	-0.009553681
155	0x3b82a1f0	0.0039865896
156	0xbc17da6c	-0.009268384
157	0x3c3749a9	0.011186996
158	0xbc0af496	-0.008481165
159	0xbbb240d6	-0.005439858
160	0xbb8454dd	-0.004038437
161	0xbbfcd5f8	-0.0077159368
162	0xbbc8b6a5	-0.0061252885
163	0x3a883f8b	0.0010394914
164	0xbb82a3ca	-0.0039868103
165	0xbc630aec	-0.013857584
166	0x3c1eb3cb	0.009686421
167	0x3b615f27	0.003438899
168	0x3b2c5049	0.002629297
169	0x3b765592	0.0037587625
170	0x3c200966	0.009767866
171	0x3c0684b2	0.008210348
172	0x3c6dc822	0.014513047
173	0x3b8da00d	0.004322058
174	0x3c6459cc	0.013937425
175	0xbc5e4131	-0.0135653475
176	0xbba44766	-0.005013394
177	0x3ab6c287	0.0013943472
178	0xbc048858	-0.0080891475
179	0xbbecaa0f	-0.007222421
180	0x3c1dd979	0.009634369
181	0x3bfdf7f7	0.007750507
182	0x3be1e465	0.006893682
183	0x3c182f7f	0.009288668
184	0xbc2c5b4a	-0.010519812
185	0x3c1321c5	0.008980219
186	0xbbd43c83	-0.00647694
187	0x3c74763f	0.01492077
188	0xbc354ad5	-0.011065205
189	0xbc07e4a8	-0.008294262
190	0x3c4ca656	0.012490829
191	0xbc2ea098	-0.010658406
192	0x3c5a069c	0.01330724
193	0x3c3cd252	0.011524754
194	0xbc7be538	-0.015374474
195	0xbb8d6895	-0.0043154457
196	0xbbe04613	-0.006844291
197	0x3c273500	0.010205507
198	0xbb1b5a5a	-0.0023704977
199	0xbbce0e9d	-0.006288363
200	0xbc098f58	-0.008395992
201	0x3c258cab	0.010104339
202	0x3a59c838	0.0008307728
203	0xbbd8d2ab	-0.0066169105
204	0x3c4bf6b8	0.012448959
205	0xbc36e061	-0.011161895
206	0xbbfcde31	-0.007716917
207	0x3b5b2ccc	0.003344345
208	0xbb976f33	-0.0046214103
209	0x3ac36dc2	0.001491003
210	0x3c1ba50d	0.0094998
211	0xbc08d5c0	-0.008351743
212	0xbade2c68	-0.001695049
213	0x3c62e742	0.0138490815
214	0xbbc899b6	-0.0061218394
215	0xbbebb9d6	-0.007193784
216	0x3c4748d1	0.012163357
217	0xbbf3ae90	-0.007436581
218	0x3c6ff35c	0.014645424
219	0x3bf9a60e	0.007618672
220	0xbc0d7976	-0.008634916
221	0x3acc8656	0.0015604
222	0xbc36bb5e	-0.01115307
223	0xbbef8c0e	-0.007310397
224	0xbc75d61d	-0.015004662
225	0x3c55d078	0.013050191
226	0xbc1888f5	-0.009309997
227	0xbb49bfcd	-0.0030784488
228	0x3c09f38a	0.008419881
229	0xba8f5979	-0.0010936699
230	0xbc773625	-0.015088593
231	0x3bb256f0	0.0054424927
232	0x3ad160ab	0.0015974244
233	0x3abc114c	0.0014348417
234	0xbc58b776	-0.013227334
235	0xbc536d13	-0.012904423
236	0xbc6498b4	-0.013952423
237	0x3bc5b050	0.006032981
238	0x3b853c9c	0.004066063
239	0x39cb555d	0.00038782778
240	0xbc41e99d	-0.011835483
241	0x3c04e6c9	0.008111664
242	0xbaa4f95b	-0.0012586521
243	0x3982ddac	0.0002496069
244	0x3b4d2eca	0.0031308406
245	0xbbdb697b	-0.006695924
246	0x3c618055	0.013763507
247	0xbc3ce691	-0.011529581
248	0x3c1af52d	0.0094578685
249	0x3c4b0fc5	0.0123938965
250	0x3b702cec	0.003664787
251	0xbc544e16	-0.01295807
252	0x3b8ba749	0.0042618853
253	0x3c04fcc7	0.008116907
254	0x3c03c9e7	0.008043743
255	0x3bd89e71	0.0066106846

conv1.bias f4 [8]
0	0xbb23b85a	-0.0024981708
1	0xbc08c93a	-0.008348757
2	0x3ad5d815	0.0016315008
3	0x3983e039	0.00025153326
4	0x3be5ee21	0.0070169126
5	0xbb86c1db	-0.004112465
6	0xbc49a222	-0.012306722
7	0x3c5648a3	0.013078841

conv2.weight f4 [8, 8, 5, 5, 5]
0	0xbc6e6203	-0.014549735
1	0x3b8d950b	0.004320746
2	0xbb546ff6	-0.0032415367
3	0x3c8f1d78	0.017470106
4	0x3cfd73c5	0.030938992
5	0xbb2b3ee8	-0.0026130024
6	0x3cf6142e	0.03003892
7	0x3c24091a	0.010011936
8	0xbaef9645	-0.0018279037
9	0x3c9d9aa7	0.019238783
10	0xbbb28223	-0.0054476424
11	0x3bbd3d14	0.0057751033
12	0xbb402364	-0.002931797
13	0x3bdbfb5b	0.0067133135
14	0xbbb331bd	-0.0054685757
15	0xbad108f2	-0.00159481
16	0xbce32ba5	-0.027730772
17	0xba13f1f7	-0.00056436606
18	0x3c4831b0	0.012218878
19	0x3b10e6e8	0.0022110287
20	0xbcfdeb9c	-0.030996136
21	0xbcbc3c4f	-0.022977976
22	0x3b4f1651	0.0031598995
23	0xbc137980	-0.009001136
24	0xbc122a89	-0.008921274
25	0xbc2d082c	-0.01056103
26	0x3c89b92e	0.016811933
27	0x3cc076e2	0.023494188
28	0xbb9164c4	-0.004437061
29	0xbcd33cb7	-0.025785787
30	0xbc325458	-0.010884367
31	0xbbbfa831	-0.0058489074
32	0xbcec39d6	-0.028836172
33	0xbb4b3a1b	-0.0031009975
34	0x3cd8df14	0.02647356
35	0x3cade1a2	0.021225754
36	0x3c452c2e	0.012034459
37	0x3c38b31a	0.01127317
38	0xbc8bffca	-0.017089743
39	0xbbf9f456	-0.007628004
40	0xbca0f9ec	-0.019650422
41	0xbbe71d2b	-0.0070530376
42	0x3c5229a1	0.012827308
43	0xbc334040	-0.010940611
44	0xbcba89ae	-0.022770729
45	0xba4a4dc2	-0.00077172753
46	0x3ce65cbe	0.028120395
47	0x3cb1c203	0.021698957
48	0xbc8c7ef8	-0.017150387
49	0x3cef5bb0	0.029218525
50	0x3cdb1bba	0.02674662
51	0xbcea16ee	-0.028575387
52	0x3caed1f3	0.021340346
53	0xbce1c114	-0.027557887
54	0x3beaa564	0.0071608294
55	0x3c86bfe1	0.016448917
56	0x3cf47602	0.029841427
57	0x3c89f9d7	0.016842766
58	0x3cbf8523	0.023378914
59	0xbcc59506	-0.024118911
60	0xbcf0ce0c	-0.029395126
61	0x3add3369	0.0016876283
62	0x3ae4b7d8	0.0017449809
63	0xbc0577ba	-0.008146221
64	0x3c206467	0.009789563
65	0x3cf4e507	0.029894365
66	0xbc3cf27f	-0.011532425
67	0x3ba3c60b	0.004997974
68	0xbbd9ee7b	-0.0066507435
69	0xbcccb09b	-0.024986556
70	0xbc63cc2d	-0.01390366
71	0xbb598be1	-0.0033194947
72	0xbce42041	-0.027847411
73	0x3cd9f091	0.026603969
74	0xbc9d4cb6	-0.019201618
75	0xbbeed80f	-0.00728894
76	0x3bdf5b42	0.0068162987
77	0x3c973b0b	0.018460771
78	0xbd00fb07	-0.0314894
79	0x3c98b3b8	0.018640384
80	0x3c1bcd1c	0.009509351
81	0xbbb69fd6	-0.005573253
82	0xbccd1cf8	-0.025038227
83	0x3be7be62	0.007072256
84	0xbb342657	-0.0027488673
85	0x3cc23e30	0.023711294
86	0xbc6f2d91	-0.014598266
87	0xbba62199	-0.005069923
88	0x3be087bd	0.0068521188
89	0x3ced1e4e	0.028945114
90	0xbc2bdaeb	-0.010489206
91	0xbcb35c77	-0.021894677
92	0x3b8a422c	0.004219314
93	0xbc5a3e07	-0.0133204525
94	0x39a03e95	0.00030564205
95	0xbca1d049	-0.019752638
96	0xbb509dbe	-0.0031832303
97	0x3c76646e	0.015038593
98	0x3b1177fe	0.0022196765
99	0x3bd6dcc8	0.006557081
100	0xbbb60418	-0.005554687
101	0xbbe3cd65	-0.006951975
102	0xbcce6b14	-0.025197543
103	0xbcf380dd	-0.029724533
104	0xbcec30d9	-0.028831886
105	0xbcf92cd2	-0.03041688
106	0xbcab7e59	-0.02093427
107	0x3c208597	0.009797475
108	0xbc9d2ab9	-0.01918541
109	0x3bc3633b	0.005962757
110	0x3b6167a9	0.0034394062
111	0xbcb5ca85	-0.022191295
112	0x3c1f5240	0.0097242
113	0x3a4515c2	0.0007518196
114	0xbcffb426	-0.031213831
115	0xbcc5b3b9	-0.02413355
116	0xbb80d8b4	-0.003932083
117	0x3cc327af	0.023822634
118	0xbc749daa	-0.014930168
119	0xbc9fc63a	-0.019503701
120	0xb9355c4e	-0.00017295891
121	0xbcd3a584	-0.02583576
122	0xbc140551	-0.009034471
123	0x3c8918da	0.016735483
124	0xbcf268ab	-0.029590925
125	0x3b06d901	0.0020576122
126	0x3c65aba0	0.014017969
127	0xbcd3be32	-0.025847528
128	0x3ca949c6	0.02066506
129	0x3c81b690	0.015834123
130	0xbc83b32b	-0.016076645
131	0x3c7a5454	0.015278894
132	0xbbff4456	-0.0077901287
133	0x3ced8f4d	0.028998995
134	0x3918a19b	0.00014556052
135	0xbc1feb31	-0.009760664
136	0x3c0c1cb8	0.008551769
137	0x3bae57e1	0.0053205346
138	0xbc8a03c7	-0.016847504
139	0xbcc8272a	-0.024432737
140	0x3b90c6df	0.0044182385
141	0x3ba8c954	0.0051509533
142	0x3b8676d8	0.0041035227
143	0xbc3be8a1	-0.011469037
144	0xbc9593e8	-0.018259004
145	0xbb88ba65	-0.0041726106
146	0xbcca58cf	-0.02470055
147	0xbcf4e2d9	-0.029893326
148	0x3cfef77f	0.031123875
149	0x3cd7acfe	0.026327606
150	0x3bf6784a	0.007521664
151	0xbce68941	-0.02814162
152	0x3c44e170	0.012016639
153	0xbbaca1df	-0.00526832
154	0x3cbfd2ec	0.023416005
155	0xbcc0ad97	-0.023520274
156	0xbcf740ee	-0.030182328
157	0x3ca92018	0.020645186
158	0x3cab1e54	0.020888485
159	0x3caec563	0.021334356
160	0x3c1f9f3c	0.009742554
161	0xbd0185bd	-0.031621683
162	0x3c100fd3	0.008792835
163	0x3c175eb5	0.0092388885
164	0x3b07f2e3	0.0020744137
165	0x3cd6b7d4	0.026210703
166	0x3d00d359	0.031451557
167	0x3c9059ca	0.01762094
168	0xbce24503	-0.027620798
169	0x3c5088fc	0.012727972
170	0x3c846db4	0.016165592
171	0xbc2175c0	-0.009854734
172	0xbca775ee	-0.020441975
173	0xbcdd956f	-0.027048795
174	0x3c813536	0.015772443
175	0x3b95bb94	0.00456948
176	0x3c61aa01	0.013773442
177	0xbc620aa0	-0.0137964785
178	0x3cb783a4	0.022401638
179	0x3c1fcd94	0.0097536035
180	0x3c87ed3e	0.016592618
181	0xbc27e981	-0.010248543
182	0x3c1ce6ce	0.0095765125
183	0x3c22b356	0.009930452
184	0x3cc4f39d	0.024041945
185	0x3b2f8e8a	0.002678784
186	0xbb02531a	-0.0019885958
187	0xbd0092f4	-0.031390145
188	0xbb345108	-0.0027514119
189	0x3ba8499b	0.0051357276
190	0x3c2aec7b	0.010432358
191	0xbc7d1c04	-0.015448574
192	0xbaf8119e	-0.0018926149
193	0x3cb10306	0.021607887
194	0xbcd51f27	-0.026015831
195	0x3ca15a45	0.019696364
196	0xbb8aa765	-0.0042313808
197	0xbcc31622	-0.023814265
198	0xbcd89fd5	-0.026443401
199	0xbc90b80f	-0.017665891
200	0xbb17b42f	-0.002314817
201	0xbc88041d	-0.016603524
202	0x3cc5ecd9	0.02416079
203	0x3c2d7c87	0.010588772
204	0xbbc57c37	-0.0060267705
205	0x3b1fa443	0.0024359382
206	0x3c65554f	0.01399739
207	0xbc2e63a8	-0.010643877
208	0xbc403837	-0.011732153
209	0xbcbb0eda	-0.02283423
210	0x3c3dff63	0.0115965335
211	0xb9977ba4	-0.00028893084
212	0xbc0b7e31	-0.008513973
213	0x3c1add38	0.009452157
214	0x3ced2925	0.028950283
215	0x3c41d13e	0.011829672
216	0xbbec8960	-0.007218525
217	0x3c3d9567	0.011571265
218	0x3c2d1afd	0.010565517
219	0x3baf7d46	0.00535551
220	0xbb8a351c	-0.004217757
221	0xbc7fd627	-0.015615023
222	0x3b9ae76f	0.004727296
223	0x3ca411da	0.020028044
224	0xbb7a7f52	-0.0038222861
225	0x3a985921	0.0011623242
226	0xbce85708	-0.028361812
227	0xbc5d8589	-0.013520607
228	0x3c13d357	0.009022555
229	0x3c0f7595	0.008756061
230	0x3cf452ba	0.029824603
231	0xbc8dad79	-0.017294632
232	0x3c122a95	0.008921285
233	0x3cb3bc43	0.021940356
234	0xbcfe2a9a	-0.031026173
235	0x3c1d8b26	0.009615695
236	0x3c73f4cc	0.014889907
237	0x3bf5e371	0.00750392
238	0xbceb3676	-0.028712492
239	0xbc7ba753	-0.015359717
240	0xbaec62fd	-0.0018034872
241	0x3cd09c73	0.025465226
242	0xbcd15623	-0.025553769
243	0xbccd843e	-0.025087472
244	0x3c11452d	0.00886659
245	0xbc822b07	-0.015889658
246	0xbcde7e6e	-0.027159896
247	0x3cd72b7e	0.026265856
248	0xbcfcd89c	-0.030865006
249	0xbc16a0dc	-0.009193625
250	0x3ac32831	0.0014889297
251	0xbcd8927d	-0.026437039
252	0xbb38663a	-0.0028137104
253	0x3cb23b33	0.021756744
254	0xbbcc12c1	-0.0062278216
255	0x39e9bad8	0.00044580433

conv2.bias f4 [8]
0	0xbbe35f99	-0.0069388864
1	0xbcef493c	-0.029209726
2	0x3ba71d79	0.005099949
3	0x3bce2230	0.0062906966
4	0x3af079d4	0.0018346854
5	0xbc90cc6a	-0.017675597
6	0x3cc06ab8	0.023488387
7	0xbaf93285	-0.0019012248

conv3.weight f4 [8, 8, 5, 5, 5]
0	0xbb59648b	-0.00331715
1	0xbb9a5f85	-0.004711094
2	0x3d001173	0.03126664
3	0xbd00900e	-0.03138738
4	0xbcf634c1	-0.030054452
5	0xbcd40039	-0.025879012
6	0xbb64149c	-0.0034802323
7	0xba8da678	-0.0010807058
8	0x3cdceb8e	0.02696779
9	0x3cc2c36e	0.023774829
10	0x3ce07962	0.02740163
11	0xbcf65c0b	-0.030073186
12	0x3c60af8d	0.01371373
13	0x3c42215b	0.011848773
14	0x3aabb4cc	0.0013100146
15	0xbc098d7a	-0.008395547
16	0xbcfa21cb	-0.030533692
17	0x3be41754	0.0069607887
18	0x3d00da67	0.031458285
19	0x3cc64152	0.024201069
20	0x3cef4330	0.029206842
21	0xbb50cad7	-0.0031859183
22	0xbce57f07	-0.028014673
23	0xbc59dfa6	-0.013297951
24	0x3cd2596b	0.025677403
25	0x3ccddcc3	0.025129681
26	0x3ca12a56	0.019673508
27	0xbcf601e5	-0.0300302
28	0x3cd69ab5	0.026196817
29	0x3b400323	0.0029298745
30	0xbc8ab844	-0.016933568
31	0x3bab1843	0.005221398
32	0x3c94d013	0.018165624
33	0x3795426e	1.7793118e-05
34	0xbcbf958a	-0.023386735
35	0xbcaf8848	-0.021427289
36	0x3cf9fd74	0.030516364
37	0xbb98f059	-0.0046673235
38	0x3caf6fd8	0.021415636
39	0xb9b5a9b8	-0.0003464946
40	0x3c1fff56	0.009765467
41	0xbbc728c4	-0.0060778577
42	0x3c9e8b3f	0.019353507
43	0x3c657eed	0.014007312
44	0xbcdd90aa	-0.02704652
45	0x3b06e057	0.0020580494
46	0x3a7581a2	0.0009365325
47	0x3c30fc11	0.010802285
48	0x3cbfafc3	0.02339924
49	0xbcd30d4c	-0.025763176
50	0xbc89e4fc	-0.016832821
51	0xbca29808	-0.019847885
52	0x3c0dfa18	0.008665584
53	0xbb1698d8	-0.0022979286
54	0x3b125e86	0.0022334172
55	0xbb0dbfa4	-0.002162912
56	0x3b0eebfe	0.0021808143
57	0x3cda64ca	0.026659388
58	0x3ca5fe4c	0.02026286
59	0xbbe0c0d9	-0.0068589267
60	0xbc9ac51a	-0.018892813
61	0xbc9277d4	-0.017879404
62	0xbcb327db	-0.02186959
63	0x3c0153d0	0.007893518
64	0x3ca2d361	0.019876184
65	0xbcdc1cbe	-0.026869174
66	0x3cd4ea0f	0.025990514
67	0xbc9e98ac	-0.019359909
68	0x3bd1d033	0.006402993
69	0xbc887541	-0.016657474
70	0x3c2cc105	0.010544066
71	0x3cd413c2	0.025888328
72	0xbc7150cc	-0.014728736
73	0xbcd05352	-0.025430355
74	0xbcd7b452	-0.0263311
75	0xbbfe742a	-0.0077653127
76	0xbcfe7661	-0.031062307
77	0x3cd22bf6	0.025655728
78	0x3c1d63b7	0.009606293
79	0x3ae3d449	0.0017381991
80	0xbb854619	-0.004067194
81	0xbc9eefa4	-0.019401379
82	0x3c0089e3	0.007845375
83	0x3bdf092a	0.0068065124
84	0x3c776816	0.0151005
85	0xbcc1aac1	-0.023640992
86	0x3c70c96c	0.01469646
87	0xbc5e0490	-0.0135508925
88	0xbcc7484c	-0.024326466
89	0xbc949e2f	-0.018141834
90	0xbc4d94a9	-0.01254765
91	0xbc8cc983	-0.017185932
92	0x3aed1ae8	0.0018089684
93	0x3bb881b5	0.0056306967
94	0x3b9ef08d	0.004850453
95	0xbcf5c550	-0.030001312
96	0xbcc66409	-0.024217622
97	0x3b12206a	0.0022297152
98	0xbcd44719	-0.025912808
99	0xbc73b650	-0.01487501
100	0xbcaf6e4d	-0.0214149
101	0xbbc7c617	-0.006096612
102	0x3cbb90af	0.022896139
103	0x3c8c75ba	0.01714598
104	0x3c823b9d	0.015897566
105	0xbc46ee89	-0.012141832
106	0xbcbb7832	-0.022884462
107	0x3cc7aac1	0.024373414
108	0xbc09ee26	-0.008418595
109	0x3bb39270	0.005480103
110	0xbb5db145	-0.0033827585
111	0x3979f551	0.00023837878
112	0xbb2fe98d	-0.0026842088
113	0xbcd31f9d	-0.02577191
114	0x3b316475	0.0027067934
115	0xbcda13cc	-0.026620768
116	0x3c8ba699	0.017047213
117	0xbc55f86b	-0.013059716
118	0x3c86021a	0.016358424
119	0x3cec96c5	0.028880486
120	0xba0688ff	-0.00051321083
121	0xbb2c42f9	-0.0026285036
122	0x3cc9f3e3	0.024652427
123	0xbc01e4d6	-0.007928094
124	0x3c89c64e	0.016818192
125	0x3be91cab	0.007114013
126	0x3cd4b892	0.025966916
127	0xbbf717bb	-0.0075406707
128	0x3beccd8e	0.0072266525
129	0x3cd145f0	0.025546044
130	0xbcaf5643	-0.021403437
131	0x3c5873e9	0.013211229
132	0x3c8d7475	0.017267445
133	0x3c39edbb	0.011348183
134	0xbc71d486	-0.014760142
135	0x3ce90d01	0.028448584
136	0x3b889cf4	0.004169101
137	0xbcaa1e63	-0.020766443
138	0xbb76090b	-0.003754201
139	0xbceea9de	-0.029133733
140	0x3cabc24c	0.020966671
141	0xb7c68f35	-2.3670125e-05
142	0x3c264dba	0.010150367
143	0xbcf38f50	-0.029731423
144	0xbcc1c45b	-0.0236532
145	0x3b87e1d0	0.004146792
146	0xbc6a15d3	-0.01428743
147	0x3c82567f	0.015910385
148	0xbc464261	-0.012100787
149	0xbc59573b	-0.013265426
150	0x3b29a2fd	0.0025884502
151	0xbc014e17	-0.007892153
152	0x3a38f4e8	0.0007055537
153	0xbcd39666	-0.025828552
154	0x3cee83f1	0.029115649
155	0x3cbc305f	0.022972284
156	0xbc64c57d	-0.0139631005
157	0x3b9c6b9b	0.0047735698
158	0x3cb4c651	0.02206722
159	0x3c4d2279	0.012520426
160	0x3c874d88	0.016516462
161	0x3b0af18d	0.0021201104
162	0xbaddb38b	-0.001691447
163	0xbc069c21	-0.008215935
164	0x3a608e69	0.00085661426
165	0xbca9ff05	-0.020751486
166	0xbce362b5	-0.027757028
167	0xbc40f620	-0.011777431
168	0x3cefd3c7	0.029275788
169	0xbc3920fd	-0.011299369
170	0xbc405dcd	-0.011741114
171	0xbcc5a7f7	-0.024127943
172	0xbca586a3	-0.020205801
173	0x3cfc6f06	0.030814659
174	0xbc54c616	-0.0129866805
175	0xbced16ec	-0.028941594
176	0xbc79def6	-0.015250912
177	0xbcd50c4c	-0.02600684
178	0x3c5317d4	0.012884099
179	0xbb95ffa1	-0.0045775925
180	0xba345fd4	-0.00068807346
181	0x3c6276c7	0.013822264
182	0xbc81a38f	-0.015825061
183	0x3c23bf4b	0.009994338
184	0x3c8bac2e	0.017049875
185	0x3b55504b	0.003254908
186	0x3c3a07b6	0.0113543775
187	0xbcde4cc2	-0.02713621
188	0xbc3c4e74	-0.011493314
189	0xbc8e8add	-0.0174002
190	0x3c718973	0.014742243
191	0x3cb37ee7	0.021911098
192	0xbbf4b3fd	-0.0074677453
193	0x398f2f19	0.00027310176
194	0xba267108	-0.00063492404
195	0x3c8031ae	0.01564869
196	0x3c74d707	0.014943845
197	0x3b8c0a0b	0.004273658
198	0x3cf05a44	0.029339917
199	0x3cc8573b	0.024455657
200	0xbc2d3882	-0.010572555
201	0x3c93bbab	0.018033823
202	0x3ad0989f	0.0015914625
203	0xbbff9d9c	-0.007800771
204	0x3b036c4b	0.0020053561
205	0x3cb8eda6	0.022574257
206	0x3c438cd8	0.011935435
207	0x3c80f2c7	0.015740765
208	0xbb130e89	-0.0022439084
209	0xbb94c8c7	-0.004540536
210	0xbafc83e9	-0.0019265387
211	0xbc562cc1	-0.013072194
212	0x3c8220d7	0.0158848
213	0xbc4e8834	-0.012605716
214	0x3ce09960	0.027416885
215	0x3c58644d	0.013207507
216	0x3c317ed0	0.010833457
217	0x3c870118	0.016480014
218	0xbcfba5fd	-0.030718798
219	0xbcf2eaa9	-0.02965291
220	0x3cee53e0	0.02909273
221	0xbcd130bc	-0.025535934
222	0xbc29b5d6	-0.0103582945
223	0x3cd97095	0.026542941
224	0x3b2cd728	0.002637336
225	0xbb7052fe	-0.003667056
226	0xbcc45209	-0.023964899
227	0x3c2ec547	0.010667152
228	0xbcb56c7f	-0.022146462
229	0x3c829e5f	0.015944658
230	0xbc4477c9	-0.01199145
231	0x3c8f57bd	0.017497892
232	0xbcddc407	-0.027071012
233	0x3c98200c	0.018569969
234	0xbd0169e6	-0.031595133
235	0x39d1cb1c	0.00040014915
236	0xbb9d2c70	-0.004796557
237	0x3caf733e	0.021417256
238	0xbce0f562	-0.027460758
239	0xbcfc0aa3	-0.03076679
240	0x3c6b5a6e	0.014364822
241	0x3b2f93ba	0.0026790933
242	0xbbcf199b	-0.006320191
243	0x3ce621c4	0.028092273
244	0xbaa208dc	-0.001236226
245	0xbc64776e	-0.01394449
246	0x3c30c08e	0.010788096
247	0xbc072d37	-0.008250526
248	0xbcc84ee8	-0.024451688
249	0x3ac183bc	0.0014763991
250	0xbcc1eceb	-0.023672542
251	0xbc5acef8	-0.013355009
252	0x3c230d15	0.0099518495
253	0xbcb5cb53	-0.02219168
254	0xbc1f8245	-0.0097356485
255	0x3cfcf078	0.030876383

conv3.bias f4 [8]
0	0x3bb62d6d	0.0055596144
1	0x3ce5e0a0	0.028061211
2	0x3c11f3e0	0.008908242
3	0xbae01844	-0.0017097075
4	0x3cb0b178	0.021568999
5	0x3c4a15e1	0.012334318
6	0xb9dec6ca	-0.0004249125
7	0x3c3a8aa5	0.0113855945

conv4.weight f4 [4, 8, 6, 6, 6]
0	0x3c88e05b	0.016708544
1	0xbc1aefe7	-0.009456611
2	0x3c81ec91	0.015859874
3	0xbc974adf	-0.018468319
4	0xbc172e63	-0.009227368
5	0xbbeff9d9	-0.0073234853
6	0xbc2e59ea	-0.010641554
7	0x3caa16d2	0.020762835
8	0x3cbb9b98	0.022901341
9	0xbc8e3768	-0.017360404
10	0xbc4beec7	-0.012447066
11	0x3c83ef19	0.016105222
12	0x3c23af1c	0.00999048
13	0x3c6c8e4e	0.014438225
14	0x3cb0a6be	0.021563884
15	0xba6a6e05	-0.0008942786
16	0x3c2b1540	0.010442078
17	0xba0fc9bd	-0.00054850784
18	0xbc59e4a9	-0.013299146
19	0x3bf5f9f5	0.007506604
20	0xbca88306	-0.02057029
21	0x3cac1629	0.02100666
22	0xbc39cbb1	-0.011340068
23	0x3c8b8315	0.017030278
24	0x3bbefc67	0.0058284285
25	0x3c96c198	0.01840286
26	0x3b877f97	0.004135083
27	0x3c038621	0.008027584
28	0x3c60f278	0.013729684
29	0x3ae96a37	0.0017808144
30	0xbb9f3a8b	-0.004859274
31	0xbc2906b8	-0.010316543
32	0x3c4ba126	0.0124285575
33	0x3b56f450	0.003279943
34	0xbc87f236	-0.016594987
35	0xbc4a84af	-0.012360736
36	0x3c0c978c	0.008581053
37	0xbc232e68	-0.009959795
38	0xbc462da8	-0.012095846
39	0xbc21de4e	-0.009879662
40	0xbcb9b373	-0.022668576
41	0x3c18ee4a	0.009334156
42	0xbc303715	-0.01075532
43	0xbb7b461b	-0.0038341347
44	0x3ca7a7dc	0.020465784
45	0xbc62aa9d	-0.013834623
46	0xbb2ed606	-0.002667786
47	0xbc4a122d	-0.012333435
48	0x3a2a3ddd	0.00064942037
49	0x3b937e03	0.0045011058
50	0xbc772a05	-0.015085702
51	0x3ca3d429	0.019998627
52	0xbc03c6ff	-0.00804305
53	0x3b98b7ce	0.004660583
54	0xbc54c383	-0.012986067
55	0x3c3334ed	0.010937911
56	0x3ca000d2	0.019531641
57	0xbb4d4d72	-0.0031326679
58	0xbbc88931	-0.00611987
59	0xbc9eba08	-0.019375816
60	0xbcac1da6	-0.021010231
61	0x3c573d7b	0.013137217
62	0xbcbc74d7	-0.023004932
63	0x3c178554	0.0092480965
64	0xbb00dcfa	-0.0019662962
65	0xbbb71200	-0.0055868626
66	0x3c630e32	0.013858365
67	0xbbe93588	-0.007116977
68	0x3ba1f82a	0.0049429135
69	0xbcab372f	-0.020900337
70	0xb92a2289	-0.00016225329
71	0xbc829da9	-0.015944319
72	0xbc878d8f	-0.016546993
73	0x3c7ab32f	0.01530151
74	0x3cb1de92	0.021712575
75	0x3c767e26	0.015044725
76	0xbc17e1ee	-0.009270174
77	0x3c0e8706	0.008699184
78	0xbc944447	-0.018098963
79	0x3c669d19	0.014075541
80	0x3be4a164	0.006977247
81	0xbb37b943	-0.0028034009
82	0xbcaf735e	-0.021417316
83	0xbc8b9885	-0.0170405
84	0x3b2ab868	0.0026049856
85	0x3c92bad1	0.017911347
86	0x3c488832	0.012239503
87	0x3caf9b70	0.021436423
88	0x3b8b2331	0.0042461385
89	0x3c875ed2	0.016524706
90	0x3c1f1e56	0.0097118225
91	0xbcb9d944	-0.022686608
92	0xbb13ee23	-0.002257236
93	0x3c20effb	0.009822841
94	0xbc069411	-0.008214013
95	0xbc232a7d	-0.00995886
96	0x3c878971	0.01654503
97	0x3bf8b1a4	0.007589536
98	0xbc4306c9	-0.011903473
99	0x3caef5b1	0.02135739
100	0x3c72b6bd	0.014814076
101	0xbad44e81	-0.0016197712
102	0x3caf5aba	0.021405566
103	0xbb4db039	-0.0031385554
104	0xbbe984f7	-0.0071264463
105	0x3c23fc2c	0.010008853
106	0x3c240b8f	0.010012521
107	0xbca57003	-0.020195013
108	0xbcb99d3c	-0.022657983
109	0xbca80a8d	-0.020512844
110	0xbc64cda7	-0.013965047
111	0x3cb68a4b	0.02228274
112	0xbca41c14	-0.02003292
113	0x3b2f6681	0.0026763978
114	0xbc916552	-0.017748509
115	0x3c9b4442	0.018953446
116	0x3c254bed	0.010088903
117	0xbc9e9985	-0.019360313
118	0xbc19a957	-0.009378753
119	0x3c72605d	0.014793483
120	0xbc21a4b4	-0.009865928
121	0x3bff8c29	0.007798691
122	0xbc6fd93d	-0.014639196
123	0x3b19a00b	0.002344134
124	0xbc71f7b8	-0.014768533
125	0xbc931b11	-0.017957242
126	0xbcbb0439	-0.022829162
127	0xbbb869a5	-0.005627828
128	0xbc507641	-0.012723506
129	0x3c673e4f	0.014113977
130	0xbca8c104	-0.02059985
131	0xbc2b3fb6	-0.010452202
132	0x3cc3c027	0.023895336
133	0x3bddef6e	0.006772927
134	0xbca74cb3	-0.020422315
135	0x3c2cd095	0.010547777
136	0x3cb899ad	0.022534216
137	0xbcb786bd	-0.022403115
138	0xbc96e5a9	-0.018420057
139	0x3c6027de	0.01368138
140	0xbc515700	-0.01277709
141	0xbcb5d1b8	-0.022194728
142	0x3c7d2001	0.015449525
143	0x3c1bdf12	0.009513633
144	0x3c8017f2	0.015636418
145	0x3bef6f67	0.0073069814
146	0xbc21837e	-0.00985801
147	0x3bfe7811	0.007765778
148	0x3be77127	0.0070630494
149	0x3bd3a389	0.006458704
150	0xbc84e965	-0.016224572
151	0x3c0e1e95	0.0086742835
152	0xbc867654	-0.016413845
153	0x3c816323	0.015794342
154	0x3bc3e9ac	0.0059787836
155	0xbcc42c58	-0.023946926
156	0xbc3eaf69	-0.011638501
157	0xbc294dea	-0.010333518
158	0xbc22ec7b	-0.009944077
159	0x3c31bec1	0.010848702
160	0xbb7d6c6b	-0.0038669358
161	0x3c82508e	0.015907552
162	0xbbdd75cd	-0.0067584277
163	0x3b1d7f67	0.0024032237
164	0x3c37436c	0.011185508
165	0x3ca19d8c	0.019728445
166	0x3c09e6fc	0.008416887
167	0xbc3f7e4b	-0.011687825
168	0xbba8a018	-0.005146038
169	0xbc79eba9	-0.01525394
170	0xbbeff34d	-0.007322705
171	0x3936aa4b	0.00017420312
172	0x3c6ba353	0.014382201
173	0xbcc07d6c	-0.023497306
174	0xbb58cbdd	-0.0033080496
175	0x3c9e39db	0.019314697
176	0xbbec6778	-0.007214483
177	0xbcc1c39f	-0.02365285
178	0xbc6c1a8f	-0.014410629
179	0xbc03df9b	-0.008048917
180	0xbc92fc0a	-0.017942447
181	0xbb46d828	-0.0030341242
182	0xbc6ebb57	-0.0145710325
183	0xb94b0762	-0.00019362339
184	0xbc072ff3	-0.008251178
185	0xbbb2b010	-0.005453117
186	0x3aae5b3d	0.0013302338
187	0x3a9ce739	0.0011970765
188	0xbbf8208f	-0.0075722407
189	0xbcb5aa27	-0.022175862
190	0x3c3220a7	0.010872043
191	0x3bdcbec2	0.0067366073
192	0xbb9954cb	-0.0046792976
193	0xbc896a92	-0.01677445
194	0xbcb7024e	-0.022339966
195	0x3c2a4cb2	0.010394262
196	0x3c2c7c63	0.010527703
197	0xbc0d16ac	-0.008611362
198	0x3b8b0955	0.004243056
199	0xbcad01eb	-0.021119079
200	0xbcb88e15	-0.022528687
201	0x3aac1b86	0.0013130761
202	0xb79be273	-1.8582889e-05
203	0xbb5a3079	-0.0033293052
204	0xbcbd1ea5	-0.023085902
205	0x3c083c15	0.008315106
206	0x3cad099a	0.021122742
207	0xbc9620fe	-0.018326279
208	0x3cac6009	0.021041887
209	0xbc86a0aa	-0.016434032
210	0xbc6f0fd7	-0.014591179
211	0x3bcc456e	0.0062338626
212	0xbc95a021	-0.018264832
213	0xbc88a9da	-0.016682554
214	0x3bbfa0ff	0.0058480497
215	0xbc6c0601	-0.014405728
216	0x3b5a3381	0.003329486
217	0xbc6f1fe5	-0.014595007
218	0x3c9c6e8b	0.01909568
219	0xbca4976d	-0.020091737
220	0xbba8da93	-0.005153009
221	0x3c85aee8	0.016318753
222	0x3cc2041f	0.023683606
223	0x3c098ecb	0.008395861
224	0xbc920ead	-0.017829264
225	0xbc2a4d30	-0.0103943795
226	0x3bb9f642	0.005675108
227	0xbbeb7756	-0.007185857
228	0xbba4c029	-0.00502779
229	0xbc67bff3	-0.014144885
230	0x3c7f229a	0.0155722145
231	0x3c419000	0.011814117
232	0xbc5356fa	-0.012899155
233	0x3c07e72d	0.008294863
234	0x3bcec111	0.0063096364
235	0xbb85afb6	-0.0040797843
236	0x3cbf1992	0.023327623
237	0x3c656acd	0.014002514
238	0x3c50359d	0.012708095
239	0xbcbab0cf	-0.022789387
240	0xbbf623a6	-0.007511574
241	0x3c950db3	0.018195009
242	0x3c19b12c	0.00938062
243	0xbcab6c5c	-0.020925693
244	0xbc9041f5	-0.017609576
245	0x3c56b135	0.013103773
246	0xbc83ae10	-0.01607421
247	0x3c2e0810	0.010622039
248	0x3c9152ee	0.01773974
249	0xbc9dcfac	-0.019264065
250	0xbb7006ab	-0.0036625068
251	0xbc45617b	-0.012047167
252	0xbcc14514	-0.02359251
253	0x3be97d82	0.0071255574
254	0xbcc21714	-0.023692645
255	0xbb6ef197	-0.0036459917

conv4.bias f4 [4]
0	0xbc555623	-0.013021025
1	0xbca365ec	-0.019946061
2	0xbc30cea0	-0.010791451
3	0xbcbfa2fb	-0.023393145

fc.weight f4 [8, 256]
0	0xbd5f0ff4	-0.054458573
1	0xbd10ff2a	-0.035399593
2	0xbca01db8	-0.019545421
3	0xbb990910	-0.00467027
4	0x3d21a8f4	0.039467767
5	0x3d77d8ea	0.0605096
6	0x3aa77880	0.0012777001
7	0x39bc7f00	0.00035952777
8	0x3d1e0f84	0.038589016
9	0x3d062498	0.032749742
10	0xbcc100e4	-0.023559995
11	0xbd15f0e8	-0.0366067
12	0x3cd67284	0.026177652
13	0xbc9f25c8	-0.019427195
14	0xbd60023c	-0.05468963
15	0x3ba8b560	0.0051485747
16	0xbb970d40	-0.004609734
17	0xbcb75c98	-0.02238302
18	0xbd5f1456	-0.054462753
19	0xbad596c0	-0.0016295537
20	0xbc6f6c68	-0.014613248
21	0x3c88ee58	0.016715214
22	0xb9c7f800	-0.00038141012
23	0xbd2cf776	-0.042228185
24	0xbd62ec38	-0.055401057
25	0x3d22d7ce	0.03975659
26	0xbd1e9958	-0.03872046
27	0x3d391bf6	0.04519268
28	0xbc4a6fd0	-0.01235576
29	0xbbbec810	-0.005822189
30	0x3d0d6052	0.034515686
31	0xbd13da0e	-0.036096625
32	0xbc854bf0	-0.016271561
33	0xbd7a3444	-0.061085
34	0xbd62bff2	-0.055358835
35	0x3cd23b6c	0.0256631
36	0x3ca44198	0.020050809
37	0x3d0cadb6	0.03434535
38	0x3d45d5ea	0.048299707
39	0x3d52289e	0.051308267
40	0x3c413b78	0.011793964
41	0xbcc3b8ac	-0.02389177
42	0xbd4c0b98	-0.049815744
43	0x3d63bd08	0.055600196
44	0x3cd199a8	0.025585964
45	0x3c8f4448	0.017488614
46	0x3d479324	0.04872431
47	0xbc63b560	-0.013898224
48	0xbc0335d0	-0.008008435
49	0xbd6674ea	-0.05626384
50	0xbc29b1e0	-0.01035735
51	0x3d60bf2e	0.054869823
52	0x3b4f0a60	0.0031591877
53	0xba842740	-0.0010082498
54	0x3d1fa690	0.038977206
55	0xbc4546c8	-0.012040801
56	0x3cde06a8	0.027102783
57	0xbc8da788	-0.0172918
58	0xbd08219c	-0.033235177
59	0x3d78c80a	0.060737647
60	0xbd51f924	-0.05126299
61	0xbd426002	-0.04745484
62	0xbca7d730	-0.020488352
63	0xbd1ad05e	-0.03779637
64	0xbcdedfd8	-0.027206346
65	0x3d1846a0	0.03717673
66	0xbbd60640	-0.006531507
67	0xbc3089c0	-0.01077503
68	0x3d10eb02	0.03538037
69	0x3c433a90	0.011915818
70	0xbd12ca40	-0.035837412
71	0xbb8e14e0	-0.0043359846
72	0xbc9d6a68	-0.019215778
73	0x3c5f2ff0	0.013622269
74	0x3d4923ba	0.049106337
75	0x3d58d52c	0.05293767
76	0x3d21ba4a	0.0394843
77	0x3c49de08	0.012321003
78	0x3d14de16	0.03634461
79	0x3d394bdc	0.04523836
80	0xbd6594f2	-0.05605025
81	0x3c5d00f0	0.013488993
82	0x3d2d1f60	0.04226625
83	0x3d3cf588	0.046132594
84	0x3d5cf67a	0.053945996
85	0xbd6090ee	-0.054825716
86	0x3d6c37f6	0.057670556
87	0xbb445be0	-0.0029961988
88	0x3d04b90a	0.03240303
89	0x3d39fa2a	0.04540459
90	0xbd5ecd3a	-0.054394938
91	0x3d671998	0.056420892
92	0x3cc92764	0.024554916
93	0xbd5fbcc6	-0.054623388
94	0x3cc50e50	0.024054676
95	0x3c8abe40	0.016936421
96	0xbd7c533c	-0.061602816
97	0xbb4c5f80	-0.0031184852
98	0xbc143de0	-0.009047955
99	0x3bb02570	0.0053755566
100	0x3d21e086	0.039520763
101	0x3c3135e0	0.010816067
102	0xbd388a84	-0.045053974
103	0xbb94cca0	-0.0045409948
104	0xbc0d5a50	-0.008627489
105	0xbd59405a	-0.053039886
106	0x3cc3627c	0.023850672
107	0x3d304c40	0.043041468
108	0x3ccc9f84	0.024978407
109	0x3d74f97e	0.059808247
110	0xbcfe56dc	-0.031047277
111	0x3d489742	0.048972376
112	0x3cfb0650	0.030642658
113	0x3d755ad4	0.059901074
114	0xbd568fac	-0.05238311
115	0xbd06ff82	-0.032958515
116	0x3d01c0ac	0.031677887
117	0x3bbb9220	0.0057242066
118	0xbd5e9db4	-0.054349616
119	0xbd0573be	-0.032581083
120	0x3ceff724	0.02929265
121	0x3d4da46c	0.050205633
122	0x3b60b060	0.0034284815
123	0xbb026440	-0.001989618
124	0xbd1f5afe	-0.038905136
125	0xbc34a120	-0.011024743
126	0xbd4d1b7e	-0.050075047
127	0xbd077c46	-0.0330775
128	0x3c08a578	0.008340232
129	0xbb878b50	-0.0041364804
130	0xbd4b22f4	-0.04959388
131	0xbd18db00	-0.03731823
132	0xbd687834	-0.05675526
133	0x3c33fcb8	0.010985546
134	0xbd6431c4	-0.055711523
135	0xbd172898	-0.036903948
136	0x3bdcfd20	0.006744042
137	0xbcc74fe4	-0.024330087
138	0xbd6e31e8	-0.058153063
139	0xbd2aad20	-0.04166901
140	0xbca0501c	-0.01956945
141	0xbcd3da40	-0.025860906
142	0xbd24adac	-0.04020469
143	0x3d3418c8	0.043968946
144	0xbbd0c4b0	-0.006371103
145	0x3c99c480	0.018770456
146	0xbd17828c	-0.036989734
147	0xbc7d3f90	-0.015457049
148	0x3b3d47e0	0.0028881952
149	0xbd1eb662	-0.038748153
150	0x3cb09ac4	0.021558173
151	0x3add89c0	0.0016902015
152	0xba40bc00	-0.0007352233
153	0x3d36b5e6	0.044607066
154	0x3c9385d4	0.01800815
155	0x3ce6cccc	0.028173827
156	0x3b8ab590	0.0042330697
157	0xbce7031c	-0.028199725
158	0xbd77dfd2	-0.060516186
159	0x3d751f2c	0.05984418
160	0xbd214e6c	-0.03938143
161	0x3cbe26b4	0.023211814
162	0x3d3d945e	0.046284072
163	0xbc1f5610	-0.009725109
164	0xbd6a96ac	-0.0572726
165	0xbcf306e8	-0.02966638
166	0xbbc29580	-0.005938232
167	0x3cf9bea0	0.030486405
168	0x3d22c08a	0.0397344
169	0xbd3f451c	-0.046696767
170	0xbd201a94	-0.039087847
171	0xbcdb4b70	-0.02676937
172	0xbd6c3eca	-0.057677068
173	0x3d5df52c	0.054188892
174	0xbd69fe04	-0.057127014
175	0xbd5d1420	-0.05397427
176	0xbd282dfe	-0.041059487
177	0x3d15edc0	0.03660369
178	0xbd1ebd30	-0.038754642
179	0x3b60e1a0	0.003431417
180	0x3d364e72	0.044508405
181	0xbd09d29e	-0.033648126
182	0x3d22eaee	0.039774828
183	0xbd4f865e	-0.050665252
184	0x3c2edd70	0.010672912
185	0xbd0445ba	-0.03229306
186	0xbbe6bac0	-0.0070413053
187	0x3d107d8e	0.03527599
188	0x3d525ec6	0.051359914
189	0xbd6d2ccc	-0.05790405
190	0xbc887f68	-0.016662315
191	0xbb51f6e0	-0.0032038018
192	0x3d6fb1ce	0.058519177
193	0xbd3f8cde	-0.0467652
194	0xbc74d780	-0.014943957
195	0xbd285c8a	-0.041103877
196	0xbcd72354	-0.026261963
197	0x3d05db92	0.0326801
198	0x3cdbfc70	0.02685377
199	0xbd0f2d74	-0.034955457
200	0xbc1b7838	-0.009489112
201	0x3afba780	0.0019199699
202	0xbd2f71ac	-0.042833015
203	0x3d50f426	0.051014088
204	0x3d52e3bc	0.051486716
205	0x3d441208	0.04786876
206	0x3c2b1538	0.010442071
207	0xbc3fe010	-0.0117111355
208	0x3d2b0b5c	0.04175888
209	0x3d40d16c	0.04707472
210	0xbd3a6e14	-0.045515135
211	0xbcf89044	-0.030342229
212	0xbd4b2cd8	-0.049603313
213	0x3ce42510	0.027849704
214	0x3cc6a0d0	0.024246603
215	0x3d5db394	0.054126337
216	0x3b2ec7e0	0.0026669428
217	0x39ef0900	0.00045592338
218	0x3ca5dc80	0.020246744
219	0x3d102e56	0.03520044
220	0xbd7a2820	-0.061073422
221	0xbbfb46a0	-0.0076683313
222	0xbd1ad1f2	-0.037797876
223	0x3c88ed34	0.01671467
224	0xbd615d94	-0.055020884
225	0x3d45d14a	0.048295297
226	0x3d0a7882	0.03380633
227	0x3c4a95a8	0.012364782
228	0x3d7d1988	0.061791927
229	0xbd6cdad0	-0.057825863
230	0xbcdd4a58	-0.027012989
231	0x3d41d118	0.047318548
232	0xbd351b6e	-0.044215612
233	0xbd3918d4	-0.045189694
234	0xbc0496d0	-0.008092597
235	0x3c6ccca0	0.014453083
236	0x3d46bb34	0.048518375
237	0xbd32b4f8	-0.043629616
238	0xbcd26ffc	-0.025688164
239	0x3b59aa80	0.0033213198
240	0x3ba16ad0	0.004926063
241	0xbd75c6f6	-0.060004197
242	0x3ca47b24	0.02007825
243	0x3c2d00e0	0.010559291
244	0x3cd34edc	0.025794439
245	0x3d215c68	0.039394766
246	0xbd6e0274	-0.05810781
247	0xbc4e50d8	-0.012592517
248	0xbcb91ba4	-0.022596188
249	0x3d4579b8	0.048211783
250	0xbc5d81f0	-0.013519749
251	0x3d0e7d4a	0.034787454
252	0x3d263d30	0.040585697
253	0x3cd83a68	0.026395038
254	0x3d218cb0	0.03944081
255	0xbcdeb5d4	-0.027186312

fc.bias f4 [8]
0	0xbd3230e0	-0.043503642
1	0x3a99a540	0.0011722222
2	0x3c1d68f8	0.009607546
3	0xbc082df8	-0.008311741
4	0x3cd8f140	0.026482224
5	0x3d17f88c	0.037102267
6	0x3d517668	0.05113831
7	0x388db800	6.7576766e-05
