root/tmva/sofie/input_models/GRU_d10_L20_h8_B1.onnx (onnx, 2878 bytes, 6 tensors)

fc.weight f4 [2, 8]
0.2695569 0.00024504177 0.28530174 0.09972855 0.3398569 -0.1760642 0.29868722 -0.31598398
-0.25460547 0.068377234 0.2828614 0.06874425 0.12882845 0.31930006 -0.06327211 0.34039488
00000000: 5d03 8a3e f378 8039 1213 923e 7b3e cc3d
00000010: b901 ae3e 2c4a 34be 88ed 983e a7c8 a1be
00000020: a65b 82be 5d09 8c3d 36d3 903e c9c9 8c3d
00000030: 9beb 033e 4c7b a33e cf94 81bd 3d48 ae3e

fc.bias f4 [2]
-0.29000258 0.088619225
00000000: 387b 94be ff7d b53d

65 f4 [1, 24, 10]
-0.15510195 -0.04973075 -0.1355043 -0.030343117 0.3058352 -0.0026233883 0.26391202 0.1503732
-0.22680715 -0.0631541 -0.22032303 0.25424019 -0.042228572 -0.026967112 -0.03832628 0.13375884
-0.23844044 -0.07104997 -0.26490104 -0.14428788 -0.35050982 0.3128926 -0.07276906 -0.33528402
0.18035121 0.03567832 -0.11370925 -0.20592469 -0.34997365 0.27103177 0.1406147 -0.3088178
0.016369961 -0.18592454 0.115592875 -0.29942858 -0.0069745025 -0.03507094 0.23621829 -0.23968592
0.020299524 -0.2539055 -0.23722808 0.18067381 0.30139983 0.010080599 -0.0470916 0.15027556
0.18478122 0.23758844 -0.18819672 0.09167163 -0.102549985 0.22433642 -0.33344665 -0.23842628
0.09639848 0.03680406 -0.0018076783 0.2683531 -0.041594177 -0.28008354 0.15480238 0.06162122
-0.25215015 -0.26229346 -0.23772722 -0.24105312 0.110244356 -0.027214177 0.30449194 0.27444136
-0.3064014 0.11931486 -0.08068917 -0.21011838 0.15510394 0.116203286 0.12243516 -0.2949832
0.15190929 0.25475845 0.0049981945 0.17916258 -0.30800524 -0.1751151 0.22975238 -0.14907268
-0.12436991 0.22502898 0.3352424 -0.23959674 -0.07427497 0.14505698 0.23512095 -0.14977498
-0.31448558 0.16477942 -0.28848964 0.10817499 -0.24954246 0.2744358 0.19819441 -0.31988534
0.17651294 -0.06589356 0.15177797 -0.33571795 -0.31844956 -0.3293656 0.15916808 -0.0743462
-0.17774253 -0.29482707 -0.30567685 -0.32090303 -0.2333662 -0.06887473 -0.12725453 -0.07512111
-0.18557182 -0.11971306 -0.20294937 0.23983002 0.26173368 -0.16654795 0.057403963 0.15371646
0.298376 0.062766224 0.11959345 0.3090392 0.31166932 0.12602232 0.055745233 0.2286201
0.34021804 -0.1379065 -0.09317146 -0.2996045 0.17099592 0.09732167 -0.2353016 0.26148325
0.3196507 -0.07235425 -0.05208423 -0.013539 -0.0203399 0.14974092 -0.16604345 0.10294827
-0.21589647 -0.055140678 -0.3287891 -0.23832913 -0.13327777 0.320533 0.35178807 -0.0870093
-0.25012127 -0.010372382 0.13556218 0.3304375 0.26057002 -0.03036103 -0.34709138 -0.2426526
-0.2749511 0.06947954 0.050915584 -0.26147935 0.2413345 0.23162475 0.3495327 0.20881799
-0.11907926 0.014105033 0.20000176 0.17361854 0.13848118 -0.3416732 0.17136061 -0.19245309
-0.040746856 0.29776722 0.23650981 -0.19074103 -0.04749069 -0.16097015 0.1606897 -0.10157344
-0.13500237 0.33629012 -0.009533153 0.28217667 -0.14615662 -0.2638323 0.29745576 -0.25295505
-0.24567781 0.32868683 -0.18654312 0.19504963 0.019099265 -0.32095468 0.26921418 0.26226008
-0.24076761 -0.11615275 -0.05787445 -0.25488555 -0.15433775 -0.08741366 -0.26545146 0.2760119
0.052434217 -0.27871132 -0.09545848 -0.11742723 0.022850167 0.1446852 -0.14906578 0.116666816
0.20232995 0.13141485 -0.09270368 0.14951564 -0.12076939 0.012580708 0.28889784 0.115564466
-0.32369605 -0.14402063 -0.07220657 0.15208429 0.3086014 -0.115412354 -0.1334966 0.30346787
00000000: 0cd3 1ebe 79b2 4bbd a4c1 0abe 2192 f8bc
00000010: 6e96 9c3e 27ed 2bbb 7a1f 873e 6ffb 193e
00000020: 2240 68be f056 81bd 5c9c 61be c52b 823e
00000030: def7 2cbd 22ea dcbc 04fc 1cbd 14f8 083e
00000040: bb29 74be a682 91bd 1ca1 87be 34c0 13be
00000050: 0676 b3be 7533 a03e f207 95bd 59aa abbe
00000060: fdad 383e 6e23 123d 65e0 e8bd ecdd 52be
00000070: bf2f b3be adc4 8a3e 4dfd 0f3e 5e1d 9ebe
00000080: 4c1a 863c 0163 3ebe f5bb ec3d b44e 99be
00000090: 5e8a e4bb 8ca6 0fbd 35e3 713e 3a70 75be
000000a0: 304b a63c e7ff 81be ebeb 72be 8e02 393e
000000b0: 1451 9a3e 1929 253c 1fe3 40bd d6e1 193e
000000c0: 4a37 3d3e 624a 733e a4b6 40be 56be bb3d
000000d0: ba05 d2bd 72b8 653e 85b9 aabe 0526 74be
000000e0: 916c c53d dbbf 163d 9eef ecba 9465 893e
000000f0: a85e 2abd 1c67 8fbe 8484 1e3e 8866 7c3d
00000100: d319 81be 544b 86be c46e 73be a1d6 76be
00000110: cbc7 e13d 44f0 debc 5ee6 9b3e 9483 8c3e
00000120: a5e0 9cbe 595b f43d 5d40 a5bd 4629 57be
00000130: 91d3 1e3e fdfb ed3d 49bf fa3d 0a08 97be
00000140: 1c8e 1b3e b36f 823e e5c7 a33b 6576 373e
00000150: ddb2 9dbe 5f51 33be 3544 6b3e 82a6 18be
00000160: a7b5 febd ff6d 663e e4a4 ab3e d958 75be
00000170: 7a1d 98bd d189 143e 8cc3 703e 9d5e 19be
00000180: 4104 a1be f0bb 283e eab4 93be d98a dd3d
00000190: 0f88 7fbe d982 8c3e 7af3 4a3e 03c8 a3be
000001a0: cfbf 343e 34f3 86bd af6b 1b3e 39e3 abbe
000001b0: d20b a3be 9ca2 a8be f5fc 223e d242 98bd
000001c0: 2302 36be 93f3 96be ad81 9cbe 674d a4be
000001d0: 8df7 6ebe 320e 8dbd 034f 02be 19d9 99bd
000001e0: 8a06 3ebe 1f2c f5bd f6d1 4fbe 0096 753e
000001f0: f501 863e 8c8b 2abe 6b20 6b3d d967 1d3e
00000200: bdc4 983e 948b 803d 69ed f43d 633a 9e3e
00000210: 1f93 9f3e ff0b 013e 1d55 643d 631b 6a3e
00000220: 0f31 ae3e 5d37 0dbe aed0 bebd c365 99be
00000230: 8e19 2f3e 9550 c73d e7f2 70be 22e1 853e
00000240: 42a9 a33e 772e 94bd 4656 55bd afd2 5dbc
00000250: dd9f a6bc af55 193e 4b07 2abe 8bd6 d23d
00000260: f713 5dbe 31db 61bd 0b57 a8be 8d0c 74be
00000270: f879 08be e71c a43e 911d b43e ef31 b2bd
00000280: e50f 80be ecf0 29bc d0d0 0a3e 1b2f a93e
00000290: 6f69 853e b2b7 f8bc f6b5 b1be ec79 78be
000002a0: 64c6 8cbe 4a4b 8e3d dc8c 503d 9fe0 85be
000002b0: 6420 773e 0a2f 6d3e f3f5 b23e 62d4 553e
000002c0: d4df f3bd cc18 673c 43cd 4c3e 0fc9 313e
000002d0: 03ce 0d3e caef aebe 2879 2f3e 6c12 45be
000002e0: 2de6 26bd f274 983e a12f 723e 9e51 43be
000002f0: 9985 42bd 5cd5 24be d78b 243e bc05 d0bd
00000300: 103e 0abe 382e ac3e f130 1cbc 7679 903e
00000310: 15aa 15be 0715 87be 1f4c 983e 5383 81be
00000320: f792 7bbe a449 a83e 2905 3fbe 17bb 473e
00000330: 1076 9c3c 2c54 a4be 71d6 893e f446 863e
00000340: c98b 76be 7ee1 edbd c20d 6dbd 5c80 82be
00000350: b70a 1ebe ef05 b3bd 41e9 87be 6f51 8d3e
00000360: 43c5 563d 40b3 8ebe bc7f c3bd b07d f0bd
00000370: 4630 bb3c 5b28 143e b3a4 18be 03ef ee3d
00000380: 952f 4f3e 9d91 063e 6ddb bdbd a11a 193e
00000390: f155 f7bd 501f 4e3c 6bea 933e 10ad ec3d
000003a0: 7dbb a5be 257a 13be 0ae1 93bd fcbb 1b3e
000003b0: 0101 9e3e 505d ecbd 55b3 08be 2460 9b3e

66 f4 [1, 24, 8]
0.1533224 -0.15792972 0.3365753 0.34385118 -0.1363878 0.32165626 0.18971644 0.2177632
0.19520481 0.11293838 0.02265452 0.24641846 -0.3361201 -0.102671325 0.100344904 0.0743671
-0.17758368 -0.28271565 0.0072185327 0.29962456 0.23094727 0.11071471 0.057780545 -0.24718776
-0.06301969 -0.18048587 0.0884573 -0.25685576 0.3362346 -0.3157418 0.18442677 0.22537357
0.08256715 -0.08679916 -0.07158465 0.20523846 0.34685364 0.12441328 0.33766234 -0.20267412
0.13755155 -0.18715459 -0.055341594 -0.29218164 -0.16833459 0.2695324 0.30324945 -0.128788
0.08419642 0.016031649 -0.17778692 -0.284847 0.022786777 0.25157517 -0.3239221 -0.15559748
-0.11038896 -0.1168813 -0.331105 0.051952988 0.23395647 0.16761494 0.13094175 -0.03709989
0.042407654 0.31987035 -0.027393807 0.20617564 -0.34603626 -0.009353144 -0.2955631 -0.017962776
-0.0059811855 -0.021128425 -0.035610884 0.1717055 0.3126801 0.29133573 0.11935797 -0.014644765
0.24179764 0.15090768 0.2837719 -0.32934394 0.26442337 0.31607 0.32714805 -0.3239654
0.22320406 -0.14866015 -0.0942135 -0.083141446 -0.03525188 -0.29493386 -0.16501118 -0.100615144
-0.10930486 -0.33745936 -0.33787405 0.06899405 -0.064652294 0.033020116 0.019977817 0.019857824
0.19130354 -0.16686115 -0.34821537 -0.16353196 0.29579794 0.31796837 -0.20558162 0.06780252
-0.15225215 -0.07630885 0.18716125 0.0051534637 -0.1153271 0.2448815 0.32658702 -0.21667965
0.15713677 0.023840364 0.28499767 -0.33336845 0.066249326 -0.30473217 -0.31988707 -0.07328549
-0.15347986 0.33661458 0.2655667 0.3397405 0.3360846 0.11915752 0.08423747 0.010161394
0.0070430753 0.01316874 -0.28493574 -0.19157289 0.3035705 -0.056570847 0.15746066 0.116554536
0.12856892 -0.1839943 -0.118431 0.21855703 0.23994811 -0.042965844 -0.19706379 -0.309348
-0.105667666 -0.2207893 0.23161611 -0.07901788 0.15401411 -0.24043243 0.291907 0.11639868
0.21638124 -0.17499417 0.31341732 0.04176112 -0.20257385 -0.34113607 -0.08565715 -0.17889781
-0.3472161 -0.08459732 0.3326629 -0.080503725 0.10960351 0.34859654 -0.2354717 0.12734586
-0.00572527 0.30625254 -0.008424143 0.09012606 -0.1736116 0.31761107 0.19189438 -0.190924
-0.0023287819 -0.10712072 -0.12565953 0.12479256 -0.023166016 -0.2574954 0.21685797 -0.12085027
00000000: 8c00 1d3e 54b8 21be 9953 ac3e 430d b03e
00000010: 3ea9 0bbe 21b0 a43e 0745 423e 51fd 5e3e
00000020: c5e3 473e 3d4c e73d f995 b93c 1f55 7c3e
00000030: ef17 acbe 5845 d2bd a181 cd3d c74d 983d
00000040: 7fd8 35be 1bc0 90be 7189 ec3b 6468 993e
00000050: 717d 6c3e 65be e23d 4bab 6c3d ca1e 7dbe
00000060: 7810 81bd 4ad1 38be 1a29 b53d 9982 83be
00000070: f126 ac3e e9a8 a1be 5fda 3c3e 54c8 663e
00000080: f718 a93d c2c3 b1bd f99a 92bd 082a 523e
00000090: cd96 b13e 64cc fe3d 14e2 ac3e ce89 4fbe
000000a0: 50da 0c3e 74a5 3fbe dead 62bd d598 95be
000000b0: e75f 2cbe 2700 8a3e 8343 9b3e 00e1 03be
000000c0: 2c6f ac3d ce54 833c c60d 36be 77d7 91be
000000d0: 56ab ba3c 76ce 803e 1ed9 a5be f254 1fbe
000000e0: 9b13 e2bd 775f efbd 9886 a9be a8cc 543d
000000f0: 4992 6f3e 40a3 2b3e 9815 063e 0ef6 17bd
00000100: a6b3 2d3d 0cc6 a33e fa68 e0bc b51f 533e
00000110: aa2b b1be ee3d 19bc 0c54 97be ac26 93bc
00000120: d2fd c3bb 8515 adbc b8dc 11bd 91d3 2f3e
00000130: 9b17 a03e f529 953e f471 f43d 99f0 6fbc
00000140: cd99 773e 8b87 1a3e 8d4a 913e c59f a8be
00000150: 8062 873e edd3 a13e f37f a73e cbde a5be
00000160: 9b8f 643e 5e3a 18be 02f3 c0bd 1046 aabd
00000170: 4664 10bd 9201 97be b1f8 28be 500f cebd
00000180: 3adb dfbd 79c7 acbe d4fd acbe c14c 8d3d
00000190: 6c68 84bd 1a40 073d 85a8 a33c e0ac a23c
000001a0: 13e5 433e a6dd 2abe 4949 b2be ec74 27be
000001b0: d472 973e c0cc a23e fd83 52be 0cdc 8a3d
000001c0: fde7 1bbe d047 9cbd 33a7 3f3e 63de a83b
000001d0: 9d30 ecbd 37c2 7a3e 6a36 a73e 45e1 5dbe
000001e0: 76e8 203e de4c c33c 37eb 913e 45af aabe
000001f0: baad 873d db05 9cbe 3dc8 a3be b416 96bd
00000200: d329 1dbe bf58 ac3e 5cf8 873e 78f2 ad3e
00000210: 4813 ac3e dc08 f43d b284 ac3d fa7b 263c
00000220: 99c9 e63b b3c1 573c 19e3 91be af2b 44be
00000230: 986d 9b3e d5b6 67bd 5e3d 213e 25b4 ee3d
00000240: 92a7 033e 0069 3cbe f48b f2bd 6acd 5f3e
00000250: f5b4 753e f4fc 2fbd 17cb 49be dc62 9ebe
00000260: 4a68 d8bd 9716 62be c62c 6d3e 20d4 a1bd
00000270: e0b5 1d3e eb33 76be d674 953e 6e62 ee3d
00000280: 0b93 5d3e ac31 33be 3c78 a03e b50d 2b3d
00000290: 856f 4fbe 63a9 aebe 046d afbd fd30 37be
000002a0: 4fc6 b1be 5c41 adbd cb52 aa3e 23df a4bd
000002b0: ce77 e03d 3f7b b23e 7e1f 71be f466 023e
000002c0: 0c9b bbbb 22cd 9c3e 6b05 0abc 0394 b83d
000002d0: 3dc7 31be eb9d a23e f67f 443e 9581 43be
000002e0: 7a9e 18bb 1c62 dbbd e4ac 00be 3e93 ff3d
000002f0: a8c6 bdbc 70d6 83be 0410 5e3e 5980 f7bd

67 f4 [1, 48]
-0.12055596 0.3487755 0.028651217 -0.25177655 0.17830123 0.05564505 -0.33305708 -0.19017838
0.2696442 0.12630934 -0.1981644 -0.07506923 -0.24527687 -0.0027824927 0.24037085 -0.19930309
-0.2880345 0.010565878 0.008865674 -0.29984102 0.14216578 0.13557284 -0.27423802 -0.12719008
0.31475645 -0.3126776 -0.028373385 0.22943091 0.27660486 -0.0469137 -0.07295493 -0.2721368
0.26308247 0.28212497 0.076163314 -0.28902817 0.09435238 0.17699932 -0.09957159 0.10817545
0.29891622 0.29797685 -0.23742259 -0.07797795 0.27546066 0.33366883 0.12690888 -0.27862105
00000000: 0be6 f6bd b492 b23e f5b5 ea3c dbe8 80be
00000010: 9994 363e 10ec 633d 7586 aabe 1fbe 42be
00000020: ce0e 8a3e 3c57 013e 9ceb 4abe e5bd 99bd
00000030: dc29 7bbe 7b5a 36bb c723 763e 1c16 4cbe
00000040: 4279 93be 811c 2d3c 5541 113c c384 99be
00000050: e893 113e 9bd3 0a3e ed68 8cbe 1e3e 02be
00000060: c227 a13e 4717 a0be 4d6f e8bc f0ef 6a3e
00000070: 279f 8d3e 9428 40bd 6569 95bd 8455 8bbe
00000080: bfb2 863e af72 903e 83fb 9b3d 80fb 93be
00000090: d23b c13d 4f3f 353e 31ec cbbd 178b dd3d
000000a0: 8c0b 993e 6c90 983e e81e 73be e7b2 9fbd
000000b0: 2e09 8d3e a4d6 aa3e 67f4 013e 6ba7 8ebe

16 f4 [1, 1, 8]
0.0 0.0 0.0 0.0 0.0 0.0 0.0 0.0
00000000: 0000 0000 0000 0000 0000 0000 0000 0000
00000010: 0000 0000 0000 0000 0000 0000 0000 0000
