root/tmva/sofie/input_models/higgs_model_dense.onnx (onnx, 168304 bytes, 12 tensors)

sequential/dense_5/MatMul/ReadVariableOp:0 f4 [100, 2]
0	0xbdc29fd2	-0.095031396
1	0xbde63c0c	-0.11241922
2	0xbd168cfe	-0.036755554
3	0x3d033ace	0.032038502
4	0xbe217f88	-0.15771306
5	0xbc8a92e5	-0.016915748
6	0xbe23ec7f	-0.16008185
7	0xbe2fb8ce	-0.17160341
8	0xbde33c2b	-0.110954605
9	0x3d39bcca	0.04534606
10	0xbc33922e	-0.010960145
11	0xbd985035	-0.07437173
12	0xbd87bbb8	-0.066276014
13	0x3d8f5804	0.069992095
14	0xbe28f8a2	-0.16501096
15	0xbdfe589e	-0.12419246
16	0x3e06c141	0.13159658
17	0x3dbca2f8	0.09210771
18	0x3e06a7bf	0.13149928
19	0xbdd4fc85	-0.10399727
20	0x3e0e2b0e	0.13883612
21	0x3db86555	0.090037026
22	0xbd5b9b49	-0.05361489
23	0xbdb84440	-0.08997393
24	0xbdfd1950	-0.123583436
25	0xbdd54235	-0.104130186
26	0x3e6e1885	0.23251541
27	0x3d95d7cc	0.073165506
28	0x3c4d4318	0.012528203
29	0x3baa0737	0.0051888484
30	0xbe05bf49	-0.13061251
31	0xbdacfd39	-0.08446736
32	0x3d6ace14	0.057325438
33	0x3d923257	0.07138508
34	0xb8114884	-3.463823e-05
35	0xbc5534fb	-0.01301312
36	0xbd5f4f30	-0.05451888
37	0xbbd07c85	-0.0063625
38	0xbd04dcce	-0.03243714
39	0xbdb190cc	-0.08670196
40	0x3ded8d7f	0.11599254
41	0x3d9bb903	0.076036476
42	0x3e5c70fc	0.21527475
43	0x3d2e5e7a	0.04257057
44	0xbc75072d	-0.014955324
45	0xbd39dffd	-0.045379627
46	0xbe1c33c4	-0.15254122
47	0xbd4edfd9	-0.050506447
48	0xbe182c3b	-0.14860623
49	0x3d7ce6b0	0.06174344
50	0x3e111fe9	0.14172329
51	0xbdfa4d28	-0.12221748
52	0xbd821e99	-0.06353492
53	0x3e21c4fb	0.15797798
54	0x3da91ec9	0.08257825
55	0x3dc76dd2	0.097377434
56	0xbe243e66	-0.16039428
57	0xbe58b8aa	-0.21164194
58	0x3df9a55e	0.121897444
59	0x3e802c1f	0.25033662
60	0xbdc0a19d	-0.09405825
61	0xbd9611b2	-0.07327594
62	0xbc13cc7e	-0.009020923
63	0x3d4b8055	0.049682934
64	0xbdf570a2	-0.11984374
65	0xbe000ebc	-0.1250562
66	0xbde8917f	-0.11355876
67	0xbe158859	-0.14602794
68	0x3e265e65	0.16246946
69	0xbe2eb5e0	-0.17061567
70	0xbc32273e	-0.010873614
71	0xbde20abb	-0.11037203
72	0xbdcf9c86	-0.10137276
73	0x3e0fc431	0.14039685
74	0x3e41a5a1	0.18910839
75	0x3e412db2	0.18865088
76	0x3dbfa596	0.09357755
77	0xbe10e643	-0.14150338
78	0xbe19580c	-0.14974993
79	0xbdb54dd1	-0.08852733
80	0x3df60ea6	0.12014513
81	0x3c92b065	0.017906377
82	0xbcdfdcb0	-0.027326912
83	0xbd2da78e	-0.04239612
84	0xbd35bcf2	-0.044369645
85	0xbcf38475	-0.029726246
86	0xbe01776f	-0.12643217
87	0xbdaa3b95	-0.083121456
88	0x3d6c2e56	0.057661377
89	0x3c2e733d	0.010647592
90	0x3e01a351	0.12659957
91	0x3cf0a9ae	0.029377785
92	0x3bcd5bc0	0.006267041
93	0x39b4c4e2	0.00034478965
94	0xbe5b7408	-0.21430981
95	0xbdd24805	-0.10267643
96	0x3e077fa1	0.1323228
97	0x3e2e010a	0.16992584
98	0x3d823683	0.063580535
99	0xbcd2dc1e	-0.025739726
100	0x3e115880	0.14193916
101	0xbcdf990e	-0.027294662
102	0x3da9d1f4	0.082919985
103	0x3c78cef3	0.015186059
104	0xbd676e02	-0.056501396
105	0xbd80bad8	-0.062856376
106	0x3dd20928	0.10255653
107	0xbd9eddd0	-0.07757151
108	0x3ceca2ac	0.028886162
109	0xbdfdde09	-0.123958655
110	0x3e20d4bb	0.1570615
111	0x3e45f902	0.1933327
112	0xbd8cf393	-0.068823956
113	0x3e08503b	0.13311855
114	0x3d7c35d3	0.06157477
115	0x3cd38e73	0.025824761
116	0x3db96a6d	0.09053502
117	0xbdd2f6bb	-0.10300966
118	0x3dc2f8bd	0.09520099
119	0x3dca448d	0.09876356
120	0x3e022578	0.12709606
121	0xbe478155	-0.1948293
122	0xbe2fca2b	-0.17166965
123	0xbe07d584	-0.13265043
124	0x3d4e3acd	0.050349046
125	0x3d2ebe28	0.042661816
126	0x3e4cf121	0.20013858
127	0x3e4ba4ab	0.19887035
128	0x3d5f9429	0.054584656
129	0x3c874c05	0.016515741
130	0x395f0123	0.0002126736
131	0x3e6dabab	0.23210017
132	0xbc2b5b02	-0.01045871
133	0xbcacdf75	-0.021102646
134	0xbe0d370b	-0.13790528
135	0x3e1ce1e1	0.15320541
136	0x3e1b9691	0.15194155
137	0x3d237a95	0.039911825
138	0xbd6b9761	-0.057517413
139	0x3e261848	0.162202
140	0x3e6e59bb	0.23276417
141	0xbd6ff93f	-0.05858731
142	0x3e4e98e6	0.20175514
143	0x3e56d22b	0.2097861
144	0x3d95994e	0.07304631
145	0x3dc48463	0.09595563
146	0x3bb9c5c1	0.005669326
147	0x3d720840	0.0590899
148	0x3d976c22	0.073936716
149	0x3da5d04a	0.080963686
150	0x3dedda2c	0.116138786
151	0x3c82f843	0.015987521
152	0xbdcaf01d	-0.09909079
153	0xbdb578fc	-0.088609666
154	0x3df7fd93	0.12108912
155	0x3dc5417f	0.09631633
156	0x3d42760a	0.047475852
157	0xbd3c947f	-0.046040054
158	0xbafc6363	-0.0019255694
159	0x3d303a1d	0.04302417
160	0x3d98f61e	0.07468818
161	0x3d5d7776	0.054069005
162	0xbd5837fe	-0.052787773
163	0xbb9965f7	-0.0046813446
164	0x3dee82c0	0.11646032
165	0x3e1475eb	0.14498107
166	0xbe058526	-0.13039073
167	0xbda3de6e	-0.080014095
168	0xbe167e97	-0.14696728
169	0xbc5ef8a0	-0.0136090815
170	0x3e5391fd	0.20661159
171	0x3e68d746	0.2273837
172	0xb946f093	-0.00018972372
173	0x3e0744e1	0.13209869
174	0xbc9b3a70	-0.018948764
175	0xbb100b2a	-0.002197931
176	0x3db846bf	0.08997869
177	0xbe1f6b45	-0.15568264
178	0xbdcc4419	-0.09973926
179	0x3d4e9b1b	0.05044089
180	0x3d8c28ee	0.06843744
181	0x3e01bc19	0.1266941
182	0xbe30effc	-0.17279047
183	0xbdc1ce26	-0.09463148
184	0x3dac6e88	0.0841952
185	0x3de58535	0.11207048
186	0x3d2b1f3f	0.041777845
187	0xbe23ee54	-0.16008884
188	0x3cba0adc	0.022710256
189	0x3c7cfa6f	0.015440567
190	0x3de8f119	0.11374111
191	0x3e098ce1	0.13432647
192	0x3e463bb9	0.1935872
193	0x3de13bc2	0.10997726
194	0x3d69135e	0.056903236
195	0x3da7da0f	0.08195888
196	0x3e051cac	0.12999219
197	0xbcdceca4	-0.026968308
198	0x3d917663	0.071026586
199	0x3db3695a	0.087603286

sequential/dense_5/BiasAdd/ReadVariableOp:0 f4 [2]
0	0xbcc2b2c1	-0.023766877
1	0x3cc2b2b8	0.02376686

sequential/dense_4/MatMul/ReadVariableOp:0 f4 [100, 100]
0	0x3e910b12	0.28328758
1	0x3ce6f9b1	0.028195234
2	0xbc51fa71	-0.012816058
3	0xbc98512e	-0.018593397
4	0xbd5c1970	-0.053735197
5	0xbe1b196e	-0.1514642
6	0xbe94d728	-0.290704
7	0xbe729b63	-0.23692088
8	0xbd9eacd1	-0.07747806
9	0x3e1f11eb	0.15534179
10	0xbdb98bce	-0.09059869
11	0xbd0bb347	-0.03410652
12	0xbe07f21a	-0.13275948
13	0x3daccb08	0.08437163
14	0xbea5487f	-0.32281873
15	0xbe66424c	-0.22486228
16	0x3d2d8c7e	0.042370312
17	0x3df870bc	0.121308774
18	0xbd5d89d9	-0.05408654
19	0x3dddf546	0.10837798
20	0x3e0115d6	0.12605986
21	0xbde81a1e	-0.113331065
22	0xbd9ca840	-0.07649279
23	0x3d873ba6	0.06603174
24	0xbdd6afd8	-0.10482758
25	0x3dd79b4e	0.10527669
26	0xbe8f5c75	-0.28000227
27	0xbe69cb3e	-0.22831437
28	0x3d63eb4d	0.055644322
29	0xbe1bddf5	-0.15221389
30	0xbe48ee05	-0.19622047
31	0x3d76a0cb	0.060211938
32	0xbe09aeb9	-0.13445558
33	0xbd4a9519	-0.049458597
34	0x3de2b0d4	0.110688835
35	0x3c4fc4c5	0.012681191
36	0xbd40c563	-0.047063243
37	0x3da2beee	0.07946573
38	0x3e5e1c85	0.21690567
39	0xbcb66e43	-0.022269374
40	0xbe450bbd	-0.19242759
41	0xbe7882ff	-0.24268721
42	0x3b1c1768	0.0023817662
43	0xbb784952	-0.00378855
44	0x3dbef4e6	0.093240544
45	0xbe1b0dc0	-0.15141964
46	0x3dfdfb9b	0.124015056
47	0xbe5a46ff	-0.21316145
48	0xbde2abd5	-0.110679306
49	0xbe50588b	-0.20346276
50	0x3e1ba5b9	0.15199937
51	0xbe59db27	-0.21275006
52	0xbe430338	-0.19044197
53	0x3e2493ae	0.1607196
54	0xbb9e91d4	-0.0048391614
55	0xbdc6e5ac	-0.09711775
56	0xbeaafc07	-0.33395407
57	0xbe88c5c8	-0.26713395
58	0x3eaf2659	0.34208944
59	0xbdc728ef	-0.09724604
60	0xbd1d2595	-0.03836592
61	0xbe83bdf9	-0.25730875
62	0xbe612481	-0.21986581
63	0x3d4d3085	0.0500951
64	0xbd66f04f	-0.05638152
65	0xbe594e48	-0.21221268
66	0xbdd0b423	-0.10190608
67	0xbe341f65	-0.17590101
68	0x3e8ab5c6	0.27091807
69	0x3d4eec5d	0.050518382
70	0x3c3ce339	0.0115287835
71	0xbc123371	-0.008923397
72	0xbe1e0d73	-0.15434818
73	0xbdf86c88	-0.12130076
74	0xbe49bb0c	-0.19700259
75	0xbd28d403	-0.041217815
76	0x3e3c50d7	0.18390213
77	0x3d355434	0.044269755
78	0x3db89893	0.09013476
79	0xbd5aaf8f	-0.053390082
80	0x3db92b1b	0.09041425
81	0x3c36b315	0.011151095
82	0x3d5959c1	0.05306411
83	0x3d4f0bdf	0.05054843
84	0xbe59800e	-0.21240255
85	0xbbfb7cc1	-0.007674784
86	0xbe8c3e80	-0.27391434
87	0xbea30609	-0.31840542
88	0x3d3f07ff	0.046638485
89	0xbce9c41b	-0.028535893
90	0xbd8654ae	-0.0655912
91	0xbdac6233	-0.084171675
92	0xbe99308a	-0.29919845
93	0x3d7634e1	0.060109023
94	0xbde7229c	-0.11285898
95	0xbe139ec8	-0.14416039
96	0x3c537ffa	0.01290893
97	0xbe36d98f	-0.1785643
98	0xbd5cde0b	-0.053922694
99	0xbe43012b	-0.19043414
100	0x3df401aa	0.1191438
101	0x3cffe077	0.031234963
102	0xbe06d0e3	-0.13165621
103	0xbea4c1b6	-0.3217904
104	0xbe1b2b27	-0.1515318
105	0xbd381ff3	-0.044952344
106	0x3e115013	0.14190702
107	0xbd9126dd	-0.07087491
108	0xbdf89b46	-0.12138991
109	0xbe8db788	-0.27679086
110	0xbe4fda61	-0.20298149
111	0xbd3ad10a	-0.04560951
112	0xbc6e0061	-0.0145264575
113	0x3c89f958	0.01684253
114	0xbe2e5343	-0.1702395
115	0xbd1655ad	-0.0367028
116	0xbe0c4cdf	-0.13701199
117	0x3cb0deae	0.021590557
118	0x3d183fb5	0.03717013
119	0xbd4cf885	-0.050041694
120	0xbe739739	-0.23788156
121	0xbec65d66	-0.38743132
122	0x3d9e975c	0.07743713
123	0xbd1c06a0	-0.038092256
124	0x3dc26116	0.09491174
125	0x3d50f957	0.05101904
126	0x3e247ece	0.16063997
127	0x3dd99a36	0.106251165
128	0xbe1cc439	-0.15309228
129	0xbb937883	-0.00450045
130	0xbe8832a0	-0.26601124
131	0xbe2ab501	-0.1667061
132	0xbd157a07	-0.036493327
133	0xbe14886e	-0.14505169
134	0x3d07443f	0.03302407
135	0xbd5de13f	-0.05416989
136	0xbd385367	-0.045001414
137	0x3d0692bd	0.032854784
138	0xbdb7407b	-0.089478455
139	0xbe5ce91a	-0.21573296
140	0x3d9751c5	0.07388643
141	0x3de86e77	0.113491945
142	0x3c8f1f97	0.017471118
143	0xbe7638a1	-0.2404504
144	0x3e2d6d0c	0.1693613
145	0xbe2a900c	-0.16656512
146	0xbdc5808b	-0.09643658
147	0x3e33ab70	0.17545867
148	0xbeae5d99	-0.34055784
149	0xbd230b29	-0.039805565
150	0xbb774660	-0.0037731156
151	0xbd486271	-0.048922006
152	0xbd004254	-0.031313255
153	0xbd40c8cb	-0.04706649
154	0xbe550e3d	-0.20806213
155	0xbecac8cb	-0.39606318
156	0x3eec9d21	0.4621363
157	0xbd3098dd	-0.04311453
158	0xbe22847c	-0.15870851
159	0x3cfcf7e6	0.030879926
160	0xbdbb27d3	-0.09138455
161	0xbea0fb55	-0.3144175
162	0x3d005206	0.031328224
163	0xbe89902c	-0.26867807
164	0xbd41d9e4	-0.047326937
165	0x3d775e75	0.060392816
166	0x3e25eeeb	0.16204421
167	0x3e5b2e11	0.21404292
168	0xbeaa0209	-0.33204678
169	0xbda0ef90	-0.07858193
170	0xbe889b81	-0.2668114
171	0xbe4d4ba7	-0.2004839
172	0x3d20d614	0.03926666
173	0x3d6e6e21	0.058210496
174	0xbda81d6c	-0.08208737
175	0x3c81307b	0.015770188
176	0xbd67432e	-0.056460552
177	0xbd3afad3	-0.04564936
178	0x3d575206	0.052568458
179	0x3d74607d	0.05966233
180	0x3de6417b	0.11242958
181	0xbd9b6b3d	-0.075888135
182	0xbde26361	-0.11054111
183	0xbd86e149	-0.065859385
184	0x3e2ec636	0.17067799
185	0xbd777427	-0.060413506
186	0x3caa297b	0.020771733
187	0x3e76224b	0.24036519
188	0xbd595c33	-0.053066444
189	0x3dac4131	0.08410872
190	0x3c5c5fa6	0.013450539
191	0xbd047162	-0.032334693
192	0xbdd7e6d3	-0.10542073
193	0xbe5f8a19	-0.21830024
194	0x3d669aff	0.05630016
195	0xbd12c501	-0.03583241
196	0xbda5a143	-0.08087399
197	0xbda3488e	-0.07972823
198	0xbddef1b1	-0.10885943
199	0xbe6cb158	-0.23114526
200	0x3d65b05e	0.0560764
201	0x3deb11bc	0.11477992
202	0x3d3ad73b	0.045615416
203	0xbdb802ca	-0.08984907
204	0xbca7fa03	-0.020504957
205	0xbe569340	-0.20954609
206	0x3e2b2ebf	0.16717051
207	0xbc5401c0	-0.01293987
208	0xbe129454	-0.14314395
209	0x3b0b6045	0.0021267098
210	0xbe086d6e	-0.13322994
211	0x3d6f2088	0.058380634
212	0xbd8edf2c	-0.069761604
213	0xbdba11f0	-0.090854526
214	0xbda5e6ad	-0.081006385
215	0xbc9b2ac2	-0.018941287
216	0x3cc7bced	0.024382079
217	0xbe33ca05	-0.17557533
218	0xbb905292	-0.0044043744
219	0x3bb88211	0.0056307395
220	0x3d55fea4	0.052244797
221	0xbdb08355	-0.086187996
222	0xbbd433c6	-0.0064758984
223	0xbe037f19	-0.12841453
224	0xbc210c9f	-0.009829669
225	0x3d9ac589	0.07557208
226	0xbd8ea85e	-0.06965707
227	0xbcc2f1b1	-0.023796888
228	0x3c8c9f00	0.01716566
229	0x3c61e9ab	0.013788621
230	0xbe020d3d	-0.12700363
231	0xbd854bdb	-0.06508609
232	0x3defaddf	0.11703085
233	0xbe5bd1e0	-0.2146678
234	0x3e12ad80	0.14323997
235	0xbe36eed9	-0.1786455
236	0x3d4e0292	0.05029542
237	0x3d236f7e	0.03990125
238	0xbe1c5e64	-0.15270382
239	0xbaec4afd	-0.0018027719
240	0x3da9575f	0.08268618
241	0x3d0b1cdc	0.03396307
242	0x3d962c01	0.07332612
243	0x3e0397c5	0.12850864
244	0xbd4e948a	-0.050434627
245	0xbe1af7f5	-0.1513365
246	0xbdfd0ea8	-0.12356311
247	0x3da0b2b7	0.07846587
248	0x3e454a8a	0.19266716
249	0x3db9e450	0.0907675
250	0x3e03073f	0.12795733
251	0x3c913193	0.017723834
252	0xbe057fa2	-0.1303697
253	0xbd8c18d6	-0.068406746
254	0x3cacc1e3	0.021088546
255	0x3c8d249b	0.017229369

sequential/dense_4/BiasAdd/ReadVariableOp:0 f4 [100]
0	0x3d0fb7de	0.03508746
1	0xbd998297	-0.07495611
2	0xbe59d691	-0.21273257
3	0xbe13dde1	-0.14440109
4	0xbe4f6c6f	-0.20256208
5	0xbecae0d3	-0.39624652
6	0x3e0e8d20	0.13921022
7	0xbe297d58	-0.16551721
8	0xbdce3502	-0.10068704
9	0x3e2c589b	0.16830675
10	0xbe80432b	-0.25051245
11	0xbe4f1749	-0.20223726
12	0xbdf412b4	-0.1191763
13	0x3c2b9eef	0.010474904
14	0xbe0dddc4	-0.13854128
15	0xbe5c3135	-0.21503146
16	0xbdf263e4	-0.11835459
17	0xbdaab997	-0.0833618
18	0xbdc36862	-0.09541394
19	0xbd49b67f	-0.049246307
20	0xbe59c884	-0.21267897
21	0xbebfa039	-0.37426928
22	0xbe2adc5a	-0.1668562
23	0xbe94b0fc	-0.29041278
24	0x3e266524	0.1624952
25	0x3e7273fe	0.2367706
26	0x3d3438fb	0.043999653
27	0xbde85b2c	-0.11345515
28	0xbde75c6f	-0.11296927
29	0xbebae5ba	-0.36503392
30	0xbe0b2510	-0.13588357
31	0xbdf730df	-0.12069868
32	0xbe665771	-0.22494294
33	0xbe548280	-0.20752907
34	0x3e93801b	0.28808674
35	0xbded6d12	-0.11593069
36	0xbe43f3e9	-0.19136013
37	0xbeaa2816	-0.33233708
38	0x3e6d15cc	0.23152846
39	0xbe342c84	-0.17595106
40	0xbe6de753	-0.23232774
41	0xbe6675a1	-0.2250581
42	0xbe74cd33	-0.23906402
43	0xbe3a34fc	-0.18184274
44	0xbdbb4265	-0.09143523
45	0xbe9e5423	-0.30923566
46	0xbe0e91da	-0.13922825
47	0xbe4cd432	-0.20002821
48	0xbdaca697	-0.08430212
49	0xbe83f7c2	-0.25774962
50	0x3e2ec853	0.17068605
51	0xbddeeb22	-0.10884692
52	0xbe5dfeb8	-0.21679199
53	0x3e8e0dca	0.27744895
54	0xbdb7388d	-0.08946333
55	0xbe725d2e	-0.23668358
56	0x3e222148	0.15833008
57	0xbe837bbf	-0.25680348
58	0x3e4c0ea4	0.1992746
59	0xbe333533	-0.17500763
60	0xbe9beb63	-0.30453023
61	0xbe725299	-0.23664321
62	0xbea3cf28	-0.31993985
63	0xbdd50c3f	-0.104027264
64	0xbe12ee4a	-0.14348713
65	0x3e659daf	0.22423433
66	0xbe5b5547	-0.2141925
67	0x3e1dca7b	0.15409271
68	0x3e089880	0.13339424
69	0xbe04079b	-0.12893526
70	0x3d189d71	0.037259523
71	0xbe3f6fd1	-0.18694998
72	0xbdc4433c	-0.095831364
73	0xbe47fb17	-0.19529377
74	0xbdcf0a13	-0.101093434
75	0xbe554cfb	-0.20830147
76	0xbe104591	-0.14089037
77	0xbe31358a	-0.1730558
78	0xbd82743d	-0.06369827
79	0xbe2bff44	-0.16796595
80	0x3da0c209	0.07849509
81	0xbd44f46d	-0.048084665
82	0xbe0f3e64	-0.13988644
83	0xbe7da5a4	-0.24770218
84	0xbe842bcb	-0.2581466
85	0xbe3eac63	-0.18620448
86	0x3e0feba9	0.14054741
87	0xbd9413a6	-0.0723031
88	0x3d98e347	0.07465225
89	0xbe146407	-0.14491282
90	0xbe591621	-0.21199848
91	0x3d946e99	0.07247657
92	0x3d152906	0.036416076
93	0x3e502989	0.20328344
94	0xbdd9ef1a	-0.10641308
95	0xbe20c7b6	-0.15701184
96	0xbe6ffafb	-0.23435585
97	0xbe1ef55f	-0.15523289
98	0xbe2a1a14	-0.1661151
99	0xbe11cea0	-0.14238977

sequential/dense_3/MatMul/ReadVariableOp:0 f4 [100, 100]
0	0xbe34f456	-0.17671332
1	0x3ece1dfb	0.40257248
2	0xbe859857	-0.2609279
3	0xbddcd528	-0.10782844
4	0x3dc0c7d8	0.09413117
5	0xbd232f4a	-0.03984002
6	0x3df05c8e	0.117364034
7	0x3de15db5	0.11004201
8	0xbecaa624	-0.3957988
9	0x3eae40bd	0.34033766
10	0xbda29dbe	-0.07940243
11	0xbe826a20	-0.25471592
12	0xbe36bc89	-0.17845358
13	0xbe5103eb	-0.20411651
14	0x3e32bd80	0.17455101
15	0x3c9a4203	0.018830305
16	0xbe4b7fbd	-0.19872947
17	0xbe4cd8ef	-0.20004629
18	0x3e88f714	0.26751006
19	0xbf1bbbef	-0.6083364
20	0x3e40065b	0.18752424
21	0xbd958dd1	-0.0730244
22	0x3e85bd9b	0.2612122
23	0x3eb88a17	0.36042854
24	0xbe40c6fd	-0.18825908
25	0x3ed53072	0.41638523
26	0xbeac35cd	-0.33634797
27	0x3e6874de	0.22700831
28	0x3e9a27b5	0.3010842
29	0xbd6fb560	-0.058522582
30	0xbe287158	-0.16449487
31	0xbce6c42c	-0.028169714
32	0x3db2f36f	0.087378375
33	0xbd1527d5	-0.03641494
34	0x3e176b4e	0.14787027
35	0xbed783d7	-0.42092773
36	0xbe85d653	-0.2614008
37	0xbe211a61	-0.15732719
38	0xbd377215	-0.04478653
39	0xbdce9237	-0.10086482
40	0xbda0e6b2	-0.07856502
41	0x3d5a5d99	0.053311918
42	0x3e4da1e5	0.20081289
43	0xbd13c293	-0.036074232
44	0x3d8a2912	0.06746115
45	0x3f16c700	0.588974
46	0x3ee59955	0.44843546
47	0xbc817cc9	-0.015806573
48	0xbd99af79	-0.07504172
49	0xbd82754b	-0.06370028
50	0x3d06e4ae	0.03293293
51	0x3dd4ecfc	0.10396764
52	0x3c67e6a6	0.014154112
53	0x3ecb509f	0.39709947
54	0xbdf96b32	-0.12178649
55	0xbe2a3083	-0.16620068
56	0x3efcebc4	0.49398625
57	0x3d325a45	0.04354312
58	0xbdf2b8fa	-0.11851688
59	0x3e5c19ef	0.21494268
60	0xbea30a22	-0.31843668
61	0xbcac64ff	-0.021044252
62	0x3e390762	0.18069223
63	0x3d2b38c8	0.041802198
64	0x3bb91f92	0.0056495154
65	0xbe833948	-0.2562964
66	0xbe7aa101	-0.2447548
67	0x3d67785a	0.05651126
68	0xbd29a7b4	-0.0414197
69	0xbe995ed8	-0.29955173
70	0x3de6bf93	0.11267009
71	0xbd6e6f46	-0.058211587
72	0xbd939376	-0.0720586
73	0x3dde5e49	0.10857827
74	0x3ead8b47	0.33895323
75	0xbde92466	-0.113838956
76	0xbdc1ec56	-0.09468906
77	0xbeb58ce3	-0.3545905
78	0xbd630ef5	-0.055434186
79	0xbd8694d5	-0.06571356
80	0xbe9f830e	-0.31154674
81	0x3cff4066	0.031158637
82	0xbebe50df	-0.37171075
83	0xbe95263d	-0.29130736
84	0x3e0c78d9	0.13717975
85	0xbd938dd7	-0.07204788
86	0xbb822dea	-0.0039727585
87	0xbea5b094	-0.3236128
88	0x3cc40266	0.023926925
89	0x3d8f86b8	0.070081174
90	0x3da944cd	0.08265076
91	0xbe42bebd	-0.19018073
92	0xbe504ed9	-0.20342578
93	0x3d54b8d7	0.05193409
94	0x3e1884b5	0.14894374
95	0x3dd4ff36	0.1040024
96	0x3e0a8620	0.13527727
97	0xbecf68b7	-0.4050958
98	0xbc078957	-0.00827249
99	0xbe534d7c	-0.20635027
100	0xbf03d32f	-0.51494116
101	0x3b94d208	0.0045416392
102	0xbd846588	-0.06464678
103	0xbd92385e	-0.071396574
104	0xbde2d8a5	-0.11076478
105	0x3cb45527	0.02201326
106	0xbd1fd0cf	-0.039017495
107	0xbee52e75	-0.44762006
108	0xbe0b7a40	-0.13620853
109	0x3df7a19b	0.12091371
110	0x3ba0fef5	0.0049132057
111	0xbe818172	-0.2529407
112	0xbe7d76f7	-0.24752413
113	0xbedc4840	-0.43023872
114	0xbe931fa5	-0.2873508
115	0xbd2f2df4	-0.042768434
116	0xbf1aee90	-0.6052027
117	0x3de6a61d	0.11262152
118	0xbed659c0	-0.4186535
119	0xbd29827a	-0.041384198
120	0xbe0fb851	-0.14035155
121	0xbe4362e8	-0.19080698
122	0x3ea0e2b6	0.31422967
123	0xbe8d3201	-0.27577212
124	0x3e35545a	0.17707959
125	0xbd4485cc	-0.04797916
126	0xbe130e14	-0.14360839
127	0x3ddc1cf0	0.10747707
128	0x3e38689f	0.1800866
129	0xbe8970af	-0.26843783
130	0x3e6dffe1	0.23242141
131	0x3e225ad2	0.15854958
132	0xbd628b4a	-0.055308618
133	0x3cddd5b4	0.02707944
134	0xbe4ac3cc	-0.19801253
135	0xbe345654	-0.17611057
136	0x3d76ccef	0.060254034
137	0xbe93d193	-0.2887083
138	0x3e068e6f	0.13140272
139	0x3cb257c9	0.021770375
140	0x3dbb104e	0.09133969
141	0xbe6c57ed	-0.23080416
142	0xbf197913	-0.5995037
143	0xbd9daedb	-0.07699367
144	0xbeb94e93	-0.3619276
145	0xbe389346	-0.1802493
146	0xbe653dff	-0.22386931
147	0xbd61c989	-0.05512384
148	0xbe4ca620	-0.19985247
149	0x3dab5fb9	0.08367867
150	0x3dbf2b03	0.09334376
151	0xbc6ab046	-0.014324253
152	0xbf27e804	-0.655884
153	0xbdf2455e	-0.11829637
154	0xbf0911f3	-0.53543013
155	0x3e133a9f	0.14377831
156	0xbec89d1e	-0.3918237
157	0xbf06f6c6	-0.52720296
158	0x3d00f321	0.031481866
159	0x3eb0fbed	0.34567204
160	0xbe7c80fb	-0.24658577
161	0xbea6564e	-0.3248772
162	0x3e028d3f	0.12749194
163	0xbcc3479c	-0.023837857
164	0xbd2f008a	-0.042725123
165	0xbee4a0ba	-0.44653875
166	0x3eaa2a7f	0.33235547
167	0xbe5cc99d	-0.21561284
168	0x3ca504f5	0.020143965
169	0xbac4aa97	-0.0015004453
170	0x3d0f3bc3	0.034969103
171	0xbdc6553d	-0.09684227
172	0xbd96c235	-0.07361261
173	0x3e7d593e	0.24741074
174	0xbd531225	-0.051530976
175	0x3dba1de3	0.09087732
176	0xbe0b3e22	-0.1359792
177	0xbdec8c59	-0.11550207
178	0x3e81547d	0.25259772
179	0xbdbae609	-0.09125907
180	0xbc9c92f4	-0.019113041
181	0xbeb9faab	-0.36324057
182	0x3d411f26	0.047148846
183	0xbdeb71a4	-0.114962846
184	0xbcded136	-0.027199369
185	0xbe558278	-0.20850551
186	0xbea8cd90	-0.32969332
187	0x3e47f75b	0.19527952
188	0x3e85c6d4	0.26128256
189	0xbd562231	-0.0522787
190	0x3e0ed054	0.13946658
191	0x3d6842a5	0.056704182
192	0xbd8dd805	-0.06925968
193	0xbf0cfd15	-0.5507367
194	0xbd394762	-0.04523409
195	0xbefd867b	-0.49516663
196	0xbe937758	-0.2880199
197	0x3d20b0d2	0.03923113
198	0xbcec6431	-0.028856369
199	0xbd08b0d6	-0.03337177
200	0x3b0d005c	0.0021515107
201	0xbe1bcd0b	-0.15214936
202	0xbe664807	-0.22488414
203	0x3def5852	0.11686768
204	0x3dc5243f	0.09626054
205	0x3d37150f	0.044697817
206	0x3f037027	0.51343006
207	0x3e70bd46	0.23509702
208	0x3e0bc456	0.13649115
209	0x3e9080d1	0.2822328
210	0xbe1ddd29	-0.15416397
211	0x3e19cb56	0.15018973
212	0x3ee9b092	0.45642525
213	0xbe6a592c	-0.22885579
214	0x3d9d5a76	0.0768327
215	0x3d30ecd8	0.04319462
216	0xbd41897b	-0.047250252
217	0x3e835ddf	0.25657555
218	0x3e21d639	0.15804376
219	0x3e21fb35	0.15818484
220	0xbd5c3bfb	-0.05376814
221	0x3e4860a2	0.19568112
222	0xbe0b9eb6	-0.13634762
223	0xbf09ba37	-0.53799766
224	0xbea27e75	-0.31737104
225	0xbe0b50e9	-0.13605084
226	0xbe4b8210	-0.19873834
227	0xbe13aa3d	-0.1442041
228	0x3df74288	0.12073237
229	0xbde1c968	-0.11024743
230	0xbe474b90	-0.19462419
231	0xbe02f374	-0.12788182
232	0xbe41311f	-0.18866394
233	0x3dc811e5	0.09769038
234	0x3e81c9d9	0.2534931
235	0xbea1b67e	-0.31584543
236	0xbe64be22	-0.22338155
237	0x3eab3bc5	0.33444038
238	0xbdcc49cc	-0.09975013
239	0x3e3196d5	0.17342694
240	0x3e01c7e3	0.12673907
241	0xbe486c70	-0.19572616
242	0x3ea9ae32	0.33140713
243	0xbdfb8124	-0.12280491
244	0x3e3fafee	0.18719456
245	0xbe6b8b17	-0.23002277
246	0x3ea0904f	0.313601
247	0xbd46bcb0	-0.04851979
248	0xbe323a6d	-0.174051
249	0xbe29f3bd	-0.16596885
250	0xbe175d7c	-0.14781755
251	0xbe7f7b50	-0.24949384
252	0xbe1a0c80	-0.15043831
253	0xbdc9178b	-0.098189436
254	0xbe05477b	-0.13015549
255	0xbebf4296	-0.3735549

sequential/dense_3/BiasAdd/ReadVariableOp:0 f4 [100]
0	0xbd3723e3	-0.04471196
1	0xbeade303	-0.3396226
2	0xbde19dbb	-0.11016413
3	0xbe75833c	-0.23975843
4	0xbe0a3dba	-0.1350011
5	0xbe297d2d	-0.16551657
6	0xbd9ce55e	-0.07660936
7	0xbea686b5	-0.32524648
8	0xbc44d737	-0.012014202
9	0x3d2b9842	0.04189325
10	0xbe168481	-0.14698984
11	0x3eaaee11	0.33384755
12	0x3da7d8ec	0.081956714
13	0xbe55ed1a	-0.20891228
14	0x3dcd534e	0.10025655
15	0x3e60dd77	0.21959482
16	0x3c4bacb7	0.012431315
17	0xbe18e26a	-0.1493012
18	0x3e66647f	0.22499274
19	0xbe043a58	-0.12912881
20	0x3db2dfd0	0.08734095
21	0x3eaf3ecc	0.34227598
22	0xbd2fac8f	-0.042889174
23	0xbe355388	-0.17707646
24	0xbbb804fe	-0.0056158295
25	0xbdd37e8b	-0.103268705
26	0x3db568b4	0.08857861
27	0xba505f6a	-0.0007948788
28	0xbe619cb3	-0.22032432
29	0xbe773392	-0.24140766
30	0xbcd292cb	-0.025704762
31	0xbdf61926	-0.120165154
32	0xbdbd3ffe	-0.09240721
33	0xbe6ed385	-0.23322876
34	0xbe70ada6	-0.23503742
35	0xbe6a23c7	-0.2286521
36	0xbe44330b	-0.19160096
37	0x3e10a0a7	0.14123784
38	0x3e4e4852	0.20144776
39	0xbd46df1c	-0.048552617
40	0x3e2fa23f	0.17151736
41	0xbe051203	-0.12995152
42	0xbd2770c7	-0.040879037
43	0xbdbcceba	-0.092191175
44	0x3c66e233	0.014092016
45	0xbf00aee2	-0.5026685
46	0xbe30d955	-0.17270406
47	0xbdfdd10e	-0.1239339
48	0xbe37a32a	-0.17933336
49	0xbdb89308	-0.09012419
50	0xbc5f07fc	-0.0136127435
51	0xbe17261f	-0.14760636
52	0xbf053280	-0.5203018
53	0x3ebf69d0	0.37385416
54	0xbe023120	-0.12714052
55	0x3ceee04e	0.029159691
56	0xbeb552b2	-0.35414654
57	0xbe7dca0c	-0.24784106
58	0xbe910ee0	-0.2833166
59	0x3d6b142a	0.057392277
60	0x3da74268	0.08166963
61	0xbf1c2bac	-0.6100414
62	0xbe4ff9ab	-0.20310085
63	0x3dcb13bd	0.09915874
64	0xbde991ac	-0.11404738
65	0x3e2dd992	0.16977528
66	0x3c039696	0.008031508
67	0xbd0eaa56	-0.034830414
68	0xbe1177ce	-0.14205858
69	0x3e1d3922	0.15353826
70	0xbdd6f1be	-0.104953274
71	0x3dfeb407	0.12436681
72	0x3e4149d2	0.18875816
73	0xbe89fa24	-0.26948655
74	0xbe921a06	-0.2853548
75	0xbe75113a	-0.23932353
76	0xbe52f4df	-0.20601223
77	0xbea88b1e	-0.32918638
78	0x3e6c9db3	0.23107032
79	0xbdf10b73	-0.11769762
80	0xbe5a8f28	-0.21343672
81	0xbefff783	-0.49993524
82	0x3dfc38ef	0.12315547
83	0xbe6df28c	-0.23237056
84	0x3e953b39	0.29146746
85	0xbd5292c9	-0.051409516
86	0xbed3586b	-0.41278395
87	0x3e42ed57	0.1903585
88	0x3e167ae4	0.14695317
89	0xbeb4136c	-0.35171068
90	0xbe4117e2	-0.18856767
91	0xbe0c1e81	-0.13683511
92	0xbe913eed	-0.2836832
93	0xbe14b436	-0.1452187
94	0xbe7f90bf	-0.2495756
95	0xbdca522c	-0.09878954
96	0x3cdaa2e8	0.026689008
97	0x3d1a43e1	0.03766239
98	0xbdcd9288	-0.10037714
99	0xbdc4a492	-0.09601702

sequential/dense_2/MatMul/ReadVariableOp:0 f4 [100, 100]
0	0x3e1bf5e6	0.15230522
1	0xbc800de7	-0.01563163
2	0xbec11979	-0.37714747
3	0x3d26e433	0.04074497
4	0xbd950592	-0.07276453
5	0x3e6f3eae	0.23363754
6	0xbea99657	-0.33122513
7	0x3eda7b20	0.42672062
8	0xbe129701	-0.14315416
9	0xbdca7099	-0.098847575
10	0x3e97ecb0	0.29672766
11	0x3e2f88ee	0.17142078
12	0xbeb54c75	-0.35409895
13	0xbde22684	-0.110425025
14	0x3e8059e8	0.25068593
15	0xbdf5adb2	-0.119960204
16	0x3d6626a7	0.056189205
17	0x3f0495a4	0.51790833
18	0x3dca9807	0.09892278
19	0x3d49a489	0.04922918
20	0xbdd03f3b	-0.1016831
21	0x3dcacbc2	0.09902145
22	0xbc75c2b8	-0.015000038
23	0x3eb0cf23	0.34533033
24	0x3eaf215c	0.3420514
25	0x3ddf7b0b	0.109121405
26	0x3dc0868c	0.09400663
27	0xbd20f8ba	-0.039299704
28	0xbddd3bd2	-0.108024254
29	0x3c4d6332	0.012535857
30	0x3eab772e	0.33489364
31	0xbe4de86c	-0.20108193
32	0xbf2fc57b	-0.68660706
33	0xbe50d3e4	-0.2039333
34	0x3e0e1a8f	0.13877319
35	0x3cd86fd0	0.026420504
36	0xbe09ca03	-0.13455968
37	0xbeb86181	-0.3601189
38	0xbd63231e	-0.055453412
39	0xbf45375b	-0.7703759
40	0x3ed0aa9c	0.40755165
41	0x3d3ba806	0.045814537
42	0x3c26e731	0.010186956
43	0x3ea7f307	0.32802603
44	0xbc08843b	-0.008332307
45	0xbe56caf4	-0.20975858
46	0x3edd219a	0.43189698
47	0xbf7f16d2	-0.99644196
48	0xbe3139c8	-0.17307198
49	0x3e0daebd	0.13836189
50	0xbe5c129a	-0.21491471
51	0xbd645e05	-0.055753727
52	0xbe844d72	-0.25840336
53	0xbe281f01	-0.16418077
54	0x3eac712d	0.33680096
55	0x3e060a8a	0.13089958
56	0xbd36ee79	-0.04466102
57	0xbeb5906c	-0.35461748
58	0xbc0fdb8c	-0.008780371
59	0x3c9d8a67	0.019231034
60	0xbe2c01ba	-0.16797534
61	0x3e7768a8	0.24161017
62	0x3d00c6d5	0.03143962
63	0xbdc29d57	-0.095026664
64	0x3d10f74f	0.0353921
65	0xbe112886	-0.14175615
66	0xbe1e2e61	-0.1544738
67	0xbd5894c8	-0.052876264
68	0xbf12091d	-0.57045156
69	0xbee8bcf1	-0.4545665
70	0x3e2bde0e	0.16783926
71	0x3dc294df	0.09501051
72	0xbee7ac51	-0.45248654
73	0xbdced9ac	-0.10100111
74	0x3e0e97ea	0.13925138
75	0xbd2c60c0	-0.042084455
76	0xbec81cd6	-0.390845
77	0xbe4d1c78	-0.20030391
78	0x3de79d9f	0.11309361
79	0xbee76134	-0.45191348
80	0xbd17b025	-0.03703322
81	0xbd27ec8c	-0.040997073
82	0x3d6d921e	0.058000676
83	0x3e318496	0.17335734
84	0x3e0ccc71	0.13749863
85	0x3dab32a9	0.08359272
86	0xbca1780a	-0.01971056
87	0x3cf0e650	0.029406697
88	0x3f02ff2d	0.5117062
89	0x3d55585e	0.052086227
90	0xbe285ad3	-0.16440897
91	0xbd8418c0	-0.06450033
92	0x3ddb8dca	0.107204035
93	0xbe9993e8	-0.29995656
94	0xbd0feaf1	-0.035136167
95	0x3ddfdb8e	0.109305486
96	0xbdc8ce65	-0.09804992
97	0x3ebc2e24	0.36753953
98	0xbe06aab9	-0.13151063
99	0x3ead4bc2	0.3384686
100	0xbdcf2dce	-0.101161584
101	0x3e7169cb	0.23575513
102	0x3e5ed9c2	0.21762756
103	0xbe91b22d	-0.2845625
104	0xbcd99875	-0.026561955
105	0x3e6ca843	0.23111062
106	0x3e880fac	0.26574457
107	0x3e4fb471	0.20283677
108	0xbd54aab1	-0.051920597
109	0x3dc93cfd	0.09826086
110	0xbe08295f	-0.13297032
111	0xbe2ab951	-0.16672255
112	0xbe429121	-0.19000675
113	0xbd241e72	-0.040068097
114	0x3e736911	0.23770548
115	0x3e9bfe97	0.30467674
116	0x3b084bbe	0.00207971
117	0xbeac252f	-0.3362212
118	0xbe59129b	-0.21198504
119	0xbdc03a93	-0.09386172
120	0x3cbb978f	0.022899417
121	0xbe8da14b	-0.2766212
122	0xbdf725f2	-0.12067784
123	0xbe54dc08	-0.2078706
124	0x3e4e8a96	0.20170054
125	0x3d81ae32	0.06332053
126	0xbc1aaec4	-0.009441081
127	0x3c1ac756	0.009446939
128	0x3d3b6ac0	0.0457561
129	0xbe6d95a5	-0.23201616
130	0xbd6aa938	-0.057290286
131	0x3dc73c28	0.09728271
132	0x3c111fde	0.008857695
133	0x3d2955f1	0.041341726
134	0x3da72549	0.081614085
135	0x3df45f27	0.11932211
136	0xbdc9713a	-0.098360494
137	0xbe24876d	-0.16067286
138	0xbddd2b9a	-0.10799332
139	0xbe577b59	-0.21043147
140	0x3ece59fb	0.40303025
141	0xbe20c3d1	-0.15699698
142	0x3e8f4daa	0.2798894
143	0xbea24866	-0.3169586
144	0xbd42c924	-0.047555104
145	0xbdc06d26	-0.093958184
146	0x3db1a7ca	0.08674581
147	0xbda93aa1	-0.08263136
148	0xbe1c76bd	-0.1527967
149	0xbe64c24c	-0.22339743
150	0xbdfe72c9	-0.12424237
151	0xbdd2b599	-0.10288543
152	0xbe9a1014	-0.30090392
153	0x3b41d2d4	0.0029575126
154	0xbeab5589	-0.33463696
155	0x3e9b821c	0.30372703
156	0xbe26d9bc	-0.16293997
157	0xbd774f9c	-0.060378656
158	0xbf191af8	-0.59806776
159	0xbe53930f	-0.20661567
160	0xbd7b4e06	-0.061353706
161	0x3e56f9d4	0.2099374
162	0x3e83e941	0.25763896
163	0xbeee2aef	-0.4651713
164	0x3e180ffc	0.14849848
165	0xbd078d1e	-0.033093564
166	0xbda453b9	-0.08023781
167	0xbd431cd6	-0.047634922
168	0xbe04f754	-0.12984973
169	0xbeb7b713	-0.35881862
170	0xbef03789	-0.4691737
171	0x3e38d979	0.18051709
172	0x3e153858	0.14572275
173	0xbe4fab7f	-0.20280264
174	0x3de72d19	0.112878986
175	0xbe1dfae4	-0.15427738
176	0x3d9af7c2	0.07566787
177	0xbf051a50	-0.51993275
178	0xbe8c02bd	-0.2734584
179	0x3e759879	0.23983945
180	0xbe9f8c0d	-0.31161538
181	0xbf7f7080	-0.99781036
182	0xbda8a60b	-0.08234795
183	0xbe94cad6	-0.29061002
184	0xbe147879	-0.14499082
185	0xbd3bc856	-0.045845352
186	0xbf3b0358	-0.7305198
187	0xbece8bb4	-0.4034096
188	0x3e5e9188	0.21735203
189	0xbe3b2390	-0.18275285
190	0xbe441adc	-0.19150871
191	0xbcd562fc	-0.026048176
192	0xbe295646	-0.16536817
193	0xbf0762bb	-0.52885026
194	0x3dc49c7c	0.096001595
195	0xbd8b1ba6	-0.06792383
196	0x3cdc25c6	0.02687348
197	0xbc07b357	-0.008282504
198	0xbe476c8e	-0.19475004
199	0x3e7d5aca	0.24741665
200	0x3e52b500	0.20576859
201	0xbec89578	-0.39176536
202	0xbe6f507a	-0.23370543
203	0xbf58a7b1	-0.84630877
204	0x3d615b3e	0.055018656
205	0xbf777146	-0.96657217
206	0xbe98ac51	-0.29818967
207	0x3cdc5298	0.026894853
208	0x3ddc30a6	0.107514665
209	0xbaf6cd18	-0.0018829433
210	0x3d1918af	0.037377056
211	0xbe829d28	-0.25510526
212	0x3e48b12b	0.19598834
213	0xbdcfb8ff	-0.10142707
214	0x3df93d18	0.12169856
215	0x3e87a56d	0.26493397
216	0xbdf78552	-0.12085976
217	0x3e38dd1b	0.18053095
218	0xbd846972	-0.064654246
219	0xbd8a9eec	-0.06768593
220	0xbe3cf4a7	-0.18452702
221	0xbe4e0d4a	-0.20122257
222	0xbe0aae04	-0.13542944
223	0xbe6f8fe9	-0.23394741
224	0xbeb8911f	-0.3604822
225	0xbf008d1e	-0.5021533
226	0x3d214f14	0.039382055
227	0xbf153bc3	-0.58294314
228	0xbe0b41e8	-0.1359936
229	0x3e517485	0.20454605
230	0x3e471b49	0.19444002
231	0x3e23de4d	0.1600277
232	0xbec35e32	-0.38157803
233	0xbcbf081c	-0.023319297
234	0xbeccc33a	-0.39992696
235	0xbdc95a14	-0.09831634
236	0xbe929d05	-0.2863542
237	0xbf2b5b30	-0.66936016
238	0xbe32b0f3	-0.17450313
239	0x3e42438e	0.18971083
240	0xbeb5cf40	-0.35509682
241	0xbf57fe39	-0.8437229
242	0x3ddecc9b	0.10878869
243	0x3eafc5d0	0.34330606
244	0xbd14f48a	-0.036366023
245	0x3d5967a6	0.053077362
246	0x3e5c4507	0.21510707
247	0x3e174ced	0.14775439
248	0xbd6303b5	-0.055423457
249	0xbc014f14	-0.007892389
250	0xbdcac7ef	-0.099014156
251	0xbd108a84	-0.03528835
252	0x3c6de875	0.014520754
253	0xbe1f7a94	-0.15574104
254	0x3e22c1db	0.15894262
255	0x3e78c105	0.24292381

sequential/dense_2/BiasAdd/ReadVariableOp:0 f4 [100]
0	0xbe0cfdad	-0.13768645
1	0xbe3884c1	-0.18019392
2	0xbe8277e1	-0.25482085
3	0x3dba8b57	0.09108608
4	0xbe4cef5f	-0.20013188
5	0x3e088580	0.13332176
6	0xbe4bacc8	-0.1989013
7	0x3c943f3e	0.018096562
8	0x3ccf20cb	0.025284192
9	0xbec3fed0	-0.38280344
10	0x3e0bf282	0.13666728
11	0xbe40a478	-0.1881274
12	0xbe821b8c	-0.25411642
13	0xbdd92c38	-0.10604137
14	0xbe80ce3e	-0.2515735
15	0x3e5ab1c1	0.2135687
16	0xbdbadea0	-0.091244936
17	0xbe81d295	-0.25355974
18	0xbe0724a9	-0.13197578
19	0xbe3c51bb	-0.18390553
20	0xbdad8465	-0.08472518
21	0x3e82456e	0.25443596
22	0xbe890e3e	-0.26768678
23	0xbc930c49	-0.017950194
24	0xbdcdaab5	-0.100423254
25	0x3e32525f	0.17414235
26	0xbddaad37	-0.10677569
27	0x3e16a2a1	0.14710476
28	0xbde16e46	-0.11007361
29	0x3e0cffd8	0.13769472
30	0xbe2b34c8	-0.16719353
31	0x3e71c206	0.2360917
32	0xbe9098ce	-0.2824158
33	0xbe0c1eb0	-0.13683581
34	0xbdc71aa3	-0.097218774
35	0xbda49714	-0.08036628
36	0xbc6d6449	-0.014489242
37	0xbb8b2ffb	-0.004247663
38	0xbd641feb	-0.0556945
39	0x3c6d419a	0.014480973
40	0xbe2bd7ec	-0.16781586
41	0x3e7dcf40	0.24786091
42	0x3e0b8d74	0.13628179
43	0xbe952a41	-0.291338
44	0xbd691fd6	-0.056915127
45	0xbd80f5f3	-0.06296911
46	0xbd69c320	-0.05707085
47	0xbca2ec88	-0.019888178
48	0xbed04771	-0.40679505
49	0xbe336f14	-0.17522842
50	0xbdde1669	-0.10844118
51	0xbdb87dc2	-0.090083614
52	0x3ecc08b8	0.39850402
53	0xbee3093d	-0.44342986
54	0xbe839f7e	-0.2570762
55	0xbe07f001	-0.13275148
56	0x3eca3c99	0.39499357
57	0xbf0e05e4	-0.5547774
58	0xbe7903cd	-0.24317856
59	0xbe0f1eea	-0.13976637
60	0xbdc1ccb5	-0.09462873
61	0x3da4f8c9	0.080552645
62	0x3c9e82a7	0.01934941
63	0x3deb19e9	0.11479551
64	0x3d98f3ff	0.074684136
65	0xbdb0b197	-0.086276226
66	0x3e4229d0	0.18961263
67	0x3cb775f6	0.022395115
68	0x3d548c76	0.051891766
69	0xbe9efbd3	-0.31051502
70	0xbea852b8	-0.3287561
71	0xbebc39d2	-0.36762863
72	0x3dae1122	0.084993616
73	0xbe851bba	-0.25997716
74	0xbd9edc97	-0.07756918
75	0xbdb1d867	-0.086838536
76	0xbdd2be95	-0.10290257
77	0x3e4010d5	0.18756421
78	0x3dd57599	0.104228206
79	0xbea9c5e9	-0.33158806
80	0xbe035afa	-0.12827674
81	0x3e3d87c1	0.18508817
82	0xbd87ba56	-0.06627338
83	0x3e27cb68	0.16386187
84	0xbdbbf7a5	-0.09178094
85	0xbdcb6531	-0.0993141
86	0x3c043671	0.0080696205
87	0x3e027da4	0.1274324
88	0x3e11a0dd	0.1422152
89	0xbe0e1eb3	-0.13878898
90	0xbd9b59e8	-0.07585508
91	0xbe2da927	-0.16959058
92	0xbe44056a	-0.1914269
93	0xbe1a31d0	-0.15058064
94	0xbdadd485	-0.084878005
95	0xbdfdd12a	-0.123934105
96	0xbdaa04ca	-0.08301695
97	0xbe092b25	-0.13395365
98	0xbde226d0	-0.11042559
99	0xbe936335	-0.28786626

sequential/dense_1/MatMul/ReadVariableOp:0 f4 [100, 100]
0	0x3d31648d	0.043308783
1	0x3dd62427	0.10456114
2	0x3dfa7e27	0.12231093
3	0x3d28b3da	0.041187145
4	0xbdf5b4d7	-0.11997383
5	0x3dba40b6	0.09094374
6	0xbe259b2f	-0.16172479
7	0xbe3e9ff6	-0.18615708
8	0xbd180c93	-0.037121367
9	0xbdbf7a9d	-0.093495585
10	0x3de48c68	0.11159593
11	0xbe1f5351	-0.15559126
12	0x3e0c9b82	0.13731197
13	0xbd80a7f3	-0.06282034
14	0xbd6f1019	-0.05836496
15	0x3cf5bd98	0.029997632
16	0x3c506c90	0.012721196
17	0x3d95b7e0	0.07310462
18	0xbe20805c	-0.15673965
19	0xbe4affc8	-0.19824135
20	0x3b16554d	0.0022939027
21	0x3e1f275c	0.15542358
22	0x3d2b40c6	0.04180982
23	0xbd2f294c	-0.042763993
24	0xbd510d41	-0.05103803
25	0xbd594cf9	-0.053051922
26	0x3e318152	0.17334488
27	0xbc07b510	-0.008282915
28	0x3cbe5853	0.023235476
29	0x3d68841f	0.056766625
30	0x3e445926	0.19174632
31	0x3df69c8b	0.12041577
32	0xbeabf6f3	-0.33586845
33	0xbd3d3539	-0.046193335
34	0xbd863780	-0.065535545
35	0xbda75ca6	-0.08171968
36	0x3e5a38d2	0.21310738
37	0xbe227357	-0.15864311
38	0x3d7b68c2	0.0613792
39	0x3d407934	0.04699059
40	0xbd10608f	-0.035248335
41	0x3dcb3b64	0.09923437
42	0xbd9fd531	-0.07804335
43	0xbd258d6e	-0.04041808
44	0x39ef64aa	0.00045660633
45	0x3e32ffde	0.17480418
46	0xbca61804	-0.020275123
47	0x3da003e7	0.07813244
48	0xbe3576ee	-0.1772115
49	0x3e3dd2ec	0.18537492
50	0x3d3c28bb	0.04593728
51	0x3e2afe92	0.16698673
52	0xbda88b7d	-0.0822973
53	0xbdf88762	-0.12135197
54	0x3e8bf703	0.27336892
55	0xbe125583	-0.14290433
56	0xbdc6fcea	-0.09716208
57	0xbe41dd0e	-0.18931982
58	0x3df81d34	0.12114945
59	0xbdbdb7db	-0.09263583
60	0xbdc50494	-0.09620014
61	0x3d9a0bb7	0.07521766
62	0xbbb1eabd	-0.0054295943
63	0xbc6ae38e	-0.01433648
64	0xbe6580da	-0.22412434
65	0xbd416fec	-0.047225878
66	0xbdc8c181	-0.09802533
67	0xbe098753	-0.13430528
68	0x3d1f9d5f	0.03896844
69	0x3d237f7a	0.039916493
70	0xbe0cddcf	-0.13756488
71	0x3dadefb2	0.08492984
72	0x3d827b32	0.06371154
73	0xbe0009e2	-0.1250377
74	0x3d51c322	0.051211484
75	0x3d5b6c42	0.05357004
76	0xbdbb5cf1	-0.091485865
77	0x3db42268	0.08795625
78	0xbe3247fe	-0.17410275
79	0x3d1e782a	0.038688816
80	0x3e38db07	0.18052302
81	0xbd8ccb47	-0.068747096
82	0xbdbfaf04	-0.093595535
83	0x3d46e315	0.048556406
84	0x3e122787	0.14272891
85	0xbe2214fb	-0.15828316
86	0xbdae0a17	-0.08498018
87	0xbce6fbc6	-0.028196227
88	0xbdc9d236	-0.09854548
89	0x3e026733	0.1273468
90	0xbe16f2be	-0.14741036
91	0xbad4015f	-0.0016174725
92	0xbe138a10	-0.14408135
93	0x3d2dd8b2	0.042442985
94	0x3c9d65b2	0.019213531
95	0x3af0b8a2	0.0018365572
96	0xbde5a451	-0.112129815
97	0x3e179f19	0.14806785
98	0x3dc0803d	0.093994595
99	0x3dc0b63a	0.09409757
100	0xbd46ea9e	-0.048563592
101	0xbc9fed33	-0.019522285
102	0xbc8ad609	-0.016947763
103	0xbd95fa0d	-0.07323084
104	0x3a275999	0.00063838955
105	0xbcc2a2e3	-0.023759311
106	0x3d675473	0.05647702
107	0x3d08d92f	0.033410247
108	0xbc9abfc3	-0.018890267
109	0xbda2f098	-0.07956046
110	0xbdd5c484	-0.10437873
111	0xbd80d6b9	-0.06290955
112	0x3dab731e	0.08371566
113	0xbdb3430f	-0.08753025
114	0x3a64b63b	0.0008724664
115	0xbe458677	-0.19289576
116	0xbce82158	-0.028336212
117	0xbe5d9f9a	-0.21642914
118	0x3ca2e4e3	0.019884532
119	0xbc35aa63	-0.011087987
120	0x3e691e52	0.22765473
121	0xbe122b3e	-0.14274308
122	0xbc9bc980	-0.019016981
123	0x3dbaf6d9	0.09129114
124	0x3e10bd4a	0.14134708
125	0xbe228469	-0.15870823
126	0x3e699013	0.22808866
127	0xbd9b4f09	-0.07583434
128	0xbe00e207	-0.12586223
129	0xbd56d7db	-0.05245195
130	0xbd865307	-0.06558805
131	0x3e34c392	0.17652729
132	0x3ca95fd8	0.020675585
133	0x3ca1f487	0.01976992
134	0x3db38500	0.08765602
135	0x3d9ac266	0.0755661
136	0xbda59f00	-0.080869675
137	0x3e2a5a1b	0.16635935
138	0x3d16288f	0.036659773
139	0xbd935319	-0.07193584
140	0x3c80bfad	0.015716398
141	0xbdb084b8	-0.08619064
142	0x3d7a7797	0.061149206
143	0xbd151903	-0.036400806
144	0xbc88981d	-0.016674096
145	0x3cceb33b	0.025231948
146	0x3d585a81	0.052820686
147	0xbd90ccb0	-0.07070291
148	0xbe3cb86b	-0.18429725
149	0xbd0716d6	-0.032980762
150	0x3ddeb7f4	0.1087493
151	0x3e33a65d	0.17543931
152	0x3e1266d5	0.1429704
153	0x3df29e9b	0.11846658
154	0x3e03e8ce	0.12881777
155	0xbe605ebe	-0.21911141
156	0x3e006518	0.12538564
157	0xbd2bcd52	-0.041943856
158	0x3dbc9e85	0.09209923
159	0xbe0a9a4a	-0.13535419
160	0x3de5b875	0.11216823
161	0xbda86c5a	-0.082237914
162	0x3dd9dfaf	0.106383674
163	0x3c7f3aae	0.015577955
164	0xbe127e5c	-0.14306015
165	0xbde618df	-0.112352125
166	0x3e0a7f24	0.13525063
167	0x3e1fbc11	0.15599085
168	0xbe136a41	-0.14396001
169	0xbd37bf42	-0.044860132
170	0x3bde28bc	0.0067797583
171	0xbe5e7e2e	-0.21727821
172	0xbc67edc3	-0.014155808
173	0xbbb30a99	-0.00546391
174	0x3e12ef81	0.14349176
175	0x3db51253	0.08841386
176	0xbe038700	-0.12844467
177	0xbd332fe4	-0.043746844
178	0x3d7187c3	0.058967363
179	0xbdc13a6e	-0.09434973
180	0xbde294d7	-0.11063545
181	0xbcb025f6	-0.021502476
182	0xbd9c175a	-0.076216415
183	0xbda506a6	-0.08057909
184	0x3e16debc	0.14733404
185	0xbcffd50c	-0.031229518
186	0xbe6ad9b4	-0.2293461
187	0x3d817434	0.06320992
188	0xbd835992	-0.064135686
189	0xbda4ffd2	-0.08056606
190	0x3d3a77f6	0.04552456
191	0xbdb73453	-0.08945527
192	0xbd883470	-0.06650627
193	0xbd861ab8	-0.06548065
194	0xbccd2791	-0.02504328
195	0x3e99df36	0.3005311
196	0x3c2660fc	0.010154959
197	0xbe0a1a09	-0.13486494
198	0xbcb9adda	-0.022665907
199	0x3e0d948f	0.13826202
200	0x3d1a17ac	0.03762023
201	0x3cdfdf6e	0.02732822
202	0x3e0a693d	0.13516708
203	0xbe0c61bd	-0.13709159
204	0xbdea3823	-0.114364885
205	0x3db47866	0.08812027
206	0x3cace65f	0.021105943
207	0xbcbaead4	-0.022817053
208	0x3c7b7bac	0.01534931
209	0xbd15dcbb	-0.036587458
210	0x3e16c7f9	0.14724721
211	0xbe0c2275	-0.1368502
212	0x3db769ad	0.08955703
213	0x3b12e570	0.0022414587
214	0x3d987c6c	0.074456066
215	0xbdb48b10	-0.088155866
216	0xbe06f898	-0.13180768
217	0xbd01988b	-0.031639617
218	0x3db935c9	0.09043462
219	0xbe18ffc2	-0.14941314
220	0x3cd2a5d5	0.02571384
221	0xbb8f7691	-0.004378148
222	0x3db4541d	0.08805106
223	0xbe3b087c	-0.18264955
224	0xbc0f64c2	-0.00875205
225	0xbd3f6e4b	-0.046736043
226	0x3d00f6e7	0.031485464
227	0xbde14c42	-0.11000873
228	0x3dc349d6	0.095355675
229	0x3d011757	0.0315164
230	0x3d1768b7	0.0369651
231	0xbd96400e	-0.07336436
232	0xbe04f3fb	-0.12983696
233	0x3d2418fd	0.040062893
234	0x3ccdb3b3	0.025110101
235	0xbcdd2b70	-0.026998252
236	0xbd21601f	-0.03939831
237	0x3d9229be	0.07136868
238	0x3e15840c	0.14601153
239	0x3db522dd	0.0884454
240	0xbe179742	-0.14803794
241	0xbd7af7fa	-0.061271645
242	0x3d83f6fc	0.06443593
243	0xbde0910c	-0.109651655
244	0xbd8839b0	-0.06651628
245	0xbdbcd307	-0.09219938
246	0xbd1dd0f1	-0.03852934
247	0x3e5321ed	0.2061841
248	0xbe26db61	-0.16294624
249	0xbcaf09b4	-0.021366931
250	0x3dff811a	0.12475796
251	0x3ce3054a	0.027712483
252	0xbddd06d6	-0.107923195
253	0x3cb9728c	0.022637628
254	0x3d8319c1	0.064013965
255	0x3c997eee	0.018737283

sequential/dense_1/BiasAdd/ReadVariableOp:0 f4 [100]
0	0x3d63cdc2	0.055616148
1	0x3e56fd85	0.20995148
2	0xbe39502d	-0.18096991
3	0xbd2e1152	-0.042496987
4	0xbda56ccd	-0.08077393
5	0xbd6da5a5	-0.0580193
6	0xbd8b79cc	-0.0681034
7	0xbe607452	-0.21919373
8	0xbdae5da3	-0.085139535
9	0x3b6b3734	0.0035891058
10	0xbe43d025	-0.1912237
11	0x3cabe037	0.020980937
12	0xbe90d9b5	-0.28291097
13	0xbd400cf3	-0.04688735
14	0x3e4f4241	0.20240118
15	0xbd599c54	-0.0531276
16	0xbd4eb96b	-0.050469797
17	0xbd7daad1	-0.06193048
18	0xbda2c7c4	-0.079482585
19	0x3dad6990	0.084674
20	0xbe5e9dc5	-0.21739872
21	0xbca6a4ea	-0.020342309
22	0x3db73483	0.08945563
23	0xbcddf7c7	-0.027095689
24	0xbd6816c7	-0.056662347
25	0xbcc35b26	-0.023847174
26	0x3d90a8dc	0.07063457
27	0xbd35227f	-0.04422235
28	0xbd0a516d	-0.03376906
29	0xbd886ea3	-0.06661727
30	0xbe13870f	-0.1440699
31	0xbd01bbaa	-0.03167311
32	0xbe1bad55	-0.1520284
33	0xbe7b4066	-0.24536285
34	0xbcae5726	-0.02128179
35	0x3e4fd5ca	0.20296398
36	0xbcb6f1a9	-0.02233203
37	0x3d806c56	0.062706634
38	0xbc86cbab	-0.016454538
39	0xbd70aec6	-0.058760427
40	0xbd120212	-0.035646506
41	0xbd8a77ee	-0.06761156
42	0xbd3a0b50	-0.045420945
43	0xbe9a8cb0	-0.3018546
44	0xbcbcf0f0	-0.023064107
45	0xbe609db2	-0.21935156
46	0xbd31a9bc	-0.043374762
47	0x3e8a22c6	0.26979655
48	0xbd652b89	-0.05594972
49	0xbd960d52	-0.073267594
50	0xbcd4bf52	-0.025970135
51	0xbd549571	-0.05190033
52	0xbd77a399	-0.060458753
53	0xbef0c5df	-0.47025964
54	0x3d90dd72	0.07073487
55	0xbd3bcf9f	-0.0458523
56	0xbea17fca	-0.31542808
57	0xbda5bb86	-0.08092408
58	0xbe81f687	-0.25383398
59	0xbda37661	-0.07981563
60	0xbe18ff26	-0.14941081
61	0xbd3d4245	-0.046205778
62	0x3e003322	0.12519506
63	0xbe642810	-0.22280908
64	0xbd79a2cb	-0.060946267
65	0xbd70e766	-0.05881443
66	0x3da2ba84	0.07945731
67	0x3dbf9257	0.09354084
68	0xbea6a4d9	-0.32547644
69	0x3de48815	0.11158768
70	0xbddb192a	-0.10698159
71	0xbe918c54	-0.28427374
72	0xbe64cc9b	-0.22343676
73	0xbd6a2ca0	-0.057171464
74	0x3deb535b	0.11490508
75	0xbd97f17b	-0.074191056
76	0xbd1d1419	-0.038349245
77	0x3dc8a7f2	0.09797658
78	0xbef1d5f6	-0.47233552
79	0x3e0b9f58	0.13635004
80	0x3e50b960	0.20383215
81	0x3a6be523	0.00089986826
82	0xbd3d4977	-0.04621264
83	0xbd01d809	-0.031700168
84	0xbd014e2e	-0.0315687
85	0xbda23d5c	-0.079218596
86	0x3d7cb9d6	0.061700664
87	0xbae24bce	-0.0017265023
88	0x3dd47b99	0.10375137
89	0xbe93ffe0	-0.28906155
90	0xbe865b40	-0.26241493
91	0xbd327c01	-0.04357529
92	0xbd2f4655	-0.042791683
93	0xbd009cd0	-0.031399548
94	0xbd620920	-0.055184484
95	0xbcf3ecca	-0.029775996
96	0x3d28285e	0.041054122
97	0xbdb6aeca	-0.08920057
98	0xbd7cf12a	-0.06175343
99	0xbdc1d2d4	-0.094640404

sequential/dense/MatMul/ReadVariableOp:0 f4 [7, 100]
0	0xbdb58bd5	-0.088645615
1	0xbdc0acb4	-0.094079405
2	0xbdb724c0	-0.089425564
3	0x3d593971	0.053033296
4	0xbe917342	-0.28408247
5	0xbe8a050a	-0.2695697
6	0xbe4f3778	-0.20236003
7	0x3e5a7731	0.2133453
8	0x3c841e44	0.016127713
9	0xbdc0f8ef	-0.0942248
10	0x3dbbb1cc	0.091647714
11	0xbdad76b9	-0.0846991
12	0xbd564dbd	-0.05232023
13	0xbea0480e	-0.31304973
14	0xbe879355	-0.26479593
15	0xbe162f3c	-0.14666456
16	0xbe3f9bcb	-0.18711774
17	0x3c8ac2cd	0.016938591
18	0x3e145117	0.14484058
19	0xbd8488e9	-0.06471426
20	0xbd84b26d	-0.064793445
21	0x3d933f45	0.07189802
22	0x3d37aa56	0.04484018
23	0xbe926062	-0.2858916
24	0xbce88f26	-0.028388571
25	0x3ccb4223	0.02481181
26	0x3e2f9862	0.17147973
27	0x3e4dd82b	0.20101993
28	0xbe030678	-0.12795436
29	0xbe654270	-0.22388625
30	0x3d7b1566	0.061299704
31	0xbcdfce75	-0.027320126
32	0x3e2e31e8	0.17011225
33	0xbca93a0e	-0.020657565
34	0xbe9d0afb	-0.3067244
35	0xbe29d7e9	-0.1658627
36	0xbe359154	-0.1773122
37	0x3ebe7e6f	0.37205836
38	0x3edf9037	0.43664715
39	0xbe6091a4	-0.21930557
40	0x3adb00f8	0.0016708663
41	0x3e404c0a	0.18779007
42	0xbe1dd62d	-0.15413733
43	0x3c1dde36	0.009635499
44	0x3ccdf582	0.025141481
45	0x3d252ec5	0.040327806
46	0xbe94f6b9	-0.29094484
47	0x3d8a1a8c	0.06743345
48	0xbcd77f79	-0.0263059
49	0xbe8c298a	-0.27375442
50	0x3d85ad2b	0.0652717
51	0xbe7f0aeb	-0.24906509
52	0xbe53cb9b	-0.20683138
53	0xbeed3db6	-0.46336144
54	0xbdaf678f	-0.08564674
55	0x3eb898f5	0.36054197
56	0xbbdde7d3	-0.0067720204
57	0x3e85e972	0.26154667
58	0xbde85417	-0.11344164
59	0xbe2069f6	-0.15665421
60	0x3edf1aa9	0.43575028
61	0x3d0f9fc7	0.035064485
62	0xbcce4252	-0.025178108
63	0x3d644608	0.05573085
64	0x3e24693b	0.16055767
65	0xbcaa04ed	-0.020754302
66	0x3ea74537	0.32669994
67	0xbe4c8913	-0.19974165
68	0xbd78300e	-0.060592704
69	0xbf0de092	-0.5542079
70	0x3e14d88c	0.14535731
71	0x3e3683ed	0.17823763
72	0xbd1a8456	-0.03772386
73	0xbed44211	-0.41456655
74	0xbecaee1e	-0.39634794
75	0xbe238a60	-0.15970755
76	0xbe160383	-0.14649777
77	0x3e44d327	0.19221173
78	0x3eb371ec	0.35047853
79	0xbec02322	-0.37526804
80	0xbe30bb2c	-0.172589
81	0x3ddaeb02	0.106893554
82	0x3ab0667c	0.0013458277
83	0xbe2a408d	-0.16626187
84	0xbe0106e1	-0.1260028
85	0xbe4e7e40	-0.20165348
86	0xbe1c49c3	-0.15262513
87	0xbd59b3c6	-0.05314996
88	0xbe08a780	-0.13345146
89	0x3d40e872	0.047096677
90	0xbe9cfc3f	-0.30661198
91	0x3d637c9e	0.055538766
92	0x3e9c9f70	0.3059039
93	0xbe1215c7	-0.1426612
94	0x3d27cfc0	0.04096961
95	0x3d039b4a	0.032130517
96	0xbe3ad3f6	-0.18244919
97	0xbd9d11d8	-0.07669419
98	0x3e02e694	0.12783271
99	0x3dea610d	0.11444292
100	0x3d9fbdd0	0.07799876
101	0xbe9fceb0	-0.31212378
102	0xbda6fd22	-0.0815375
103	0xbe07a3fb	-0.13246147
104	0xbec2862f	-0.37993
105	0x3d8d223a	0.06891294
106	0xbed34c63	-0.41269216
107	0x3e3eb6dd	0.18624444
108	0x3ea9c222	0.33155924
109	0x3eee7366	0.46572417
110	0xbda58892	-0.08082689
111	0xbd8ade24	-0.06780651
112	0xbcab63bf	-0.020921586
113	0x3d71267c	0.058874592
114	0xbda15f4f	-0.07879507
115	0xbe906986	-0.28205508
116	0xbdbc4a64	-0.091938764
117	0xbe154fea	-0.14581266
118	0xbda8056b	-0.082041584
119	0x3e1181a2	0.14209607
120	0xbd936690	-0.071972966
121	0x3e65fff1	0.22460915
122	0x3e46dd15	0.19420274
123	0x3e30f9c8	0.17282784
124	0xbe44b040	-0.19207859
125	0x3dcc1aae	0.09966026
126	0xbe641232	-0.22272566
127	0xbdbb46d4	-0.09144369
128	0xbd6e648b	-0.058201354
129	0xbe250ebe	-0.16118905
130	0xbd166781	-0.036719803
131	0xbe436e64	-0.1908508
132	0x3ef431d0	0.47694254
133	0x3d365477	0.044514146
134	0xb99a78a4	-0.00029463053
135	0xbe26196d	-0.16220637
136	0xbe3afe72	-0.18261126
137	0x3cb7d733	0.022441482
138	0xbf05c2fa	-0.52250636
139	0x3d989ecf	0.07452165
140	0xbd9b1447	-0.07572227
141	0xbd0cdbea	-0.034389414
142	0xbe47875c	-0.19485229
143	0xbe1769c5	-0.14786442
144	0xbdb71e28	-0.08941299
145	0x3e8a352a	0.26993686
146	0xbe019211	-0.12653376
147	0x3cc3fbf9	0.02392386
148	0xbe3a36f8	-0.18185031
149	0x3ecb510a	0.39710265
150	0x3ebe9c93	0.37228832
151	0x3d15ef7b	0.03660534
152	0xbe728cb4	-0.23686486
153	0xbcee4ed7	-0.029090328
154	0x3e033df5	0.12816603
155	0xbee4a2d3	-0.44655475
156	0xbc610bcd	-0.013735724
157	0xbf08d3ad	-0.5344799
158	0xbe8abc66	-0.27096862
159	0x3d4a77da	0.049430706
160	0xbe258cc9	-0.16166987
161	0xbeabb401	-0.3353577
162	0x3dcaf3eb	0.09909805
163	0x3d6488e5	0.055794615
164	0x3d8d7030	0.06906164
165	0x3d6fc666	0.058538817
166	0x3d9aa36f	0.07550704
167	0xbe24fe0b	-0.16112535
168	0xbdf0aa9d	-0.11751292
169	0x3ec14e69	0.37755135
170	0x3e18e851	0.14932372
171	0x3b96e407	0.0046048197
172	0x3f1ea33d	0.6196783
173	0xbed8ed9f	-0.4236879
174	0x3e9ff56f	0.31241938
175	0x3ef7d6c4	0.4840604
176	0xbd4a5804	-0.049400344
177	0xbe416b82	-0.18888667
178	0xbeb331c6	-0.34998912
179	0x3d96f170	0.07370269
180	0x3e22d1b6	0.15900311
181	0xbcea27f0	-0.028583497
182	0x3e43daa9	0.19126381
183	0xbe2af01a	-0.16693154
184	0xbe8be215	-0.27320924
185	0x3f1632a0	0.58671
186	0x3de5416a	0.11194117
187	0xbc60324a	-0.013683865
188	0xbde4dc8d	-0.11174879
189	0x3ea43e88	0.32078958
190	0xbe894208	-0.2680819
191	0x3e0d55bb	0.13802235
192	0xbf002643	-0.5005838
193	0xbd9a3b3f	-0.075308315
194	0x3cfa1c5c	0.0305311
195	0x3e531c82	0.20616344
196	0xbeef3e75	-0.46727338
197	0xbde91355	-0.113806404
198	0xbe2e84e9	-0.17042889
199	0xbcc51900	-0.024059772
200	0xbde36125	-0.11102513
201	0x3e09c557	0.13454185
202	0xbe9ed192	-0.31019264
203	0x3e903649	0.28166416
204	0x3e5eff16	0.21776995
205	0x3dfe5854	0.12419191
206	0x3e4eabc5	0.20182712
207	0xbe78e904	-0.24307638
208	0x3ce2d617	0.027689977
209	0x3d3e57a3	0.046470296
210	0x3d6e00ef	0.05810636
211	0x3c342cf0	0.010997042
212	0x3e07d9d9	0.13266696
213	0x3e8a5caa	0.27023822
214	0xbc38ac22	-0.011271508
215	0xbd9ee88d	-0.07759199
216	0x3e17d210	0.14826226
217	0x3ea132f4	0.31484187
218	0x3e471e8b	0.19445245
219	0x3e420c72	0.1895006
220	0x3e3170bf	0.17328165
221	0x3d3519cf	0.044214066
222	0x3d9aa1fe	0.07550429
223	0xbe53d71d	-0.20687528
224	0xbdfb2997	-0.12263792
225	0xbf032468	-0.51227427
226	0xbddd3110	-0.108003736
227	0xbe83a46d	-0.25711384
228	0xbdcbf4da	-0.09958811
229	0x3e165c0e	0.14683554
230	0x3c87dfbe	0.01658618
231	0x3c29eac9	0.010370919
232	0xbd715d2e	-0.058926754
233	0x3e5546c8	0.20827782
234	0x3ca9a907	0.020710481
235	0xbd21b8db	-0.039482933
236	0x3e41dcf6	0.18931946
237	0x3df6caf9	0.12050433
238	0x3c816604	0.015795715
239	0xbcb53d9d	-0.022124106
240	0xbd14e7bd	-0.036353815
241	0xbce54e6d	-0.027991498
242	0xbd8daaaa	-0.06917317
243	0xbe96a200	-0.2942047
244	0xbca8c3fc	-0.020601265
245	0xbcedc89a	-0.029026318
246	0xbe8f927d	-0.2804145
247	0xbdafdb1d	-0.085867144
248	0xbe199f33	-0.15002136
249	0x3db90942	0.09034969
250	0xbeb9ad71	-0.36265138
251	0xbdb708a0	-0.08937192
252	0xbdd378b0	-0.10325754
253	0x3cea399d	0.028591925
254	0xbe54965f	-0.20760487
255	0xbd0516b1	-0.032492343
