root/tmva/sofie/input_models/highlo_rnn_model.onnx (onnx, 38500 bytes, 8 tensors)

sequential/simple_rnn/zeros:0 f4 [1, 12]
00000000: 0000 0000 0000 0000 0000 0000 0000 0000
00000010: 0000 0000 0000 0000 0000 0000 0000 0000
00000020: 0000 0000 0000 0000 0000 0000 0000 0000
0.0 0.0 0.0 0.0 0.0 0.0 0.0 0.0
0.0 0.0 0.0 0.0

sequential/simple_rnn/simple_rnn_cell/MatMul_1/ReadVariableOp/resource:0 f4 [12, 12]
00000000: f795 533d 2605 bc3e 1173 0f3e 90bf 6cbc
00000010: 5cc0 663e 75f3 19be 40b0 19be 2301 b93d
00000020: 6f4c 1d3e 133c 3abe 50aa a7be b9be 44bf
00000030: ff3f 13be 99f2 7abe 3f6d 493d c895 8d3e
00000040: 50e4 1cbf d430 e1bd c854 13bf 522a ffbd
00000050: 5483 1fbe e435 693d fd05 613e 22dc 83be
00000060: bb82 f33d c03b a2be b975 02be 6132 84be
00000070: f601 a6be c63c ce3c 6d77 ce3d b4de c1be
00000080: 4e5a ae3e e5b7 16bf b431 1bbe c7ac 863d
00000090: 01c8 8ebd 5512 2bbf d748 963d d3d1 f63d
000000a0: a2fc 8d3e d161 b23d 9fe0 463d 1fea b03e
000000b0: 4b22 4d3e 898a 97bd 396c e8bd 7ae9 97be
000000c0: 26af e5be 5390 79bc dde8 e83e a510 4dbd
000000d0: 4947 babe f29c 4e3e ee59 153f 7758 ab3e
000000e0: ba12 d63d d0a6 083e 53ed a23e 2589 83be
000000f0: 85bd 87be 7715 d2bd aaf9 f4be 1224 4cbe
00000100: af50 88be 6624 cb3e 283a 333e 0ff4 5f3e
00000110: bc7b 53bd a9ae ce3e 6514 1abf 54bf 80bd
00000120: d26c 353e db80 733e ccb8 5a3e 3bc0 703e
00000130: eddf 46bb b29d 2c3f b950 9ebe 3bd5 b83e
00000140: fb10 9a3e 32cb 79be 09e5 77bc 1630 473e
00000150: 7cfe 25be 0c27 333e 5a29 97be 2c3b 193e
00000160: d118 2abe abdd 90be c726 8e3d 6302 1c3f
00000170: 7167 88be 6119 06bf 219f 1dbd 480a 613e
00000180: 9643 d6be 7e48 ab3d 2cde 9b3c bce7 2b3e
00000190: 1c34 353e acc8 cd3e 3d37 b43d d1e3 edbe
000001a0: ef71 f4be 96cc aebe 89c2 96bd 34a8 09bc
000001b0: 97be 31bf c63e 2abd 1918 943e 620e af3d
000001c0: 70e4 313e dbcb 51be 010e 19be b43d b4bd
000001d0: f468 843e 0bbb b73d 9ed8 c4be 7d89 c63e
000001e0: c29f 813e 33a3 fe3d 9f0b f33d 82bf 233f
000001f0: 6bce 66be 861a 01be c1f9 cd3e d1bf 3fbe
00000200: ff7b 483e 31d2 953d 8bf7 ccbe 4e0a 56bd
00000210: c53e aa3e 5056 8bbe 4977 073f adb4 a1bd
00000220: a423 c9bd 9169 b43c dbf5 853d cc5d d83d
00000230: 1a21 19bf bbe7 c93b c3be 7cbe addf 253e
0.05165669 0.36722678 0.14008738 -0.014449969 0.22534317 -0.15034278 -0.1500864 0.0903342
0.15361188 -0.18186979 -0.32747126 -0.7685352 -0.14379881 -0.24506606 0.04917645 0.27653337
-0.6128588 -0.10995641 -0.5755124 -0.12459244 -0.15577441 0.05693616 0.2197494 -0.25753886
0.11890169 -0.3168621 -0.1274022 -0.25819686 -0.3242337 0.025175463 0.100813724 -0.37865222
0.34053272 -0.5887435 -0.15155679 0.065759234 -0.069717415 -0.6682485 0.07338112 0.120517395
0.27731806 0.08710063 0.04855406 0.3455362 0.20032613 -0.0739947 -0.11348767 -0.29670316
-0.4486019 -0.0152321635 0.4549016 -0.0500647 -0.3638251 0.20177057 0.58340347 0.3346593
0.104527906 0.13344884 0.3182169 -0.2569057 -0.2651178 -0.10258 -0.4784673 -0.19935635
-0.26624057 0.39676207 0.17502654 0.21870445 -0.051631674 0.4036763 -0.6018737 -0.06286493
0.17717293 0.23779623 0.21359557 0.2351083 -0.0030345873 0.67428124 -0.30920961 0.36100182
0.3009108 -0.24393919 -0.01513029 0.19451937 -0.1621036 0.17495364 -0.29523736 0.14963979
-0.16611029 -0.2829412 0.0694099 0.6094114 -0.2664142 -0.52382475 -0.038481835 0.21976578
-0.4184844 0.08363436 0.019026838 0.16787618 0.1769566 0.40192163 0.08799598 -0.46462873
-0.47743174 -0.34140462 -0.073613234 -0.008401919 -0.6943144 -0.04156377 0.28924635 0.08547665
0.17372298 -0.20487921 -0.14946748 -0.088008314 0.25861323 0.089712225 -0.38446516 0.3877677
0.25317198 0.124334715 0.11867451 0.6396409 -0.2253968 -0.12607774 0.4022961 -0.18725516
0.19578551 0.073154815 -0.4003261 -0.05225592 0.33251014 -0.2721429 0.5291639 -0.07895789
-0.09821251 0.022022994 0.06541034 0.10564765 -0.59816134 0.0061616576 -0.24682145 0.16198607

sequential/simple_rnn/simple_rnn_cell/MatMul/ReadVariableOp/resource:0 f4 [1, 12]
00000000: 077a 603e b744 02bf 3282 0cbd 065c 163f
00000010: e2e2 c33e 4996 323f 0a33 753e e477 f23e
00000020: aeb6 28bf 24e2 cb3e f9d5 883d c65f 543e
0.2192155 -0.508861 -0.03430385 0.58734167 0.38259035 0.69760567 0.23945251 0.47357094
-0.6590375 0.3982097 0.06681437 0.2073966

sequential/simple_rnn/simple_rnn_cell/BiasAdd/ReadVariableOp/resource:0 f4 [12]
00000000: 170c da3b cffe 773d 3901 053c 192d 7dbd
00000010: ad3e a6bd ccb7 98bc 0ef5 9cbd ea63 aebc
00000020: e77d 19bc ac25 d03b 1069 49bd 8584 91bc
0.0066542733 0.06054574 0.008117967 -0.061810587 -0.08117423 -0.018642329 -0.07663928 -0.021287877
-0.009368396 0.006352147 -0.04917246 -0.017763386

sequential/dense_1/MatMul/ReadVariableOp:0 f4 [64, 2]
00000000: c359 903e 33c9 923e 3dea bcbc da5f 103e
00000010: fb9a 80be 0cae 053e b626 4e3e c8fa 11bd
00000020: f97f 81be 4263 dc3e bc1e 0abe 3bb6 a2be
00000030: f6da 793e a721 1b3e 3a71 693e f379 9dbe
00000040: 7964 7e3e 0a63 a93d f850 4b3c 51d3 963d
00000050: 5ba0 debe 9613 323f 3c4f 623e 16d6 673e
00000060: 73be 853e 0064 8abd bc83 27be 820f 29bb
00000070: d1b9 033e 299a c1be f209 793e 37c4 75be
00000080: 4812 27be b1cd 1a3d 7e38 8a3e 0fc7 77be
00000090: b845 243d b3cd 8a3d 0ba0 4b3d 10a3 603d
000000a0: 8b68 903e 0440 f33d ebcd 633e 6032 8e3d
000000b0: 6741 9e3d baf5 1dbe 2b4f b33e 9b91 1abe
000000c0: 90ea cbbe c126 9a3e c956 c73a cfe9 283e
000000d0: 3cfc 963e 6d98 17bc 61dc a4be 3768 e33d
000000e0: 86dd 17bf fbf2 2f3e b929 7b3e 4ad0 933d
000000f0: ef42 653e 05dd e0bd ac64 57bd 468f 50bd
00000100: 5813 583e aacc 9fbd da9e 193e 1c38 6c3e
00000110: 4d07 ccbd 2837 2c3e f2a9 113c e6e3 e2bd
00000120: 287e 743e 25db 23be fd46 88bd 94b7 86bd
00000130: ac58 76be bbfb 93be 8992 9bbd e814 90be
00000140: 88c7 8fbd 053c 333e 0ecd 9a3d 7c8f e9ba
00000150: bbd5 52be 69b2 8d3e 3e32 17bd 556c 5c3e
00000160: ba4e 9bbd 8c60 bf3d 1a5a 733e 68c9 48be
00000170: b6c1 1bbe e984 1fbd 3293 623e fe8b 11be
00000180: 42cb 973e 2544 8cbe 6f0c 1a3e 5427 fd3d
00000190: 05ff 623e 3b27 89be aff6 473e 55b1 0c3e
000001a0: 1a53 0cbe 682d 763d bd82 44bd 3215 8abd
000001b0: 3b7a 9bbe 9416 bc3e ba29 67be e245 9f3d
000001c0: 0d69 95bd a2df 653e 75ce fdbd c3f6 343e
000001d0: f2ee 4abe d305 57be 601e 5c3e 9ecf a13d
000001e0: f0af 9cbe dedb debc 9145 a63e 552f 88bd
000001f0: adb7 e0bd 225a 733e 3321 b2bd 385a 8d3d
0.28193483 0.28669128 -0.023060912 0.14099064 -0.2511824 0.13054675 0.20131955 -0.035639554
-0.25292948 0.43044478 -0.13488287 -0.31779656 0.24399933 0.15149556 0.22797099 -0.30757102
0.24843015 0.08270843 0.012409441 0.07364524 -0.43481717 0.69561136 0.22100538 0.22640261
0.26121864 -0.06757355 -0.16358846 -0.0025796597 0.12863852 -0.37812927 0.243202 -0.24000631
-0.16315567 0.03779382 0.26996225 -0.24197029 0.04010555 0.06777515 0.049713176 0.05484301
0.2820476 0.118774444 0.2224652 0.06943202 0.07727318 -0.15425768 0.35021338 -0.15094607
-0.39827394 0.30107692 0.0015208359 0.16495441 0.29489315 -0.00925265 -0.32199386 0.11103862
-0.5932239 0.17182533 0.24527635 0.07217462 0.22388814 -0.10979656 -0.052586243 -0.050917886
0.21101129 -0.078027084 0.15002003 0.23068279 -0.0996233 0.16817915 0.008890616 -0.110786244
0.2387625 -0.16001566 -0.06654165 -0.065779835 -0.24057263 -0.28902993 -0.07596309 -0.2814095
-0.070204794 0.17503364 0.07558642 -0.0017819251 -0.20589344 0.2767518 -0.03691315 0.215257
-0.07583375 0.09344587 0.2376484 -0.1960808 -0.15210614 -0.038945112 0.22126463 -0.14213559
0.2964726 -0.2739574 0.15043806 0.12361017 0.22167595 -0.26787743 0.19527696 0.13739522
-0.13703576 0.060101897 -0.047976244 -0.06742324 -0.30366692 0.36735976 -0.22574511 0.07777001
-0.072954275 0.2244859 -0.12392894 0.17672257 -0.19817713 -0.20998316 0.21495962 0.07900928
-0.3060298 -0.02720445 0.3247495 -0.06649653 -0.109725334 0.23764852 -0.086977385 0.069019735

sequential/dense_1/BiasAdd/ReadVariableOp:0 f4 [2]
00000000: e645 96bc b74c 563c
-0.018343877 0.013079814

sequential/dense/MatMul/ReadVariableOp:0 f4 [120, 64]
00000000: 6a04 c5bd 0c47 35bd 3689 8bbd d490 6bbd
00000010: 13b5 ab3d e7bd 3abe b855 37bd 4942 d5bd
00000020: 50d8 bcbc 8f66 96bd 1d4a e13c 8a28 18be
00000030: 7f1e bdbd fca9 123b b524 42be ef31 9cbe
00000040: 7cb5 f2bd ae92 aa3d 12ff 10bd 5935 3d3e
00000050: 08ad a13c bf8b d33d adf3 d6bd 5c2a 9cbe
00000060: 7b91 703e e63d e83d 0a7c 99bd b539 1abd
00000070: 9021 93bd 9b4b d7bc 070a 1b3d ba21 5a3d
00000080: 751c 30be 1ad6 993d 7bad b43c 2c7a 763c
00000090: a440 49be efec a83c 765e 853d 3f3f 52bd
000000a0: 7559 363e 6199 44be c1d4 8dbd dc9e b23d
000000b0: 9d86 5d3d 3346 b2bd 3847 173e 6724 ebbd
000000c0: 921e eebc 5bf2 753d 6180 0fbe 01cd 1abe
000000d0: 96f5 4a3b 4888 e73d 8fcc 0fbe 8d92 0a3e
000000e0: 38bb 763e 9811 b53d 834f afbd 4ca8 8c3d
000000f0: 565b f63d f6d0 aabe 48ec b33d 1c9e afbd
00000100: 0e95 6a3d 29b3 153e 9196 4abe 98d1 213e
00000110: 0dbf 0ebd f2d5 233e 516b 7b3d 211a 11bb
00000120: d8d0 1a3e 7a1a 92bc 998a 2ebe e43b c73d
00000130: 9650 0cbe ddec 2abd 587e 2c3e 9afb af3d
00000140: 1808 0cbe ee98 2e3e 3b1a a7bc 853e 14be
00000150: 4651 e9bd cb12 babc 4707 4a3e 5958 a3bd
00000160: 11f5 203a 9a97 043d 7215 cf3d becd 373c
00000170: 1038 63be 3a6c 06be 68f2 943c 22ea 12be
00000180: 1fea 413e 73e2 0cbe 600d 5b3e 9d1c fe3d
00000190: 31ab f63d ab76 f2bc ccf1 0abc 5942 213e
000001a0: 62a5 3abe f273 443d 81c0 17be abb5 bd3d
000001b0: 7549 0cbe cf03 d13d 8b87 1bbe dc93 ca3d
000001c0: 20eb f03b 4192 3a3e 9fe0 ab3d 0332 0a3e
000001d0: 2524 d1bd e373 053e 3581 c8bd 1702 28be
000001e0: d354 49be 71cb 13be a2a6 22b9 f0a3 ae3d
000001f0: e04c 763e d469 643e 1afa dfbd 3ea2 6bbd
00000200: bb13 33bd c1e6 0a3e 9cd7 a23c 4661 15be
00000210: f6db 3c3d f4c6 5a3d d456 163e 391b e93d
00000220: b3e3 b0bd 8bcb 8e3d c50e 63bd 781c c93c
00000230: d5df 283e 9788 373e 83f3 3bbe f30c 04be
00000240: 629c adbd 864b 58bd 1a06 e43d df82 cc3d
00000250: c8c0 733d 6715 50be 6510 e93d 2578 76be
00000260: 8654 053e ba8e 14be 395f e6bd 1ce3 13be
00000270: f345 8dbe 3cc9 01be e301 0e3e 913a fb3d
00000280: 79e5 82bc 31f2 d0bd 1861 dcbc cb9d 503d
00000290: 3f70 12be bbc7 3cbe 98e2 b5bd 02d2 94bd
000002a0: 5e9c a23d dbf6 053e 0987 2f3e 138c ef3d
000002b0: fae8 203d edbb db3d 10e9 483d da9e e7bd
000002c0: 813d 8a3d 84fc a53d d6bf d03d 1694 093d
000002d0: 8799 32bb a479 8cbd 757e 9c3c 3cf0 c13b
000002e0: c124 363e 84ec 4f3e 1cbc 023e 39d5 dd3d
000002f0: 4ea0 da3d 0b00 3a3d 4a2d 3cbe 6a30 473e
00000300: 9268 f33d d1bb 0ebd f101 233d a4a5 4dbe
00000310: 61e3 1c3e 08e7 943c 0ddf 203e 9c1c 68be
00000320: 2b5f 6b3d 2ab9 9abd 278c b13d 5989 783d
00000330: 697c be3c 7427 9e3d e028 2bbe a675 ff3c
00000340: 167b 173e cb24 88bc 2525 013e 5d39 163b
00000350: 1419 e9bc 9bfc e1bd efaa 1abe 8e79 253c
00000360: 3de3 20bd 195a fc3d 9c84 8dbd 699f 573e
00000370: f971 193d 4d50 54be 0c10 063c d4c3 763d
00000380: 0ed3 be3c 010e 9cba 1981 e3bd cdc9 8c3d
00000390: 2330 0cbe e81b e5bd ce96 b5bd 9546 0ebe
000003a0: 1cd4 643e 6c87 3abe 0c14 26bd c826 4b3d
000003b0: ac4f 08be 1971 9bbd 0fa7 c83d 4209 11be
000003c0: daba acbc 3f1b 03be 8d91 023d 88f9 96bd
000003d0: fe5b 06be a6e5 093e 9ea4 233e f50e 393e
000003e0: 31f2 243e bdff cfbd 15cb 0fbd aad6 f2bd
000003f0: dea3 ddbd d60f 88be 1186 363e 31a2 fcbd
-0.096199825 -0.04425721 -0.0681328 -0.057511166 0.083841465 -0.18236504 -0.044759482 -0.104130335
-0.023052365 -0.0734378 0.02750116 -0.14859214 -0.09234332 0.002237915 -0.18959315 -0.30506846
-0.11851022 0.08328758 -0.035399504 0.18477382 0.019735828 0.10329389 -0.10495696 -0.30501068
0.23492996 0.11339931 -0.07494362 -0.03765269 -0.07184136 -0.026281169 0.03785136 0.05325482
-0.17198355 0.0751154 0.022055378 0.0150437765 -0.19653565 0.020620791 0.065121576 -0.051329847
0.17807563 -0.19199134 -0.06925345 0.08721706 0.054083455 -0.08704796 0.14773262 -0.114815526
-0.029067311 0.06004558 -0.14013816 -0.15117265 0.0030969135 0.113052905 -0.14042877 0.13532467
0.24094856 0.08841246 -0.085600875 0.068680376 0.1202914 -0.3336255 0.087853014 -0.08575079
0.057271056 0.14619125 -0.19783999 0.1580261 -0.03485017 0.15999582 0.06138164 -0.0022140818
0.1511873 -0.01783489 -0.17045058 0.0972822 -0.13702616 -0.041729797 0.16845071 0.08592911
-0.13674963 0.17050526 -0.02039825 -0.14476974 -0.11392455 -0.02271404 0.19729339 -0.07975835
0.00061400334 0.03237114 0.10111512 0.011218486 -0.22189355 -0.13127223 0.018181995 -0.14347127
0.18936966 -0.13758259 0.21391821 0.12407801 0.12044371 -0.0295976 -0.0084805 0.15747966
-0.18227151 0.047962137 -0.14819528 0.09263166 -0.13699897 0.102058046 -0.15188424 0.09891483
0.007352248 0.18219854 0.083924524 0.1349564 -0.10211972 0.13032489 -0.09790269 -0.16407047
-0.19661264 -0.14433075 -0.000155116 0.08527362 0.24052763 0.22305995 -0.10936375 -0.057527773
-0.04371999 0.13564588 0.019878201 -0.14587888 0.04610821 0.053412393 0.1468156 0.113821454
-0.0863718 0.069724165 -0.055434007 0.024549708 0.16491635 0.17923199 -0.18354611 -0.12895565
-0.08477093 -0.0528064 0.11133976 0.09985899 0.059510022 -0.20320664 0.1138008 -0.24069269
0.13020524 -0.14507571 -0.11248631 -0.14442104 -0.2759243 -0.12674421 0.13867907 0.1226703
-0.015978562 -0.10202444 -0.026901767 0.050931733 -0.14300631 -0.18435566 -0.0888111 -0.07266618
0.07939981 0.13082449 0.17141356 0.11696639 0.039284684 0.107292034 0.04905039 -0.113095954
0.06750012 0.08104804 0.1019284 0.03358849 -0.0027252154 -0.068591386 0.019103268 0.0059185307
0.17787458 0.20305067 0.1276707 0.108316846 0.10675107 0.045410197 -0.18376651 0.19452062
0.118851796 -0.034847084 0.039796773 -0.20082718 0.15321113 0.01817657 0.15710087 -0.22667164
0.057463806 -0.075548485 0.0866931 0.06067786 0.023252683 0.07722369 -0.16714811 0.031184029
0.14793047 -0.016619107 0.12611826 0.0022922375 -0.028454341 -0.11034509 -0.15104268 0.010099782
-0.03927921 0.12321872 -0.06910059 0.21056904 0.03746221 -0.20733757 0.008182537 0.06024535
0.023293998 -0.0011906029 -0.11108608 0.06874428 -0.13690238 -0.11186963 -0.08866654 -0.13894112
0.22346538 -0.18215722 -0.040546462 0.04959753 -0.13311642 -0.07589931 0.09797489 -0.14163688
-0.021085192 -0.12803362 0.03187709 -0.07371813 -0.1312103 0.1346651 0.15980765 0.18072112
0.16108014 -0.101562 -0.035105783 -0.1185735 -0.10822271 -0.26574582 0.1782458 -0.12335623

sequential/dense/BiasAdd/ReadVariableOp:0 f4 [64]
00000000: 0eb0 f4bc d418 2c3c e3c4 da3c 13d9 c3bd
00000010: 53e2 0dbe fcf3 66bd 6dc1 11bd 97c0 96bd
00000020: e0bb 0cbd 6bd2 cd3b 9707 13be 574e 98bd
00000030: e116 723d 4053 4cbc c7bb 9cbd a5e6 62bd
00000040: a986 413d 0879 ea3c fd1c 75bb 81d8 06bd
00000050: df5c b3bd 80a1 6cbd e59e d83c 3a15 76bd
00000060: d8f3 fabd 9272 19bd f3a5 2ebe c871 63bd
00000070: b409 06be 0aa9 cd3c cf55 3abd 52fd a0bc
00000080: d46a 143d 3802 c63c a733 153d e67f 333d
00000090: 2783 5b3d be20 013c 5f9d 353d f7f8 55bd
000000a0: d537 81bd 17df 763a da08 6bbd fe7d 1cbd
000000b0: b6b4 ae3c 5e1e 323d 9d5d 2dbb 8ebc ebbd
000000c0: f71f 0fbd ba7f 9abd 3d60 4e3d f890 8fbd
000000d0: 3d31 ce3b 20eb 7c3c b125 b8bd dae0 913b
000000e0: 04b3 b63c dfcc a73c 7624 b5bd 8340 9f3c
000000f0: 2a7b a43c 5d7e a4bd 9966 1cbe 7d2d 0b3c
-0.029869106 0.010503966 0.026705211 -0.09562888 -0.13855867 -0.056385025 -0.035584856 -0.07360952
-0.03435886 0.0062811873 -0.14358364 -0.07436817 0.05910385 -0.01247102 -0.07653003 -0.05539574
0.047247563 0.028622165 -0.0037401312 -0.032921318 -0.08757948 -0.057771206 0.026442954 -0.060078837
-0.12253541 -0.03746278 -0.17055492 -0.055528432 -0.13089639 0.025105018 -0.04549199 -0.019652043
0.03623469 0.02417098 0.036426213 0.043823145 0.053591873 0.0078813415 0.044339534 -0.052239385
-0.06309477 0.0009417398 -0.05738149 -0.038206093 0.021326404 0.04348599 -0.0026453503 -0.11510573
-0.034942593 -0.07543893 0.05038475 -0.070100725 0.0062924908 0.015436918 -0.08991564 0.004451853
0.022302158 0.020483432 -0.08844845 0.019439941 0.02007826 -0.080319144 -0.15273513 0.008494732
