root/tmva/sofie/input_models/Linear_event.onnx (onnx, 105481 bytes, 20 tensors)

0.bias f4 [50]
000000 95 20 e9 3d ca 9d 53 bd 65 93 6f bd 2d 24 1b bd
       0.11383168 -0.05166415 -0.058490176 -0.037876297
000010 86 6e d5 3d 17 09 82 3c ca 31 db 3d 0e 35 f5 3d
       0.10421471 0.015873475 0.10702856 0.1197301
000020 58 29 25 3c b1 cb bf 3d 03 65 9d 3c 97 53 a0 3d
       0.010080658 0.09365023 0.019213205 0.078284435
000030 c2 4c 87 bd 8c c1 e9 3d 70 5f 85 3d 13 88 aa 3d
       -0.06606437 0.11413869 0.06512344 0.08326735
000040 e0 6b ed bc f0 20 6d bd 6a 7f 47 3d ca 43 d3 3c
       -0.028982103 -0.05789274 0.048705496 0.02578916
000050 c0 b0 e2 ba 6c d6 d1 3c cc 35 9e 3c b2 8b 3b 3d
       -0.0017295107 0.02561494 0.019312762 0.04578752
000060 a2 12 29 3d 80 06 34 3a 02 b7 03 bd d0 e3 81 3d
       0.041277535 0.00068674237 -0.03215695 0.0634228
000070 43 4e b9 3d 93 26 00 bc de 4b 0d 3b 80 45 be 3c
       0.0904813 -0.007821697 0.0021560113 0.0232265
000080 a2 25 64 3d 67 87 dc 3d 09 1f 8c 3d 67 92 b6 bc
       0.055699952 0.107680134 0.06841857 -0.022286607
000090 1e 69 7d bd 64 4a c4 3c ae 14 b9 3d ed 8f 5b bd
       -0.061867826 0.023961253 0.090371475 -0.053604055
0000a0 89 e5 88 bd 70 f3 e6 3d 92 6d ce bd 56 36 9d 3b
       -0.06684405 0.11276901 -0.10079493 0.004797737
0000b0 25 57 94 bc 64 8a d3 3c 1f fc 84 3d c3 fd 77 bd
       -0.01810796 0.025822826 0.06493401 -0.06054474
0000c0 9d 54 77 bd 48 7d 15 3d
       -0.060383428 0.03649643

0.weight f4 [50, 100]
000000 14 9d 66 3c 21 df 00 bd c9 f0 d9 bd ab a8 81 bc
       0.014075536 -0.031462792 -0.10641629 -0.015827497
000010 77 5c 53 3d 4d d0 c3 bc 7d 98 20 3d 85 d3 13 bd
       0.051601853 -0.023903036 0.039207924 -0.036090393
000020 3a 52 97 bc 94 bc 13 3b 1b b6 ef 3d f3 0a 8f bc
       -0.018471826 0.0022542821 0.11704656 -0.017461276
000030 f7 cf 5f bd ae 47 ec 3d 13 78 09 be c6 c5 02 be
       -0.05464169 0.11537109 -0.13424711 -0.12770757
000040 76 f1 fa bd 61 0c 27 bd 33 8f 3b 3d a5 d2 08 3e
       -0.12253086 -0.04078329 0.045790862 0.13361605
000050 e7 ca 10 bd 60 92 85 bc 04 58 fe 3d 86 f5 47 bd
       -0.035349753 -0.016305149 0.124191314 -0.048818134
000060 7b 32 ab 3d df 4e f3 bc 99 70 d4 bd 00 58 64 bb
       0.08359238 -0.029700695 -0.10373039 -0.003484249
000070 82 6d c3 bd b1 61 72 bc 96 c4 f3 3d 1e d3 47 3d
       -0.09542371 -0.014793799 0.1190273 0.04878532
000080 ac 48 81 bb 1d bf a5 3c 49 e4 34 3d 01 ce e5 3d
       -0.0039454307 0.020232731 0.044163022 0.11220933
000090 78 ff fc bd 50 9a 03 bd 0a 58 99 bb fc 21 c4 bc
       -0.12353414 -0.032129586 -0.0046796845 -0.023941986
0000a0 9f 39 be bc ec 25 70 3c c7 c4 ed bc 32 a2 98 bc
       -0.023220835 0.014657479 -0.029024495 -0.018632028
0000b0 b7 0b 78 bd 7b 44 fe 3d 5f f4 5d 3d 79 30 ad bd
       -0.060558047 0.12415405 0.05418813 -0.08456511
0000c0 80 13 27 3d 9c ad e0 3c 97 d5 60 bd f8 f1 42 3d
       0.04079008 0.027426533 -0.054891195 0.04759404
0000d0 ae 21 12 bc 74 a1 03 be b7 01 57 3d 1c 2c 3b bd
       -0.008919163 -0.12854558 0.05249187 -0.045696363
0000e0 0c ae b4 3a 0c f5 d9 3d da 07 00 3e 26 b7 30 bd
       0.001378478 0.10642442 0.12502995 -0.043143414
0000f0 f1 98 3d bd 88 9a c1 3d 00 81 07 3e f2 bb ad 3d
       -0.046288434 0.094533026 0.13232803 0.08483113
000100 4c c0 c0 3d 70 a7 8e 3c 3b f0 f2 bb f3 d5 31 bd
       0.09411678 0.017413825 -0.0074138916 -0.04341693
000110 d5 4b 2c 3d af 86 32 3c 41 c7 bc 3b aa fb 31 3d
       0.042064507 0.010896369 0.0057610576 0.043452896
000120 24 58 ad bd 06 2c 01 3d 74 56 6c bd 2c 3b 76 bd
       -0.08464077 0.031536125 -0.057699636 -0.060115024
000130 f6 38 4d 3d 64 0a 90 bd e3 01 17 3c 53 0b f4 bb
       0.05010315 -0.07033232 0.009216758 -0.007447639
000140 42 fd 2e bd 25 bd 08 be 8c f7 cf 3b 33 d9 23 bd
       -0.042721994 -0.13353403 0.0063466486 -0.04000206
000150 26 35 93 3c 73 00 65 bd 6b a7 1a bd 2b 85 c1 3d
       0.01796968 -0.05590863 -0.03775732 0.09449228
000160 f5 4d 14 bc 4d 92 09 3e 09 98 7b 3c 6b c7 05 be
       -0.0090517895 0.13434716 0.015356072 -0.13064353
000170 d4 26 c1 3c 40 0b e1 3b 07 ad e2 3d 6a d9 83 3c
       0.023578085 0.006867796 0.110681586 0.016094882
000180 5a b7 02 be 59 bf 0b bd 64 d0 5a bd 53 25 57 bc
       -0.12765256 -0.03411803 -0.053421393 -0.013131457
000190 c6 0c 7c 3d e0 ae e4 bc 0b f5 c4 bd 07 87 97 3d
       0.06153562 -0.027915418 -0.09617051 0.07398801
0001a0 cc f0 d7 3c 13 fa 1f bd 0d d7 cb bd 26 3b 35 3d
       0.026359938 -0.03905685 -0.09953127 0.04424586
0001b0 f8 9e f2 bc c7 ad 26 bd 66 24 33 3d 5a 07 38 bd
       -0.029616818 -0.04069307 0.043735884 -0.044928886
0001c0 54 c6 fe bc 8c df dc bc 59 1d 8d 3d 54 a1 c6 bc
       -0.03110043 -0.026962064 0.06890363 -0.02424685
0001d0 80 cd 6f bc 6e 27 26 3d 7d fd 88 3d d0 c3 15 bc
       -0.014636397 0.040564947 0.06688974 -0.009140924
0001e0 c0 c1 35 bd 70 3a 26 bd 5c 7e 8c bd 46 12 63 3d
       -0.044374228 -0.040583074 -0.06860039 0.05543735
0001f0 11 24 bc 3d 80 30 9d bb b3 80 38 bd 00 65 93 b9
       0.091865666 -0.0047970414 -0.045044612 -0.00028113276
000200 cd 26 4e bd 33 fa b8 3d 34 30 da 3c 56 ba 43 3d
       -0.050329972 0.09032097 0.026634313 0.047785126
000210 18 d5 07 bc b3 63 94 3d 51 2a ab 3d 36 ef 04 3d
       -0.008290552 0.072455786 0.083576806 0.03245469
000220 b8 84 b1 bd 19 7e c7 3d f6 96 a3 bd 12 fc 77 3d
       -0.08667892 0.09740848 -0.07987778 0.060543127
000230 1d 8d 94 3d 52 5e 84 bd a7 52 1f bd ea 25 b7 bd
       0.07253478 -0.06463303 -0.038897183 -0.089427784
000240 cc 18 a6 3c 3b 2a be bd 97 62 37 bd e7 4b c3 bd
       0.020275496 -0.092853986 -0.044771757 -0.095359616
000250 97 66 2b bd 0a e6 26 bd 69 3f b9 3d 21 df 9f 3d
       -0.041845884 -0.040746726 0.09045298 0.0780623
000260 c6 40 41 3d 11 63 91 3d 68 4c 2c bc f8 00 b5 bd
       0.047180913 0.070989735 -0.010516264 -0.088380754
000270 30 cf 4c 3c 58 63 bf bd 30 fe 25 3c 26 a3 38 3d
       0.012500569 -0.0934512 0.010131404 0.045077465
000280 7b 5f 99 3d b0 b9 64 3c 9b dd 97 3d f7 1e 9d 3d
       0.074889146 0.013960287 0.07415315 0.07671922
000290 1a 6b 8f bd 16 a0 16 bd da 5d 29 3d 34 23 e7 3c
       -0.0700285 -0.036773764 0.04134927 0.028215028
0002a0 66 48 83 bd 10 c8 6f 3c 9d b5 4f bd 18 76 c9 3c
       -0.06410293 0.014635101 -0.05071031 0.024592444
0002b0 44 35 d1 3c 87 bb 91 3d ea ae 8e bd 46 c2 34 3d
       0.025538094 0.07115846 -0.06966956 0.044130586
0002c0 74 bd 94 3c 40 24 2c bd c2 60 4f 3d 9e 58 39 3d
       0.018156745 -0.04202676 0.050629385 0.045250528
0002d0 b8 08 97 3c 77 1f 96 3d 92 f7 23 3d 40 3b fc ba
       0.018436775 0.0733022 0.040031023 -0.0019243732
0002e0 8c c8 de 3c 18 94 90 bc 53 09 a1 3d 2a 3d 85 bd
       0.027195238 -0.017648742 0.078631066 -0.06505807
0002f0 d3 f3 a2 bd a9 3e 8f 3d 3b a6 8f 3d bf 78 c3 3d
       -0.07956662 0.06994373 0.07014128 0.09544515
000300 a7 37 8c 3d a0 26 b2 3c be e1 ab bd 30 76 47 3c
       0.06846552 0.021746933 -0.08392666 0.012174174
000310 86 ff 76 3d 8a 99 10 bd d2 2a b8 bd cc 5c 81 bc
       0.06030228 -0.035302676 -0.08992542 -0.01579132
000320 3c 94 4b 3d 7a fa 8b bd 4e 99 11 3d cd 01 b3 3d
       0.049701914 -0.06834884 0.035546593 0.08740578
000330 76 2b 15 3d b2 75 b3 bd d4 4e 80 3d 4c 5b 21 3d
       0.0364184 -0.08762683 0.06265035 0.039393708
000340 3b b0 54 3d 1a 85 b3 3d 4c 7d cb bd 04 5f bf bd
       0.05192588 0.087656215 -0.09936008 -0.09344295
000350 c2 7e a9 bb 11 9e b8 3d b9 46 81 bd 11 31 39 3d
       -0.0051725814 0.09014524 -0.063123174 0.04521281
000360 96 68 8b 3d 12 85 fd b9 cb 18 cd bd a7 a6 90 3d
       0.068070576 -0.00048355066 -0.100144945 0.070630364
000370 48 a5 72 bc 27 82 62 bd e8 66 90 bd 02 70 73 bd
       -0.014809914 -0.055299904 -0.07050878 -0.05943299
000380 10 92 49 3d 6a 47 5c 3d df ee a0 3c f9 67 31 bc
       0.04921156 0.053779043 0.019645153 -0.010828012
000390 10 c4 7f bd 97 3f 1c bc eb bd 05 bc be a8 62 3d
       -0.06244284 -0.009536645 -0.008162956 0.055336706
0003a0 2a cf 16 bd 94 e4 d1 3d 52 f4 d7 bc dd 73 5b bd
       -0.03681866 0.10248676 -0.026361618 -0.053577293
0003b0 57 7b 39 bd bb 81 b2 3d 44 d3 24 bd 29 d9 e4 bb
       -0.04528364 0.087161504 -0.04024054 -0.0069838953
0003c0 b3 8f 23 3d 87 eb 54 bd 97 3a 80 bd d1 8d cb bd
       0.039931964 -0.05198243 -0.06261175 -0.09939159
0003d0 18 e4 b7 3d 95 62 22 bd dd 4d 12 3d b1 96 f0 3b
       0.08979052 -0.039644796 0.035718787 0.0073421826
0003e0 8d a2 f0 bc 3e 4e bc bd d8 fe 0f bd 69 df a3 3d
       -0.029374385 -0.09194611 -0.035155147 0.080015965
0003f0 68 d8 3f 3d 0e 6e b3 bd 48 83 98 3c 12 86 72 bd
       0.04683724 -0.08761226 0.018617287 -0.05920989

10.bias f4 [50]
000000 1c 03 49 3d 80 01 60 bc 98 3f 06 be 0c dc e2 bd
       0.04907523 -0.013672233 -0.13110197 -0.11077127
000010 60 92 d3 3d 53 4c 68 3c 87 e0 01 3e fd 13 bb 3c
       0.10330653 0.014178353 0.12683307 0.02283668
000020 6b e6 ef bd 6c 68 30 bd 67 83 95 bd 08 54 8b bd
       -0.117138706 -0.043068334 -0.07300454 -0.06803137
000030 0f 55 f7 bd da c3 d8 bd f8 8a 14 3e 65 63 c8 3c
       -0.120767705 -0.10584231 0.14506137 0.024461458
000040 39 a6 74 3d dc 58 43 3c 00 0a aa bc 00 2d e3 bb
       0.059728835 0.011923041 -0.020756721 -0.0069328547
000050 61 7e 94 bd 0d ad df bd 5a 9b 0b bd 9e a3 65 3d
       -0.07250667 -0.10921679 -0.0340837 0.05606424
000060 d4 3f 95 3d 99 e1 c2 bd 0f 50 00 3d 34 0b 18 3e
       0.07287565 -0.095156856 0.03132635 0.14848024
000070 8e f9 30 bd 8d 8c 89 bd d2 b4 fb 3d 55 7f 95 3d
       -0.043206744 -0.06716261 0.12290348 0.07299677
000080 a6 43 b8 bc 20 92 c9 bd 00 76 31 bd 80 f0 a2 3a
       -0.022493195 -0.09842324 -0.043325424 0.0012431294
000090 16 b6 5f bd d1 2b 09 3e 3b 3c b5 bd 68 7b dc bd
       -0.05461701 0.13395621 -0.08849379 -0.107657254
0000a0 e0 d5 2b bc 80 26 35 bb 00 fc b4 ba d5 d1 f9 3d
       -0.0104880035 -0.0027641356 -0.0013808012 0.121982254
0000b0 81 a6 03 3e 95 d5 15 bd be eb 1d be 14 46 e9 bd
       0.12856485 -0.03658064 -0.1542196 -0.113903195
0000c0 6a ed c3 3d e5 6f 0c bc
       0.095667675 -0.0085716

10.weight f4 [50, 50]
000000 a3 fb 09 be fe 74 6a 3c 72 c3 28 bd 80 a3 98 3a
       -0.13474898 0.01431012 -0.041202016 0.0011645406
000010 b8 3b 83 bd 18 b2 92 3c 82 3b f8 3d 40 5d 69 bb
       -0.06407875 0.017907187 0.12120725 -0.003560856
000020 60 d0 17 bc 8c 6f 00 be 12 d8 ff 3d bb c7 00 be
       -0.009265989 -0.12542552 0.12492384 -0.12576191
000030 08 04 6f 3c ec 27 af bd 7f 55 dc bd 30 25 b8 bd
       0.0145883635 -0.08552536 -0.107584946 -0.08991468
000040 73 8e 00 be 7c cd d8 3d a0 4b 94 3d ea e2 10 3c
       -0.1255434 0.10586068 0.07240987 0.008843163
000050 78 c0 52 3d 4f 56 e7 bd fe e1 0f be 74 30 d8 3d
       0.051453084 -0.11295759 -0.14051053 0.10556117
000060 e1 aa a6 bd a8 66 1f bd 44 a4 10 3d 4e 60 0d 3e
       -0.08138061 -0.03891626 0.035312906 0.13806269
000070 00 37 15 bc 16 a6 eb 3d aa 55 85 bd c6 fb f9 bd
       -0.009107351 0.11506288 -0.0651048 -0.12206225
000080 f0 c8 5b 3c a0 74 22 bd 29 59 cb 3d 0e ac da bd
       0.013414606 -0.039662004 0.09929115 -0.10677348
000090 2a 72 2c bd f8 d8 b6 bd ea 16 90 3d 99 16 ca 3d
       -0.042101063 -0.08928102 0.070356205 0.098675914
0000a0 5a df 9d 3d 41 4b db 3c 36 dd 83 bd 3b cc a1 bd
       0.077086166 0.026769282 -0.06438677 -0.07900282
0000b0 7c 5d 9e 3d 70 55 9e 3d 52 ef c0 3d 39 7c d9 3d
       0.077326745 0.0773114 0.09420647 0.10619397
0000c0 d2 85 ad bd 9e 31 85 bc 7c 43 91 3d e0 b2 53 3d
       -0.0847279 -0.01625901 0.0709295 0.05168426
0000d0 f8 37 be bd 40 84 2b 3c e0 ed be 3d 50 c8 45 bc
       -0.09288019 0.010468543 0.09322715 -0.012071684
0000e0 70 57 32 bc 18 fb 96 bd 6b a7 e1 bd 76 52 43 bd
       -0.010885105 -0.07372111 -0.110182606 -0.047686063
0000f0 08 1d b5 bd a4 eb a4 bd 10 3a bf 3c 8c b2 c1 bd
       -0.08843428 -0.080527574 0.023343116 -0.09457883
000100 73 56 0e 3e d8 61 48 bd b4 f4 e0 bd 9e 96 c2 bd
       0.13900165 -0.048921436 -0.109841734 -0.09501384
000110 98 b9 d6 3c d2 8e 00 bd 23 ca 02 be ca dc c6 bd
       0.026211545 -0.031386204 -0.12772422 -0.09710081
000120 0e b6 3d bd f0 4e 83 3c de e9 bb 3d 2c b7 29 3d
       -0.0463162 0.016028851 0.09175466 0.041434452
000130 fc ae d9 3d 20 65 96 3c a0 28 89 bc 8b 84 0b 3e
       0.10629079 0.018358767 -0.016743004 0.1362478
000140 9e aa a9 bd 00 b6 e5 b9 80 cc 92 ba f0 78 61 bc
       -0.08284496 -0.00043813884 -0.0011199862 -0.013761744
000150 70 58 91 3d c0 40 87 bb aa 64 54 bd 68 41 21 bd
       0.07096946 -0.004127592 -0.051853813 -0.039369017
000160 f0 a7 07 be b4 4f ad bc 62 a4 58 bd e0 df e3 3c
       -0.13247657 -0.02115617 -0.052891143 0.027816713
000170 c0 33 4e bb 98 50 c4 bd e1 d8 07 3e 90 81 74 3d
       -0.003146395 -0.095856845 0.13266326 0.059693873
000180 f2 e3 b1 3d 4a 6e eb 3d 00 29 8c bb 34 f9 ee bd
       0.08686055 0.11495645 -0.0042773485 -0.116686255
000190 be 68 8e 3d 68 70 ae bc 38 ec 91 3c 05 64 ee bd
       0.06953572 -0.021293834 0.017812833 -0.11640171
0001a0 10 52 92 3d 7e 53 7b bd f4 af 95 bc d0 78 2f 3d
       0.071445584 -0.06135892 -0.018272378 0.042839825
0001b0 60 6c bf bc 84 25 3d 3d 8c 45 a9 bd 75 6b 9c bd
       -0.023367107 0.046178356 -0.08265218 -0.07637683
0001c0 06 f6 ca bd d5 56 0a 3e e2 76 c5 3d 09 17 05 be
       -0.099102065 0.13509686 0.09641816 -0.12997068
0001d0 80 c9 e6 bb 20 9d a3 bc 68 ad 98 3c bc 32 5e 3d
       -0.0070430636 -0.019972384 0.018637374 0.054247603
0001e0 80 26 d3 bc b2 d5 f8 bd 14 fd d5 bc 40 54 4e bc
       -0.025775194 -0.12150134 -0.026121654 -0.012593329
0001f0 04 37 c2 bd 40 72 6e bd 04 9d aa 3d a0 47 ac bb
       -0.0948315 -0.058214426 0.083307296 -0.005257562
000200 41 5a 0e 3e 00 0b 5a bb 64 c6 ad bc 3b 09 f4 bd
       0.13901617 -0.0033270717 -0.021212764 -0.11915823
000210 6f 67 b6 bd d5 ac ba bd 88 00 37 bd b4 72 96 bd
       -0.08906447 -0.09114996 -0.04467824 -0.07346097
000220 1d 4b d8 bd 70 3b 49 bc 0e 6e 13 bd d0 02 15 3c
       -0.10561202 -0.012282237 -0.03599363 0.009094909
000230 50 e0 ae 3c 58 1f 56 3d e1 ba 04 3e ea 68 eb 3d
       0.021347195 0.052275985 0.12961914 0.1149462
000240 b2 be d9 bd b0 3e e1 bd 1c 13 06 3d 74 ed fa bd
       -0.10632075 -0.10998285 0.032733068 -0.12252322
000250 c5 4b 9d bd 44 c2 cf 3d 20 be 57 bd f0 33 5a 3c
       -0.076804675 0.10144475 -0.05267155 0.013318047
000260 8d 5c 34 3d 3b c2 fa 3d 29 b2 f1 bd 66 e8 81 bd
       0.044033576 0.12244078 -0.118015595 -0.063431546
000270 d2 9e e8 bd d4 cc 79 3d 48 36 a5 3c 14 04 f8 bd
       -0.113584176 0.060986355 0.020167485 -0.12110153
000280 1f 5d 14 3d 9b 10 cd 3d 34 67 ea 3d 69 09 28 bc
       0.03622162 0.10012933 0.11445466 -0.01025615
000290 9f fa 3f 3d 3e 72 e2 3d 21 51 6f bd c8 e8 07 3b
       0.04686987 0.11056946 -0.05842698 0.0020738114
0002a0 d9 41 7b 3d 0a af db 3d 72 e0 d0 3d 87 b8 84 bd
       0.061342094 0.107267454 0.101990595 -0.06480508
0002b0 6d db 09 bc ca a3 de 3d ba 47 11 be 94 da 53 3d
       -0.008414132 0.10871084 -0.14187518 0.051722124
0002c0 f3 92 02 3e 9c 9f e6 bd a8 06 f3 bc 4c a2 bd bc
       0.12751369 -0.11260912 -0.02966626 -0.023148678
0002d0 e8 03 8c 3d d6 66 99 3d 08 01 89 bc bf da 9d 3d
       0.068366826 0.074903175 -0.016724125 0.07707738
0002e0 0d a5 96 bc 46 b4 0a 3e 7c ec 22 3d ba 23 e4 bd
       -0.01838925 0.13545331 0.03977631 -0.11139627
0002f0 a4 01 af 3d e9 45 7b 3d d8 64 bd 3c a2 6f e7 bd
       0.08545235 0.06134597 0.023119375 -0.11300589
000300 e6 f5 a9 bc cf 69 02 3e b8 de 56 3d 3a 1d 80 3d
       -0.020747136 0.12735675 0.052458495 0.062555745
000310 1e a7 e1 3d b5 50 6e bd 76 9d bd 3c d5 cd 52 3c
       0.11018203 -0.058182437 0.023146372 0.012866457
000320 dd 0f 5c bc aa 97 84 3c d0 1f 55 3c a1 79 9b bd
       -0.0134315165 0.0161856 0.013008073 -0.07591558
000330 b0 d2 87 bd a2 37 ea 3d de 1c 27 bd c2 9a e7 3d
       -0.06631982 0.11436392 -0.040799014 0.113088146
000340 66 3e 10 be 98 31 bb 3c 7e 54 d9 bd a3 1a c2 bc
       -0.14086303 0.022850797 -0.10611819 -0.023694342
000350 ba 98 69 bd 97 58 01 bd 05 31 0c be ee fd 09 be
       -0.057030417 -0.031578626 -0.13690574 -0.13475773
000360 1c 27 fe bd 67 99 98 bd db a8 e5 3d 8d 27 e2 bd
       -0.12409803 -0.07451134 0.11213847 -0.110427
000370 58 41 ee bd 61 c7 8a 3d 94 0b f2 ba e0 69 e4 3b
       -0.11633557 0.0677631 -0.0018466585 0.006970629
000380 33 ad 09 3e c8 f8 e7 bd 20 01 37 3c d7 cb 5e 3d
       0.13444977 -0.11326748 0.011169702 0.054393616
000390 60 37 7e 3c be 25 5a 3d c0 61 72 bc 72 8d 35 bd
       0.015516132 0.05325865 -0.014793813 -0.044324346
0003a0 99 94 f0 bd e1 24 ef bd a2 4e a8 bd 86 ea 0c be
       -0.11747093 -0.11676956 -0.08218123 -0.13761339
0003b0 34 51 a9 bd 5c 40 be bd 40 ba f2 3c 9b 41 af 3d
       -0.082674414 -0.09289619 0.029629827 0.08557435
0003c0 00 31 32 ba 05 ba dd 3d 1a 5a 4a bc e2 db 24 bd
       -0.00067974627 0.10826496 -0.012350583 -0.04024876
0003d0 35 a3 6d bd 8f 39 ba bd 2f 66 10 3e 0a 79 b1 bd
       -0.058016974 -0.0909301 0.1410148 -0.086656645
0003e0 cb 50 50 3c c3 95 f8 bd fc 2b 2d 3e 80 bc 73 bc
       0.012714575 -0.1213794 0.1691131 -0.014876485
0003f0 f4 ab f5 bd df 7e 8d 3d e7 40 c7 bc 52 d3 b9 bd
       -0.11995688 0.06908964 -0.02432294 -0.09073509

12.bias f4 [50]
000000 a6 fc 42 bd f6 30 04 be 46 71 9d 3d 16 eb 5d bd
       -0.047604226 -0.12909302 0.07687621 -0.054179274
000010 f0 5d 2f bc ae 6d 00 3e a7 7c 9d bc 7b f1 df bc
       -0.010703549 0.1254184 -0.019224478 -0.027336827
000020 d1 ee 97 bd 9a a2 ad bd 1c 9d 24 3d 18 6e 9a bd
       -0.074185975 -0.084782794 0.040188894 -0.0754053
000030 fe cf 05 be cf 97 5a 3d 3a ad 9c bd 1b 78 1f 3d
       -0.13067624 0.053367432 -0.07650228 0.0389329
000040 dd 8c 85 bd 7b d7 0a 3e c8 62 f7 bc 09 e1 1c 3c
       -0.06521008 0.13558762 -0.03019847 0.009575137
000050 17 36 bd bd 09 be 1d 3e 61 3f 16 3e b0 e9 d8 bd
       -0.092388324 0.15404524 0.14672615 -0.10591447
000060 7d b9 01 be 19 2e ce 3d 00 50 c5 ba be 81 32 bd
       -0.12668414 0.10067386 -0.0015053749 -0.043580763
000070 c9 a4 78 3d 96 7c 15 3e 3c 97 ad bd ba ab 05 3e
       0.060704026 0.14598307 -0.08476111 0.1305379
000080 e4 3a 20 3e 42 6e 61 bd d3 b7 d4 3d 82 4b d5 bd
       0.15647465 -0.05503679 0.10386624 -0.104147926
000090 5b 3d b1 bd fb 4e 27 3c 97 59 0a 3e 62 2c 9b 3d
       -0.08654281 0.0102117015 0.13510738 0.07576825
0000a0 c5 fb d5 3d c5 81 be 3b 33 30 8a bd 49 6d d5 3c
       0.10448412 0.0058138096 -0.067474745 0.026053088
0000b0 5e 6e fd bd 34 a4 72 bd da 59 f7 3d dc 7c 76 3d
       -0.123745665 -0.059238628 0.12077685 0.06017767
0000c0 3a e3 67 3d dc ff 02 be
       0.056613185 -0.12792915

12.weight f4 [50, 50]
000000 92 4e 0a bd 7e de 02 bd c0 aa 0d bd 02 c6 b5 3d
       -0.033766337 -0.031950466 -0.034586668 0.088756576
000010 a4 18 b7 bd 38 2d 4f 3d d6 50 d1 bd a1 a0 07 3e
       -0.08940247 0.050580233 -0.10220496 0.13244869
000020 3d 61 0e 3e aa a7 e8 3d 20 5a ad bc a4 42 27 bd
       0.13904281 0.113601044 -0.021161139 -0.040835038
000030 50 27 5f 3d b9 c8 02 be 63 c1 01 be 91 f2 b4 bd
       0.05448085 -0.12771882 -0.12671427 -0.08835328
000040 ce de 65 bd a8 19 dc 3d 56 0a 97 3d f4 4d a6 bc
       -0.056120686 0.10747081 0.07375018 -0.020300843
000050 7f 7b 10 be a8 f1 d5 bd 50 33 3d 3d a8 17 54 bd
       -0.1410961 -0.10446483 0.046191514 -0.051780373
000060 de b2 6f bd 0a 6a bd 3d 48 cb 88 bc a0 cb a7 3b
       -0.05852019 0.09248741 -0.016698495 0.0051207095
000070 30 14 e0 3c 56 87 06 be 00 81 10 bd 3c 18 a5 bd
       0.027353376 -0.13137564 -0.035279274 -0.08061263
000080 9e cc bc bd 4c 62 ce 3d 1e 4e c0 3d 8c d5 3e 3d
       -0.09218715 0.100773424 0.093899 0.046590373
000090 20 2f 70 3d 58 ca 0e bd 4e a3 da 3d 5a c4 e9 bd
       0.058638692 -0.03486094 0.10675679 -0.11414404
0000a0 9e b9 87 3d d8 f5 8a 3c 83 55 bd bd 4e 07 31 bd
       0.066272005 0.01696293 -0.09244826 -0.043219857
0000b0 99 8f 0e 3e 6b 80 0b 3e 3f 5c 09 3e 17 4d 02 3e
       0.13921966 0.13623206 0.13414095 0.1272472
0000c0 3c 38 bf bc ea 74 94 3d 2e 57 8d 3d c0 b9 32 3b
       -0.023342244 0.07248862 0.06901394 0.002727136
0000d0 60 f6 b3 bc da 5d 00 bd 72 b4 e1 3d 85 3c ac bd
       -0.021968067 -0.031339504 0.11020745 -0.08409981
0000e0 65 60 84 bd 52 9d a9 3d 4c 8c b6 3d 78 d1 e7 bd
       -0.06463698 0.082819596 0.08913478 -0.1131925
0000f0 6a db b2 3d 58 11 8d 3d a4 81 a0 bd ec 9c c4 bd
       0.08733256 0.06888074 -0.07837227 -0.09600243
000100 27 9a b5 bd 4e 57 e7 bd fc 13 0e bd e0 f8 23 3c
       -0.08867293 -0.11295949 -0.034687027 0.010008067
000110 1e a6 0e be e4 90 be bc 4c 40 c3 3d 1c 3a 61 3d
       -0.13930556 -0.023262449 0.09533748 0.054987058
000120 50 af 51 3d 18 9d 1c 3d 72 73 1e bd 08 ad 7f 3d
       0.05119258 0.038235754 -0.038684316 0.062420875
000130 9d b4 00 be dc 33 6d bd ee 2d 02 bd 9c c0 df bc
       -0.12568898 -0.057910785 -0.031782083 -0.027313523
000140 14 67 83 bd 0d d7 02 3e 20 a9 5d bd 00 39 97 bb
       -0.06416145 0.12777348 -0.05411637 -0.004614949
000150 50 ba f9 bd 6c bd b4 3d 9e 77 e5 3d a0 f0 d2 3d
       -0.121937394 0.08825192 0.11204456 0.10299802
000160 40 ad df 3b 00 8d 1e 3c 47 7e 8f bd 50 59 d2 3d
       0.006826073 0.009677172 -0.07006507 0.10270941
000170 0a c1 e4 3d 74 62 fd bd d4 c0 33 3d f0 ef 2f bc
       0.11169632 -0.12372294 0.043885067 -0.010738358
000180 40 a1 69 3b 92 00 9c bd 78 25 72 3d 88 6e cf 3c
       0.003564909 -0.07617296 0.059117764 0.02532126
000190 fe 5e f8 bd bb b4 06 3e 9e 09 ef bd 0a 1a c2 3d
       -0.12127493 0.1315488 -0.11671756 0.09477623
0001a0 74 1b 90 3d 56 1f 81 bd 53 cf 92 bd 65 26 a8 3d
       0.07036486 -0.06304805 -0.0716845 0.08210448
0001b0 e4 3d f9 bc 18 a1 fc 3c ac 39 1b 3d e7 2a 75 bd
       -0.03042502 0.030838534 0.037896797 -0.059855368
0001c0 38 0a dd bc 7e 7e a6 bd 4e a2 e5 bd fb cd 90 3d
       -0.026982412 -0.08129595 -0.11212598 0.07070538
0001d0 42 49 09 be d2 54 bb bd d7 88 01 be 78 86 bd 3d
       -0.13406852 -0.091470376 -0.12649857 0.092541635
0001e0 6b 05 0b 3e c4 d0 22 bd 36 89 a0 3d 5e cf 36 3c
       0.13576286 -0.039749876 0.07838671 0.011157839
0001f0 f6 75 88 bd 6a 10 74 bd 07 6c 77 3d 96 f3 03 be
       -0.06663124 -0.059585966 0.060405757 -0.1288589
000200 26 97 b3 3d 82 e8 93 3d 2b 6b f5 bc 22 a9 af bd
       0.08769064 0.07222082 -0.029958328 -0.085771814
000210 21 d1 1f 3d 18 9f 8a 3d 7a 07 7b bd 16 43 ab 3d
       0.0390178 0.06768626 -0.061286427 0.08362405
000220 84 05 3e 3d 98 9f 58 3d 98 39 e6 bd 0f 49 0c 3e
       0.04639198 0.052886575 -0.11241454 0.13699745
000230 60 bc bf 3b d8 e6 3a bd 22 a7 e8 3d b4 22 0b be
       0.0058513135 -0.045630306 0.11360003 -0.13587457
000240 99 09 4d bd 4c a5 2f bd c6 50 b3 3d c5 3c 07 3e
       -0.05005798 -0.04288225 0.08755641 0.13206775
000250 4c 36 eb 3a 04 3e b5 bd 2a 8c 27 bd c0 ae bc 3c
       0.0017945259 -0.08849719 -0.040905155 0.023032546
000260 e8 83 c0 3d 99 ae 09 3e 00 62 8f 3b 9e d1 89 3d
       0.09400159 0.1344551 0.004375696 0.067294344
000270 15 06 c1 bd 3c 9a f2 bd 2a 97 94 3d 3a 11 9f 3d
       -0.09424988 -0.11845824 0.07255395 0.077669576
000280 ed 0d 87 bd 9c ce 79 3d fc 82 d7 bc 9f 73 0b 3e
       -0.06594453 0.060988054 -0.026307575 0.13618325
000290 da 36 a8 bd 66 02 f8 3d 44 e4 64 bd 34 16 cf bc
       -0.08213587 0.121098325 -0.055881754 -0.025279142
0002a0 10 02 59 3c 4d e0 0b 3e 30 74 71 bc 7e cd b3 bd
       0.013245121 0.13659783 -0.014737174 -0.08779429
0002b0 fa 95 0a be 52 3c e0 3d 56 ff f7 3d 00 04 43 3b
       -0.13533774 0.10949005 0.12109248 0.0029757023
0002c0 6e e1 e0 bd 9a 6a 7e bd e2 42 bb bd 8c 6f cb 3d
       -0.10980497 -0.062113382 -0.09143616 0.09933385
0002d0 6d 65 cd bd 1a 20 f3 3d e8 8f f3 bc 8d fc 0a 3e
       -0.10029111 0.11871357 -0.029731706 0.13572903
0002e0 a0 c4 bb bc 46 07 c5 bd aa c6 61 bd 04 01 25 3d
       -0.022920907 -0.09620528 -0.0551211 0.04028417
0002f0 54 d9 06 bd 22 a7 5b bd 18 a0 fb 3c d2 9c 0a be
       -0.032922104 -0.053626187 0.030715987 -0.13536385
000300 00 26 e3 3b 32 06 c5 3d 1e 73 91 3d 20 09 db bb
       0.00693202 0.09620322 0.07102035 -0.0066844374
000310 2c 99 ec bd 64 a8 ce bc bb 24 bc bd e0 13 c7 3b
       -0.11552653 -0.02522678 -0.09186693 0.0060753673
000320 bd 01 0f 3e ce cf 2a bd 50 3f db bd b1 d1 0c 3e
       0.13965507 -0.041702084 -0.10705435 0.13751866
000330 a4 2f 06 bd f9 cd 0a 3e 34 61 c3 bd a0 74 aa bd
       -0.032760277 0.13555135 -0.095400244 -0.08323026
000340 05 98 82 bd 2b b8 06 3e 00 82 1b ba cc 4f 1f bd
       -0.06376652 0.13156192 -0.0005932152 -0.03889446
000350 24 0b 35 3d 57 32 07 3e f0 6c b1 bd da 60 e7 bd
       0.044200078 0.13202797 -0.08663356 -0.1129777
000360 22 a5 90 3d da 59 44 bd 66 9d 18 bd 80 a0 b9 3a
       0.070627466 -0.04793725 -0.03725948 0.0014162213
000370 6f 15 00 3e a7 68 98 bd 58 31 56 3d f2 9d f1 bd
       0.12508176 -0.07441836 0.05229315 -0.11797704
000380 f4 13 9e 3d 7c cc b4 3d 40 33 64 3b 02 c5 c1 bd
       0.077186495 0.08828065 0.0034820586 -0.094614044
000390 c2 22 75 bd 9c 90 af bd 40 07 32 bc 84 41 75 3d
       -0.0598476 -0.08572504 -0.010865986 0.059876934
0003a0 c6 66 b4 bd 70 47 39 3c b4 eb ab bc eb 95 ec bd
       -0.08808665 0.011308536 -0.020986415 -0.11552032
0003b0 d8 70 f3 3c a4 32 74 3d 60 e1 d5 bd f0 df 5c bc
       0.029716894 0.059618607 -0.104433775 -0.013481125
0003c0 44 ed 50 3d 78 10 d1 3c d7 6f e1 bd 68 fe 86 3c
       0.051007524 0.025520548 -0.1100766 0.016478732
0003d0 e0 fd eb bb 64 e7 6e 3d 90 e0 d3 bd 0a fe cf 3d
       -0.007201895 0.05832614 -0.10345566 0.10155876
0003e0 10 d4 6e bc e6 ef b4 3d 38 65 e0 3d a0 0e e9 3c
       -0.014576927 0.088348195 0.10956806 0.028449357
0003f0 f0 58 d3 3d a2 82 20 bd a3 2f d2 bd 93 2b 16 bd
       0.10319698 -0.03918708 -0.10262992 -0.03666265

14.bias f4 [50]
000000 c9 5d 9e bd 34 d2 7a bd 72 6d 6e bd f5 c9 08 be
       -0.07732732 -0.06123562 -0.058209844 -0.1335829
000010 65 45 b7 3d a0 53 43 bd a8 89 5e 3d 58 44 d1 3c
       0.08948783 -0.047687173 0.054330498 0.025545284
000020 d8 cf 7e bd ec 27 cf bd 90 1d 7d 3c 2e fc 31 bd
       -0.062209934 -0.10115036 0.015448943 -0.043453388
000030 a8 f0 0b 3e 68 82 8f 3d ae f9 07 be ce e5 b7 3d
       0.13666022 0.07007295 -0.13278839 0.08979379
000040 38 97 10 bd a3 02 87 bd a5 a0 13 bd 45 e0 52 bd
       -0.035300463 -0.065923 -0.036041874 -0.05148341
000050 98 a8 b6 bd 1b e4 c6 bc e1 2b a4 3d d3 4c b6 3d
       -0.089188755 -0.024278691 0.08016182 0.08901372
000060 44 c3 25 bd 05 5f ab bd f5 81 a4 3c c6 00 39 bd
       -0.040469423 -0.08367733 0.0200815 -0.045166753
000070 a0 18 b0 bd f4 b9 e7 3c 6a 46 ed bc 0c 93 00 3e
       -0.08598447 0.028286912 -0.02896424 0.12556094
000080 1c 4d 91 3d 29 5e 28 3e fc 29 c3 bc ce 4e 16 bd
       0.070947856 0.16442169 -0.02382373 -0.036696248
000090 70 23 b6 3d c5 e3 e6 3d 00 ab 83 bc fb c6 ca 3d
       0.08893478 0.11273912 -0.01607275 0.09901234
0000a0 1a 01 fe bb 11 71 05 3e f1 9b bb bd e0 6a b3 3c
       -0.007751596 0.13031413 -0.09160603 0.021901548
0000b0 28 a2 db bd e9 6e 07 3c d3 d8 de bd 0f a5 e9 bc
       -0.10724288 0.008266189 -0.108812 -0.028521089
0000c0 dc 47 01 3d 40 36 e9 bd
       0.03156267 -0.113873005

14.weight f4 [50, 50]
000000 40 f4 c5 3d 9c 8f 60 3d b8 57 80 bc b0 ba 9d 3d
       0.096657276 0.054824457 -0.015666828 0.077016234
000010 12 99 84 3d e1 13 0b be 57 e3 f2 bd da 4d e5 bd
       0.06474508 -0.13581802 -0.11859768 -0.1119649
000020 60 75 a4 3b b4 53 02 be 30 99 6b 3c 7a 9b da 3d
       0.005018875 -0.12727243 0.014379784 0.10674186
000030 cc 00 b5 3d 2e 3e 97 3d 7a 91 e6 bd 04 89 5c bd
       0.088380426 0.07384907 -0.11258216 -0.053841606
000040 48 4b dd bc 94 6b d9 bd d0 6f 37 bc 1e d6 7c bd
       -0.027013436 -0.10616222 -0.011196092 -0.061727636
000050 26 9e b1 3d 08 88 9a 3d f4 27 9f 3d 76 19 f8 3d
       0.086727425 0.07545477 0.07771292 0.12114231
000060 02 7e 44 bd 84 b9 76 3d 75 97 b3 bd 85 7c 00 3e
       -0.047971733 0.060235515 -0.087691225 0.125475
000070 63 b2 08 3e ae 6f e4 3d 66 b9 96 3d fa 1f a2 3d
       0.13349299 0.11154114 0.07359581 0.07916255
000080 80 2c dd bd de 8e 96 3d 30 3b 03 3c 2e e0 cc 3d
       -0.10799503 0.073514685 0.008009717 0.100036964
000090 c4 db cd 3d be 9f 04 be 1c a5 08 3d d0 62 33 3c
       0.100516826 -0.12951562 0.033360586 0.010948852
0000a0 72 b6 b8 3d f6 92 fa bd b4 08 10 be 96 72 8a 3d
       0.09019174 -0.12235062 -0.1406582 0.06760137
0000b0 88 58 1a 3d 71 09 04 be c8 ed bf 3c 8c f4 b5 bd
       0.037682086 -0.12894227 0.023428813 -0.08884534
0000c0 d0 f8 59 bc d2 b6 f2 bd 00 c0 59 39 46 d3 4c bd
       -0.01330395 -0.118512765 0.00020766258 -0.050006174
0000d0 40 fb 2f 3b 48 43 ba 3c 2a f7 4c bd 9b d2 8b bd
       0.0026852638 0.02273716 -0.0500404 -0.06827279
0000e0 2f 1c e6 bd 4d ef c7 3d ca 5b e0 3d 18 5a 6f bd
       -0.11235844 0.0976244 0.109550074 -0.05843553
0000f0 9c ac 6a 3d 44 ed 3a 3d 4c 7e 57 bd ac 84 8f 3d
       0.05729352 0.04563643 -0.05261068 0.07007727
000100 b4 6c c8 3c 37 c1 55 bc 50 cf b8 3d fd c1 05 3c
       0.024465896 -0.013046554 0.09023917 0.008163926
000110 c7 75 ed bd 46 f6 63 3c ce e8 54 bd b1 17 0c 3e
       -0.1159473 0.013913697 -0.051979832 0.13680913
000120 97 3b b6 3c ca c0 87 3d f0 24 3b bc f7 94 0a 3e
       0.022245212 0.066285685 -0.011422381 0.13533388
000130 9a 45 ba bd 84 66 63 3d 62 43 77 bd 93 29 dd bc
       -0.09095307 0.05551769 -0.060366996 -0.026997363
000140 22 f2 86 3d 37 0d 53 3d 01 02 79 bb 0c 71 9b bd
       0.06589152 0.051526275 -0.003799558 -0.07589921
000150 73 9b b6 bd a8 ca 9a bd c0 28 d2 bb 18 10 00 bd
       -0.08916368 -0.07558185 -0.006413549 -0.03126535
000160 aa 93 07 3e fe ca b8 bd c6 4a 98 3d 80 10 03 be
       0.13239923 -0.09023093 0.07436137 -0.12799263
000170 f0 6b a3 3d 00 ed 6d 3d b1 c9 3f bd c0 c2 65 bd
       0.07979572 0.05808735 -0.046823207 -0.05609393
000180 cd 42 c9 3c ab f7 db bd e8 85 95 3c 5e 9d 51 bd
       0.024567986 -0.10740598 0.018252328 -0.051175468
000190 01 2a f6 bd 38 ec e7 3c b0 17 8d bd 95 22 b2 bd
       -0.1201973 0.02831088 -0.06889284 -0.08698002
0001a0 4c d1 e0 bc 17 15 97 bd da b1 f1 3d bb b8 e5 bd
       -0.02744355 -0.073770694 0.118015006 -0.11216875
0001b0 52 5b 94 3d 69 8c ff bd 5e 23 d3 bd b4 5a 8e bd
       0.072439805 -0.12477953 -0.1030948 -0.06950894
0001c0 42 da 2b bd 36 ba fd 3d e2 ec 81 bd 38 2e dc 3c
       -0.041956194 0.123890325 -0.0634401 0.026877508
0001d0 44 67 5b 3d 00 0e cc 39 e6 84 b8 3d 00 00 8a 39
       0.05356528 0.00038920343 0.09009723 0.0002632141
0001e0 00 da ed 3a 4a b2 e8 3d 20 7d d1 bb 60 25 60 bc
       0.0018146634 0.11362131 -0.00639309 -0.013680786
0001f0 60 67 f3 bb 80 c5 b1 3b 74 e3 f5 bd 66 40 e9 3d
       -0.0074280947 0.005425155 -0.12006274 0.11389236
000200 3c ac d9 bd 1c 4d f0 bd a4 f4 b4 3d 72 9f c2 bd
       -0.10628554 -0.117334574 0.08835724 -0.09503068
000210 a0 4a 6e 3c e0 db 47 bc 92 0c 01 be 7c 93 8b 3d
       0.014544159 -0.012198418 -0.12602451 0.0681524
000220 d4 fe 99 3d 9e 46 c9 bd 40 42 13 bd 26 99 1b bd
       0.07519308 -0.09827922 -0.035951853 -0.03798785
000230 20 08 0c be cc c7 bb 3d d6 f3 fd 3d 26 e1 82 3d
       -0.13674974 0.091689676 0.12400024 0.063906
000240 80 3e a0 3d 93 42 00 3e 40 d1 67 bd 39 92 ed bd
       0.07824421 0.12525396 -0.05659604 -0.116001554
000250 18 31 48 3d f0 b6 9e 3d 88 f4 03 3d f6 cf b6 3d
       0.048874944 0.07749736 0.032215625 0.08926384
000260 0f b4 01 3e be 0a a6 3d 3c 66 94 3d 58 3e e7 bd
       0.12666343 0.08107518 0.07246062 -0.11291188
000270 00 3a ef 39 b1 bd e2 bd 78 a3 09 be 44 b8 58 3d
       0.00045628846 -0.11071337 -0.13441265 0.052910104
000280 7c de d5 bd 66 ea b4 bd 00 7c e5 bb 40 51 2f bc
       -0.10442826 -0.088337705 -0.0070033073 -0.010700524
000290 68 15 c8 3d eb ba df bd 7d 81 8d bd 44 20 20 3d
       0.09769708 -0.10924324 -0.069094636 0.03909327
0002a0 78 59 66 3d 00 34 bf 3b 50 38 18 bc f7 a1 cb bd
       0.056237668 0.0058350563 -0.00929077 -0.09943002
0002b0 62 90 eb bd 26 24 b1 3d 20 8e 5e bd 24 d2 5e 3d
       -0.11502148 0.08649473 -0.05433476 0.054399624
0002c0 06 7c ff 3d 00 65 a0 ba a2 52 c2 3d 6c 21 8c bd
       0.124748275 -0.0012237132 0.09488417 -0.06842312
0002d0 30 0b 86 bd a2 a5 bf bd 13 d2 c0 bd 00 50 59 bb
       -0.065451026 -0.09357764 -0.094150685 -0.0033159256
0002e0 05 ae 08 be d5 14 02 be b0 f7 81 bc 35 05 97 bd
       -0.13347633 -0.1270326 -0.015865177 -0.0737404
0002f0 0e 3b b5 bd d8 9a fc bd 32 98 89 3d 62 7f a5 bd
       -0.088491544 -0.123342216 0.06718482 -0.08080937
000300 0c 7b 6b 3d f4 21 92 3d c6 0b f9 3d 96 23 8a 3d
       0.057490394 0.07135382 0.12160449 0.06745069
000310 d2 8a e2 3d 13 bb ee bd 6e 29 59 bd ab e2 b3 bd
       0.11061634 -0.11656775 -0.053018026 -0.08783468
000320 c0 9a 2a 3c 4c 0b d0 bd 3d 51 0b 3e 3c a4 83 bd
       0.010412872 -0.10158405 0.13605209 -0.064278096
000330 5a 33 9c 3d 2e 37 b9 3d 96 49 8e 3d 16 0b fa bc
       0.07626982 0.09043728 0.06947629 -0.030522864
000340 b5 4b 10 3e 9f a5 85 bd 92 6c b7 3d 34 ec 7a bd
       0.1409138 -0.0652573 0.08956255 -0.061260417
000350 0a 2c d0 3d 3d 1c b2 bd 6b 8d 59 3d 68 f5 23 3d
       0.1016465 -0.08696792 0.053113382 0.04002896
000360 56 63 f1 3d d3 dc c6 bd 02 a0 62 bd 6e df 86 3c
       0.11786525 -0.097100876 -0.055328377 0.016463961
000370 18 f3 26 3d a7 d1 b6 bd fe 53 63 3c 75 8b aa bd
       0.040759176 -0.08926707 0.013875006 -0.083273806
000380 36 ad 8f 3d fe 46 9d 39 b0 13 ac bd 46 b9 f5 bd
       0.07015459 0.00029998267 -0.084021926 -0.11998229
000390 10 78 32 3c 2a 2b c4 3d 94 79 a1 bd 62 33 be bd
       0.010892883 0.095785454 -0.07884517 -0.09287144
0003a0 0e b9 96 3d 2d 73 d2 bd 19 11 fd bd 41 6f a5 bd
       0.07359515 -0.10275874 -0.12356777 -0.080778606
0003b0 1f d0 94 bd 08 ef ee bd 99 f0 04 3e fd 9f a7 bd
       -0.072662584 -0.11666685 0.12982406 -0.08184812
0003c0 6c a8 cd 3d 7e d3 0c 3e b5 48 db bd a9 27 98 bd
       0.100418895 0.13752553 -0.10707227 -0.074294396
0003d0 80 2a a4 bb e1 44 a5 bd cb cf 86 3c 86 a3 e8 3d
       -0.005009949 -0.08069778 0.016456505 0.113593146
0003e0 db 21 db bc 40 c5 10 3b 1a d0 db bd 30 97 6d bc
       -0.026749542 0.0022090226 -0.107330516 -0.014501378
0003f0 3c bc ac 3d b4 a8 07 bd fd a0 0b 3e 5f 75 d1 bc
       0.0843434 -0.033119872 0.13635631 -0.025568662

16.bias f4 [50]
000000 e6 1c 5c bd db e4 23 3e cc 3b 9f 3d a0 c8 1e 3e
       -0.053738497 0.1600527 0.07775077 0.1550622
000010 fa 40 c3 b9 2e 71 98 3d 70 d2 13 bc 63 89 2a bd
       -0.0003724171 0.07443462 -0.00902234 -0.04163493
000020 fc 48 06 bd 78 e5 ce bd 94 a3 73 3d 73 68 b6 bd
       -0.032784447 -0.101023614 0.059482172 -0.08906641
000030 0c 8b 13 3e 9d 0d 73 bd e8 eb b1 3c 47 8b 12 3e
       0.14408511 -0.059339155 0.021718934 0.14310943
000040 15 91 17 bd c0 1d 6b 3d e9 25 e2 bc e4 7b 1f 3d
       -0.037003595 0.05740142 -0.027605968 0.03893651
000050 00 3e 53 ba bb dd cb bc 09 71 bd bd b8 e1 df bd
       -0.000805825 -0.024886003 -0.09250075 -0.10931724
000060 0d 51 0d 3d f6 47 01 3e be 47 35 bd 51 fd aa bd
       0.034501124 0.12625107 -0.04425787 -0.083490975
000070 10 27 8d bd 85 34 b3 3d 6f 3e f7 3d 78 68 08 3e
       -0.06892216 0.08750252 0.12072455 0.13321102
000080 3d 03 fd 3d ca 04 3a 3d 5c 5e d1 3c 4c 57 99 3d
       0.12354133 0.045414723 0.02555769 0.07487354
000090 70 e6 91 3c 79 02 fe 3d ab 87 ec bd 6e cb 88 bd
       0.017810076 0.12402815 -0.11549314 -0.06679426
0000a0 dc 41 e2 3d ba f3 a2 3b 93 a4 cf 3d 3a 42 89 bd
       0.11047718 0.004972902 0.10138812 -0.06702085
0000b0 8e 92 b3 3d 14 26 c5 3d 6a 3b a5 bd b2 22 16 3d
       0.087681875 0.096264035 -0.08067973 0.03665418
0000c0 63 eb ad bd 11 fb 8e bd
       -0.08492162 -0.06981481

16.weight f4 [50, 50]
000000 e6 1a 76 bd 10 24 00 bd 08 39 d5 bd 2e 9b e7 bd
       -0.060084246 -0.031284392 -0.104112685 -0.11308895
000010 37 a6 08 3e a0 6f 20 bd 01 56 04 3e af 89 f8 bd
       0.13344656 -0.039168954 0.12923433 -0.12135636
000020 86 a5 e7 bd 7a 7a 9b 3d 43 1a 0a 3e 6a ae e1 3d
       -0.11310868 0.0759172 0.1348658 0.11019595
000030 97 31 ea bd 90 89 26 3c ee 46 f1 bd 44 ae a3 bd
       -0.1143524 0.010164633 -0.11781107 -0.07992223
000040 c3 c7 92 bd 24 e8 0c be 86 0c fd bd a5 b6 ee bd
       -0.07167008 -0.1376043 -0.12355904 -0.116559304
000050 78 2f 82 3c b5 03 a9 bd 58 dc 99 bd e8 ba c6 bd
       0.015891775 -0.0825266 -0.0751273 -0.09703618
000060 e0 6b a8 bc 74 6f 93 3d 66 6d f6 bd 30 c0 04 3c
       -0.020559251 0.07198992 -0.12032585 0.008102462
000070 30 57 9a bc 3c 02 72 3d f0 b1 f8 bd 8c cb 26 3d
       -0.018840402 0.059084162 -0.12143314 0.04072146
000080 ab a8 10 be da b0 9b 3d 6e 03 ef bd f8 20 e8 bc
       -0.14126842 0.07602091 -0.11670576 -0.028336033
000090 b4 17 15 3d 80 2c 1a 3b 1d a8 00 3e eb f6 d1 bd
       0.03639956 0.002352506 0.1256413 -0.10252174
0000a0 70 f0 aa bc c8 57 b9 bc 06 40 b0 bd ba a9 10 be
       -0.020866603 -0.022624865 -0.086059615 -0.14127246
0000b0 c8 aa bf 3c 75 90 0a 3e 78 77 73 bd a0 30 38 bc
       0.023396865 0.13531668 -0.059440106 -0.011242062
0000c0 b9 97 fd bd ca 77 00 bd 91 cd 0f 3e 0c 90 7e 3d
       -0.123824544 -0.03136424 0.14043261 0.062149093
0000d0 61 2f 10 3e 52 cb 03 be 51 15 28 bb cb 24 07 3e
       0.14080574 -0.1287053 -0.0025647471 0.13197629
0000e0 b3 40 d9 bd 54 ae 46 3d 22 eb a9 3d 48 5f 08 bd
       -0.106080435 0.048506096 0.08296801 -0.033293992
0000f0 5c e6 a3 3d a3 a8 a2 bd 7a 1a e9 3c fe c7 80 3d
       0.08002922 -0.07942321 0.028455008 0.062881455
000100 7c ca 4c 3d aa bd 87 3d 0c 18 06 be 09 50 b0 3d
       0.04999779 0.066279724 -0.1309511 0.086090155
000110 e6 81 1f bd 39 04 09 bc be c8 9c 3d 3f b7 14 3e
       -0.03894224 -0.008362823 0.07655476 0.14523028
000120 61 e8 aa 3d 81 e3 d2 3d b4 74 3c 3d 5d f2 8e 3d
       0.08345104 0.10297299 0.046009734 0.06979821
000130 21 e8 e8 3c dc 92 7a 3d 38 58 6d 3d a9 1d 2b 3b
       0.028431 0.061175212 0.05794546 0.0026110208
000140 16 ee 3a 3e b3 9a 00 3d ba 4e 11 3d 5e af be 3c
       0.18254885 0.031397533 0.03547547 0.023276981
000150 d1 88 28 3c 84 cf b3 bc e6 e8 78 3d 8e aa d4 bd
       0.010286526 -0.021949537 0.060768984 -0.10384093
000160 8a fa e2 bd d3 7e 15 3d 94 b4 8d bc 14 86 c9 bc
       -0.11082943 0.036497902 -0.01729802 -0.024600066
000170 48 ee 28 bd 58 5d 52 3d 82 72 e9 3d 04 02 c6 3d
       -0.041242868 0.05135855 0.11398794 0.09668353
000180 8f 43 db bd 2b 51 99 bd e3 94 f0 bc 50 ca 0c 3c
       -0.10706245 -0.07486185 -0.02936787 0.008593157
000190 3f 3a 06 3e 40 d6 f2 3b 4c 30 92 bc 28 d8 72 bd
       0.13108157 0.0074107945 -0.017845295 -0.059288174
0001a0 ce 37 63 3c 09 f2 a9 bd d0 d9 50 3d 80 99 07 be
       0.013868285 -0.08298118 0.050988972 -0.1324215
0001b0 ee dc 48 bd 54 a2 02 3d 04 87 0b 3d 10 d8 11 3c
       -0.04903882 0.03189309 0.034064308 0.008901611
0001c0 f5 e0 ae 3c 3d f1 2b 3d 7a 7b f7 3d 01 75 9a 3d
       0.021347502 0.04197811 0.12084098 0.07541848
0001d0 3c 21 d7 bd 00 a9 65 bd 60 2a d8 3b 76 a2 a8 3d
       -0.10504386 -0.056069374 0.0065968484 0.08234112
0001e0 80 31 70 bb ab 88 0e 3b 8b 25 fa 3d b2 69 f8 bd
       -0.0036650598 0.002174894 0.12214192 -0.12129535
0001f0 38 1f d7 bc dc 4d 09 be d0 1e 9a bd 9c 09 82 3d
       -0.026260003 -0.13408607 -0.07525408 0.06349489
000200 e6 ec c0 3d 78 94 d7 3c 2e 55 04 be 47 82 c7 bd
       0.09420185 0.026315913 -0.12923118 -0.09741645
000210 3b 5b d1 3d 19 56 db bd 29 b7 6d bc d8 99 b7 3c
       0.10222479 -0.10709781 -0.014509001 0.022412226
000220 86 5f 90 bd c7 9f f4 3d 38 44 0b 3d 08 b7 c2 bc
       -0.0704947 0.119445376 0.034000605 -0.023768917
000230 01 46 02 bc c2 14 15 be 12 91 b3 3d 73 78 10 be
       -0.007951261 -0.145587 0.08767904 -0.14108448
000240 0a aa 87 bd d5 85 da bd 9c 53 11 be da 26 93 3d
       -0.06624229 -0.10670058 -0.1419205 0.07185145
000250 06 24 ab 3d e8 78 49 3d 7a 54 e7 3d 7d 76 9b 3d
       0.0835648 0.04918757 0.112954095 0.07590959
000260 70 04 e0 3c 32 2c 25 bd 58 f6 bc bd 2b 17 8f 3d
       0.027345866 -0.04032535 -0.09226674 0.06986841
000270 38 31 d4 3d 42 23 2f 3e 34 0d fe bc 80 b0 ee 3b
       0.1036095 0.17103294 -0.031012155 0.007284224
000280 91 1c ad bd f4 99 65 3d fb 43 25 3e d7 c9 8c 3d
       -0.08452714 0.056055024 0.16139214 0.068744354
000290 ea 65 4b bd f0 f9 85 bc 00 de 0e 3d 17 c7 46 3b
       -0.04965774 -0.016354531 0.034879684 0.003033107
0002a0 0a 2d e4 bd da ad 9c 3d 5e dd 90 bd 3e bf 06 3e
       -0.11141403 0.07650347 -0.070734724 0.1315889
0002b0 23 01 2d 3e 3b 48 94 3b 00 00 e1 bc cb e5 b6 bc
       0.16894965 0.004525212 -0.02746582 -0.02232637
0002c0 ae a1 f7 bd 4e a7 0b bd 63 77 d6 3d 0b 35 65 bd
       -0.12091385 -0.0340951 0.1047199 -0.05595879
0002d0 3a 57 06 3e 2d 34 92 3d f8 64 99 3d 9e 5b e7 3d
       0.13119212 0.07138858 0.074899614 0.112967715
0002e0 6f b1 6b 3d 69 bb f7 bd b6 36 ac bd 13 0c 75 3d
       0.05754226 -0.120962925 -0.08408873 0.059825968
0002f0 a6 3c f2 bd ae ae 14 bc 60 0e 38 3e 50 11 c4 3d
       -0.11827974 -0.00907485 0.17974234 0.095736146
000300 10 c9 f2 3c 7c 21 f8 bc 80 28 06 bd 98 96 96 bd
       0.02963689 -0.030289404 -0.032753468 -0.07352942
000310 48 4c 21 3d e8 53 df 3d 32 29 6d 3d a7 9f 01 be
       0.039379388 0.10904676 0.057900615 -0.12658559
000320 aa a0 81 bd 5b a3 a6 3d 32 e9 62 bd b0 db 36 3d
       -0.06329472 0.08136626 -0.055398174 0.044643104
000330 fe a6 52 bc d7 bd 8d bd d4 de 20 3c be cf f9 3d
       -0.012857197 -0.06920975 0.009818751 0.12197827
000340 f2 e7 af bd 00 c2 aa bd 1c 57 36 bd 10 d2 cc 3d
       -0.08589162 -0.08337784 -0.044516668 0.10001004
000350 11 07 bc 3d 36 70 9f bd 4c 1c 2c 3d 0f 58 a5 3d
       0.09181035 -0.077850744 0.042019174 0.080734365
000360 ec bd d5 3d 72 fc 38 3d bf b5 d5 bd f8 7a ea bd
       0.10436615 0.045162626 -0.10435056 -0.11449236
000370 38 50 cb bc 58 dc b8 3d 48 06 79 bc a6 aa 23 3e
       -0.024818525 0.09026402 -0.0151992515 0.15983066
000380 38 f9 e4 bd a8 31 d4 bd 4d b6 d6 3c 56 ce d6 3d
       -0.11180347 -0.10361034 0.026209975 0.10488574
000390 83 f2 e2 3c 77 d4 e6 bd 25 89 0e 3e fe 96 d7 3d
       0.02770353 -0.11270993 0.13919504 0.10526846
0003a0 08 e3 5f 3d d0 5c aa 3d b7 d2 ab 3d b1 31 02 3e
       0.054659873 0.08318484 0.083898 0.12714268
0003b0 ba 55 8a bc bb ee 93 3c e4 d2 7f 3d d6 64 a3 3d
       -0.01688658 0.018058171 0.06245698 0.07978217
0003c0 fc 31 c2 3d 54 de a3 bc 4c 0e 29 bd 0d 8c 84 bd
       0.0948219 -0.020003475 -0.0412734 -0.06472025
0003d0 48 3e 3e bd c9 ab a3 bd d6 7a b0 bd bb b7 c4 bd
       -0.046446115 -0.0799175 -0.08617179 -0.09605356
0003e0 ba 6b 59 3d 80 e4 ac 3d ae a3 82 3d e3 fd 09 3e
       0.05308125 0.084420204 0.06378876 0.13475756
0003f0 d0 dd 0e 3d f1 d5 0c 3e 77 0d be bd 70 1d ac 3d
       0.034879506 0.13753487 -0.09279912 0.08404052

18.bias f4 [10]
000000 42 d3 e8 bd 63 71 f9 3d 48 33 ee bd 1a e9 41 bd
       -0.11368419 0.1217983 -0.11630875 -0.047341444
000010 9a d6 1c 3d 3a 76 90 bd d3 d7 ac bc 85 4c 07 3e
       0.038290597 -0.070538 -0.021099007 0.13212784
000020 af f9 a3 3d da c9 68 bd
       0.08006608 -0.056833126

18.weight f4 [10, 50]
000000 d4 ea 5a 3d 63 e8 03 3e 77 ac 90 3d 67 2d 00 bd
       0.053446606 0.12881617 0.07064145 -0.0312933
000010 7b f1 dd 3d 87 70 91 bc 66 a2 ed 3d d2 d3 07 bd
       0.10837074 -0.017753853 0.11603241 -0.033160992
000020 85 07 cd 3b b8 8c b7 bd af e7 02 be a0 b6 b3 3d
       0.006257 -0.08962387 -0.12783693 0.08775067
000030 48 a9 d0 3b 11 8b 01 be 66 9f 8c bd 17 8c e6 3d
       0.006367836 -0.12650706 -0.0686634 0.11257189
000040 92 77 15 bc 6e c4 e2 bd 27 db 0d 3e 0e e7 d9 3d
       -0.009122746 -0.11072622 0.13853131 0.10639773
000050 2e 04 d9 3d 1a 1e 9f bd 9c 4a 60 bd fa 9c ee 3d
       0.105965 -0.07769413 -0.054758653 0.11651035
000060 4f 7e c4 bc 45 a7 ff bd d8 0c 9b bc d3 8a 96 bc
       -0.02398601 -0.12483076 -0.018927023 -0.018376743
000070 94 eb 6c bd 81 2c b4 bd ca c1 e7 bd d6 07 0e 3e
       -0.057841852 -0.08797551 -0.11316259 0.13870177
000080 65 a9 26 bb da 71 bf 3c f0 9b 7b 3d 8a e9 9f 3d
       -0.0025430557 0.023369718 0.06142801 0.07808216
000090 e8 fb af 3c 0f 26 17 bd 30 b2 2b 3d 79 ee 0a be
       0.021482423 -0.03690153 0.04191798 -0.13567533
0000a0 55 5c d5 bd 33 56 06 3e af 49 ca 3d 0e ac a2 3c
       -0.104180016 0.1311882 0.09877335 0.019857433
0000b0 f4 fe c6 3d 66 c6 ae 3d 96 81 fc 3d c3 b3 a5 bd
       0.09716597 0.08533935 0.12329404 -0.080909275
0000c0 60 e6 cc bd 10 22 73 bc 54 86 45 3d 83 12 bb bc
       -0.10004878 -0.014839664 0.04822381 -0.022835976
0000d0 b2 50 82 bd c0 1a 51 3c c4 05 eb 3d af f9 5b 3c
       -0.06363048 0.012762725 0.11475709 0.013426228
0000e0 4a 12 c4 bd cb 3f bb 3c 5a f5 c7 3d 5c 40 14 be
       -0.09573801 0.022857567 0.09763594 -0.14477676
0000f0 26 4b 27 3d ad 34 02 3d 3a 71 ae 3d 95 98 e6 bd
       0.04084315 0.031788517 0.0851769 -0.112595715
000100 22 e4 a2 3d 55 81 a6 3c 41 a5 2b bd 59 e2 00 be
       0.07953669 0.020325342 -0.041905645 -0.12586345
000110 9d 27 6d 3d 64 21 0f 3d 5a 38 a1 3d 3e 9f d3 3d
       0.057899106 0.034943953 0.07872076 0.103331074
000120 d0 0a cb 3d 96 fa c7 bd 8e dc d5 3d 7c ab ad 3d
       0.09914172 -0.09764592 0.10442458 0.08479974
000130 f4 e1 c8 3d b3 e6 09 be 55 ae 60 bc f2 fc 9b 3d
       0.09808722 -0.13466911 -0.013713439 0.07616605
000140 66 1b 8a 3d 78 1a a1 3c 45 5a 06 bd 39 68 96 bd
       0.06743507 0.019665942 -0.03280093 -0.07344098
000150 17 06 08 3d a7 e4 f6 bc cc 0f 33 3d 8c 23 f9 bc
       0.033208933 -0.030138327 0.043716237 -0.030412458
000160 b0 09 4a 3d 31 48 fc bd 68 08 ac bd 33 a8 a3 bd
       0.049325645 -0.12318457 -0.08400041 -0.07991066
000170 31 0b 7f 3d 59 aa 0f 3e 6c bf 65 3d a3 e8 a9 bd
       0.062266532 0.14029826 0.056090757 -0.08296325
000180 94 de ad bc 7f bf 1d be a4 8c 85 bd 0c b1 b9 3d
       -0.021224298 -0.15405081 -0.06520966 0.09066972
000190 06 61 e7 3d b3 d7 a9 bd 9e b1 a7 3d 25 d3 8e bd
       0.112978026 -0.082930945 0.08188175 -0.069738664
0001a0 6e e7 a7 3d 91 4a bf 3d 44 6a 25 3d 6b c4 66 bc
       0.081984386 0.09340394 0.040384546 -0.014084916
0001b0 af f5 9c bb 2e 41 ce bd 94 98 ee 3d a0 8d ce 3d
       -0.00479003 -0.10071026 0.11650196 0.100856066
0001c0 54 12 bb 3d d9 09 8b bc 0b ae 9b bd c2 43 13 be
       0.09134355 -0.01697247 -0.076015554 -0.14381316
0001d0 5e f4 2d 3d d2 ee 23 be 11 19 ba bd a8 bb 36 bd
       0.042469375 -0.16009071 -0.09086812 -0.044612557
0001e0 9a 49 b9 3d 67 ac 97 bd 60 15 ab 3d b4 f8 d6 bc
       0.090472415 -0.0740593 0.08353686 -0.026241638
0001f0 6a 2f cc bc 7f a4 c5 3a 2e 12 f3 3d a8 de f5 3c
       -0.024924953 0.0015078931 0.11868702 0.030013397
000200 74 5e f1 bd 65 c6 80 3d fe 1d af bd d6 01 c0 3d
       -0.11785594 0.06287841 -0.085506424 0.0937535
000210 77 bd 08 be 7d 0d f0 bd 40 4a d8 bc 83 0f 23 bc
       -0.13353525 -0.11721323 -0.026402593 -0.009952429
000220 4a 93 f6 3d f3 48 6d bd ec f2 0e be e8 c2 b9 bd
       0.12039812 -0.057930898 -0.13959855 -0.090703785
000230 37 4f 10 be d6 df 02 be ce 58 15 3d f7 d7 9c 3d
       -0.14092718 -0.12780699 0.036461644 0.076583795
000240 50 67 86 bc 8c a6 74 3d 02 27 d6 bd 9e 0f 69 bd
       -0.016406685 0.059729144 -0.10456659 -0.05689966
000250 41 44 e4 bd 62 20 e9 3d 72 80 e0 3d 2d 25 7f bd
       -0.11145831 0.1138313 0.10961999 -0.062291313
000260 31 f4 98 bc 1d e2 20 bc 22 e7 22 bd 6f e1 d9 39
       -0.018671127 -0.009819535 -0.039771207 0.00041557426
000270 e0 cb 5c 3d f2 7d 2f bd b6 21 17 3e d2 f3 67 bd
       0.053905368 -0.04284472 0.14758953 -0.05662901
000280 f6 f7 c9 3d cc a0 c4 3d 15 37 99 bd f9 70 3e 3d
       0.09861748 0.09600982 -0.07481209 0.046494458
000290 54 7b fa bd 1f 9a dc bd fc 6b a9 bd 98 35 ac bd
       -0.12230554 -0.10771584 -0.082725495 -0.0840866
0002a0 f9 cc bb 3d 18 f5 c5 3d 10 18 68 bc db 77 20 be
       0.09169955 0.096658885 -0.014165893 -0.15670721
0002b0 6e dd ed 3d 46 d8 2f bd c2 79 f4 bb 5f 22 27 3d
       0.116145 -0.042930864 -0.0074608037 0.040804263
0002c0 2c d8 eb bc 2e cc 03 bd 6c 3b c2 bd 45 cd 1b be
       -0.028789602 -0.032177143 -0.0948399 -0.15215023
0002d0 49 c6 14 3a 21 79 e3 bd bf ee d5 3d b8 04 02 3e
       0.0005675299 -0.11107088 0.10445928 0.12697113
0002e0 08 73 0e 3d 5d 7d cd 3d 38 ca b7 3d 0c e6 f3 bd
       0.03477767 0.10033677 0.08974117 -0.11909112
0002f0 60 75 cc 3c 4a 6f 5b 3d c6 2a 7c bd 1f 6b 95 3d
       0.024958313 0.05357293 -0.06156423 0.07295822
000300 6c ba 12 3d 3c 8e 81 bd a3 7a 4e bd 21 f4 05 3e
       0.035822317 -0.06325957 -0.050409924 0.13081409
000310 e0 9b e5 bc 76 bf db bd 1c 3e b8 bd 06 21 44 bd
       -0.028028429 -0.10729878 -0.089962214 -0.047883056
000320 10 42 2c 3d db 6b 23 3e 1b d7 ee 3d fb 0c c8 3d
       0.04205519 0.15959112 0.11662122 0.09768101
000330 cc 00 27 bd c0 2f cc 3d e4 d2 49 3d 82 c3 d9 3d
       -0.040772244 0.09970045 0.049273387 0.10632993
000340 49 c0 7e 3d 72 cc 62 3d 6a 98 d9 bd fc e5 d6 3d
       0.062195096 0.055370755 -0.10624774 0.10493085
000350 86 e5 e8 bc 8f dc 83 bd cc 38 00 3d 23 50 d1 3d
       -0.028429758 -0.064385526 0.031304166 0.10220363
000360 8e c4 87 3d f4 d5 b4 3d ef 53 dc 3b 3d 8c 0d be
       0.06629287 0.08829871 0.006723873 -0.13823028
000370 fc b6 95 3d 71 b4 20 3d cc 0a bd 3d 1e 35 dc 3d
       0.07310292 0.039234582 0.09230575 0.10752319
000380 d8 11 af bc 57 96 ba 3d 3c d0 a4 3d 86 eb 6a 3c
       -0.021370813 0.09110706 0.0804753 0.01433838
000390 05 79 5a 3d 80 55 de 3d 17 fb f8 bc 9e c4 8a 3c
       0.05333807 0.108561516 -0.030393166 0.016939458
0003a0 68 71 3b bd b4 e5 9e bd bb 4d c7 3d bd 0c 2e bd
       -0.04576245 -0.07758656 0.09731623 -0.042492617
0003b0 7b 21 0d be 56 2c 80 3d a0 a4 70 bc 27 e8 03 be
       -0.13782303 0.062584564 -0.014687687 -0.12881528
0003c0 1b fc ea bc 7a 6c c4 bd 82 70 47 3d 3e df 2e bd
       -0.028684666 -0.09591003 0.04869128 -0.04269337
0003d0 8c 07 00 bd d5 59 c5 bd 09 9e 04 3e 17 4a 0d 3e
       -0.031257197 -0.09636275 0.1295091 0.13797794
0003e0 a2 3e ab bd 8a e7 ba 3d d0 27 6d bc 91 5a 22 3d
       -0.08361556 0.09126194 -0.014474824 0.039637152
0003f0 64 1b a6 3d 58 6d 5d bd 64 91 09 be d7 51 c7 3d
       0.08110693 -0.054059356 -0.13434368 0.097324066
