root/tmva/sofie/input_models/LSTM_d10_L20_h8_B1.onnx (onnx, 3529 bytes, 6 tensors)

fc.weight f4 [2, 8]
-0.068886705 0.0080645885 -0.3060467 -0.103519656 -0.06247503 0.28054363 0.34735298 0.18085179
0.06728268 -0.027010439 0.1591028 -0.18937232 0.05098091 -0.10418233 -0.17503451 -0.3388319
00000000: 7914 8dbd 5621 043c 27b2 9cbe 1d02 d4bd
00000010: d1e5 7fbd 6aa3 8f3e 40d8 b13e 3631 393e
00000020: 80cb 893d ff44 ddbc d8eb 223e d1ea 41be
00000030: 5cd1 503d 8c5d d5bd 3f3c 33be 607b adbe

fc.bias f4 [2]
-0.2073952 0.07914289
00000000: 685f 54be ab15 a23d

75 f4 [1, 32, 10]
-0.16230305 0.07764773 -0.07649497 0.1398059 -0.14957654 -0.15264708 -0.18512328 -0.12208269
-0.15031593 -0.11382704 0.030959304 -0.2359974 0.070322394 -0.034259573 0.18631275 0.29834414
-0.3097763 -0.31312355 -0.09515637 0.08729455 -0.32380006 0.31444502 -0.2749307 -0.3270517
-0.23046234 -0.26679283 -0.31678882 0.30517358 0.11499801 -0.27774963 -0.32226375 -0.15612675
-0.2012783 -0.2850149 -0.117237486 -0.30794802 -0.32402715 0.0526184 -0.058527473 -0.15079476
-0.29663798 0.33326024 -0.15106614 -0.09603029 0.13580507 -0.14076327 -0.042787354 0.25530744
0.2961436 -0.2470832 -0.15615381 0.13639495 -0.27669123 -0.20842981 0.1746946 0.3383682
-0.014897267 -0.26902843 -0.20074363 -0.08372408 -0.057519488 0.20668486 -0.27357987 0.073317684
0.0049671326 0.18275973 0.3308378 0.2030679 -0.32577586 -0.10240146 -0.12973714 0.22578564
-0.109362684 0.15006499 0.21947971 -0.09921591 0.24593394 0.13313001 0.31367975 -0.058700696
-0.3164617 -0.17936523 -0.29672846 -0.31423816 0.18278557 -0.27992406 -0.34383887 0.098004274
0.28243786 0.039656684 -0.31256992 0.30944362 0.10811214 0.07932412 -0.21080437 -0.18459156
0.044984553 0.3122272 0.10538107 0.052314773 -0.08539268 0.23506427 0.06295348 0.05884606
-0.3203691 -0.03314015 -0.019390037 -0.30753386 0.2337701 0.02313331 0.23019643 0.34896696
-0.27266756 0.19712557 -0.32153878 0.17519088 0.059764147 0.2617761 0.2839908 -0.18039499
0.17154627 -0.08234238 -0.011252365 0.113580026 -0.081786506 0.30444455 0.16362451 0.2636607
-0.26107085 0.32834905 -0.1880385 -0.1923926 0.0267568 -0.3293653 0.34744495 0.16684003
-0.12757999 -0.03981461 -0.23615377 0.21123798 0.2136111 -0.11984418 -0.12394781 -0.18446727
0.33019266 -0.26882836 0.09114728 -0.29393187 -0.09282405 -0.2818514 0.26909986 0.08892475
-0.01294747 -0.13877684 -0.040248215 0.19402415 -0.32174748 -0.00010709514 0.027879255 0.08400293
0.17706805 0.042937946 -0.22184618 0.2774045 0.11262544 -0.073558174 0.1569971 0.2195667
0.015622825 0.3005504 -0.3272994 -0.2434375 -0.050633073 -0.30350104 -0.038136028 0.19542195
0.30267856 -0.30579308 -0.15756616 -0.28782406 0.23915483 0.20646392 -0.28716165 0.1301601
0.24585558 -0.09678707 0.17126288 -0.18293081 -0.2116267 0.024666991 -0.2314258 -0.175261
0.25299838 -0.29500335 0.21601523 0.10657813 -0.15412259 0.3014028 0.3012483 -0.056262586
0.22427775 0.10796767 0.21280833 0.019560479 -0.268379 -0.23355111 0.22844738 0.16864614
0.30236983 0.13151456 -0.031029226 -0.20350479 -0.317796 -0.1468124 -0.057961695 -0.04621014
-0.05962666 0.02887215 0.051753506 0.07208995 -0.16858503 -0.25460064 -0.3133638 -0.11965233
-0.3351027 -0.24638192 0.30017304 -0.095619105 -0.16864981 -0.015897242 0.2520094 0.0084284
0.22383365 -0.33015072 -0.08315649 -0.06400593 0.19863072 0.19853319 0.2802107 -0.2880642
0.09351336 0.028070264 0.21243103 -0.1796353 0.18450053 0.10030132 -0.1511354 0.34494713
0.3071629 -0.12544402 0.036990687 -0.3396948 -0.028110556 0.17283218 -0.3436659 0.20515518
00000000: c532 26be c605 9f3d 65a9 9cbd 4729 0f3e
00000010: 982a 19be 844f 1cbe f590 3dbe 7d06 fabd
00000020: 6bec 19be 271e e9bd 5e9e fd3c 4da9 71be
00000030: 3005 903d c453 0cbd c5c8 3e3e 90c0 983e
00000040: 009b 9ebe bb51 a0be 58e1 c2bd 7cc7 b23d
00000050: 1fc9 a5be f0fe a03e b7c3 8cbe 5273 a7be
00000060: 52fe 6bbe 1299 88be 2532 a2be b63f 9c3e
00000070: 1484 eb3d 3335 8ebe c1ff a4be b1df 1fbe
00000080: e61b 4ebe 79ed 91be 351a f0bd 5dab 9dbe
00000090: e3e6 a5be 6486 573d 81ba 6fbd f169 1abe
000000a0: efe0 97be 16a1 aa3e 15b1 1abe 87ab c4bd
000000b0: 7c10 0b3e 3f24 10be cb41 2fbd a8b7 823e
000000c0: 22a0 973e 6103 7dbe c9e6 1fbe 1eab 0b3e
000000d0: 79aa 8dbe a06e 55be 24e3 323e 993e ad3e
000000e0: ab13 74bc 18be 89be bd8f 4dbe 8877 abbd
000000f0: 8e99 6bbd 32a5 533e a912 8cbe 9527 963d
00000100: 54c3 a23b 5e25 3b3e 9263 a93e 08f1 4f3e
00000110: 18cc a6be dbb7 d1bd d0d9 04be 5a34 673e
00000120: 8bf9 dfbd a3aa 193e 4abf 603e b631 cbbd
00000130: 1bd6 7b3e 3c53 083e a29a a03e 2470 70bd
00000140: 4507 a2be 85ab 37be cbec 97be d3e3 a0be
00000150: 242c 3b3e 3552 8fbe a60b b0be 77b6 c83d
00000160: b29b 903e 0c6f 223d 2a09 a0be 656f 9e3e
00000170: e669 dd3d af74 a23d 1add 57be 9205 3dbe
00000180: b941 383d 3edc 9f3e 08d2 d73d 0448 563d
00000190: 5be2 aebd b0b4 703e c1ed 803d 9108 713d
000001a0: 6b07 a4be f7bd 07bd dbd7 9ebc 1475 9dbe
000001b0: 6e61 6f3e 1182 bd3c 9db8 6b3e ccab b23e
000001c0: 159b 8bbe 49db 493e bba0 a4be 3d65 333e
000001d0: 40cb 743d 8407 863e 3e67 913e 77b9 38be
000001e0: d3a9 2f3e 1fa3 a8bd d75b 38bc a59c e83d
000001f0: af7f a7bd 28e0 9b3e 2f8d 273e 89fe 863e
00000200: 14ab 85be 5e1d a83e 2a8d 40be 9102 45be
00000210: 1431 db3c 92a2 a8be 4ee4 b13e 1dd8 2a3e
00000220: 54a4 02be a514 23bd 4bd2 71be c54e 583e
00000230: debc 5a3e de70 f5bd 59d8 fdbd fde4 3cbe
00000240: 030f a93e dfa3 89be 6dab ba3d 3d7e 96be
00000250: 891a bebd d44e 90be 75c7 893e 2e1e b63d
00000260: a021 54bc 841b 0ebe 50db 24bd 44ae 463e
00000270: 16bc a4be 4498 e0b8 0963 e43c ba09 ac3d
00000280: 5451 353e b3df 2f3d a52b 63be f607 8e3e
00000290: 2ba8 e63d aba5 96bd d9c3 203e 18d6 603e
000002a0: e1f6 7f3c bee1 993e c993 a7be ae47 79be
000002b0: a064 4fbd 7d64 9bbe 8634 1cbd b11c 483e
000002c0: aff8 9a3e e990 9cbe 0659 21be ad5d 93be
000002d0: 01e5 743e 476b 533e da06 93be b048 053e
000002e0: 91c1 7b3e 4d38 c6bd 895f 2f3e 3752 3bbe
000002f0: abb4 58be 6e12 ca3c e3fa 6cbe 9f77 33be
00000300: 0189 813e ae0a 97be 1933 5d3e a245 da3d
00000310: 50d2 1dbe 7851 9a3e 383d 9a3e 9973 66bd
00000320: 11a9 653e 271e dd3d 6dea 593e 4c3d a03c
00000330: f968 89be 0628 6fbe 1cee 693e 93b1 2c3e
00000340: 38d0 9a3e c1ab 063e 0131 febc 8f63 50be
00000350: 28b6 a2be fd55 16be 3e69 6dbd d846 3dbd
00000360: 163b 74bd 4a85 ec3c 7cfb 533d e5a3 933d
00000370: 8ea1 2cbe 045b 82be 3871 a0be 480c f5bd
00000380: 9592 abbe 8b4b 7cbe 48b0 993e f3d3 c3bd
00000390: 89b2 2cbe ef3a 82bc 6007 813e 4617 0a3c
000003a0: a634 653e 8409 a9be f34d aabd 8b15 83bd
000003b0: da65 4b3e 494c 4b3e c777 8f3e 277d 93be
000003c0: ef83 bf3d 9cf3 e53c 8587 593e 51f2 37be
000003d0: b5ed 3c3e c76a cd3d 3dc3 1abe e99c b03e
000003e0: 7544 9d3e 6674 00be 8c83 173d 7aec adbe
000003f0: 1c48 e6bc ebfa 303e faf4 afbe 3314 523e

76 f4 [1, 32, 8]
-0.16368294 0.101204485 0.009273318 0.30098763 0.3184293 -0.25300324 0.16720362 0.030337049
-0.31324452 0.065855674 -0.2692844 -0.14331934 0.28280753 -0.21985136 -0.121228874 0.019042788
0.07305187 -0.2346412 0.116835654 -0.1906435 0.09962626 -0.09719876 -0.10735561 -0.037577875
0.032029625 0.2009646 -0.23815233 0.059894633 -0.33397073 0.07788889 -0.25056034 0.33501598
0.24525356 0.04198787 0.0022687227 -0.17954881 -0.16112626 0.21645306 0.14759763 -0.041993603
0.30220154 0.07059745 -0.35237652 -0.002979445 -0.16093512 -0.28875902 -0.27903357 -0.124013685
-0.29772356 -0.24169278 -0.3073636 0.10154566 -0.20728667 -0.23422976 0.20713839 -0.30974856
0.0012910422 0.029938972 0.32945195 -0.2372237 -0.26151267 -0.057217423 -0.018248279 -0.29348427
-0.19673511 -0.05144659 0.0900153 0.12543538 -0.3116401 -0.22963475 0.022356374 0.35267693
0.005710097 -0.161703 0.17670584 -0.33475947 -0.2069833 0.15488984 0.11275007 0.2791006
-0.14003484 0.26285264 0.16181423 -0.04445565 -0.06868583 0.09748229 -0.08374136 0.18593925
-0.18255351 0.08633871 -0.35252592 0.3439559 -0.01149079 0.25814754 -0.028647507 -0.20195125
-0.08961394 0.324822 -0.035837505 -0.34683415 0.11469185 -0.0066186143 -0.13329017 0.25555947
0.055775285 -0.26119962 -0.13712928 -0.061682798 0.32405612 -0.22268902 0.21889417 0.04132722
-0.31726354 0.19846508 0.31832582 -0.28947854 -0.20879295 0.017128479 0.112569384 -0.13116507
0.23568884 -0.13080333 -0.002868051 -0.17009512 -0.16779836 -0.20430031 -0.0055151256 0.07594723
0.08652284 -0.035423625 0.10010707 -0.30710125 0.007200831 0.23456985 0.2266805 -0.1491037
0.28157383 -0.015068214 0.16606624 -0.113196574 -0.15638722 -0.07209943 0.13776363 -0.0704724
-0.27370936 0.007951593 0.13911995 -0.082013465 -0.13162823 0.035479385 0.28588423 0.088253684
0.2566948 -0.31522882 -0.02683966 -0.33142287 -0.033080302 0.15294822 -0.22270614 0.15524618
0.17138758 0.09965234 -0.15015699 0.20141667 0.14526202 0.107263304 -0.27977479 -0.2960227
-0.2670995 0.10744534 0.0077107656 0.33853996 -0.21785022 0.07360201 0.02706169 -0.17678605
0.04147372 -0.240922 0.106516756 0.34063855 -0.31703943 0.32765633 0.27012584 0.2970106
-0.29630873 0.14888488 -0.34127098 0.1273271 -0.29886493 -0.1883666 0.1088455 0.27322254
-0.076776765 -0.24870758 0.27780664 -0.07860733 -0.02430398 0.31863153 0.02500307 0.0061818887
-0.21771005 0.3335409 0.17210568 0.34819475 -0.045550626 0.19518386 0.22223392 -0.19804016
-0.20253761 0.35019642 0.28029138 -0.07981243 -0.099600546 0.058871813 0.26950708 -0.16974525
0.06379157 -0.3027991 0.19223215 0.015291214 -0.080786996 0.14965077 0.25093836 0.22874042
0.29032472 -0.32910648 0.093378365 -0.11320361 -0.22144708 -0.112030745 0.22777835 0.09744802
-0.064919 -0.14872721 -0.09064371 0.051565234 -0.146482 -0.110284604 -0.33368278 0.20457397
0.070305325 -0.26632854 -0.074230924 -0.11683292 -0.10370632 0.16359851 0.2939623 0.0821641
0.30019456 -0.16510855 -0.058862835 0.32905376 0.11965018 -0.051049568 0.17518856 0.13169305
00000000: 809c 27be 4c44 cf3d 1def 173c 0d1b 9a3e
00000010: 2a09 a33e a489 81be 6d37 2b3e 6785 f83c
00000020: 9661 a0be 57df 863d a5df 89be 4ec2 12be
00000030: 26cc 903e b720 61be d846 f8bd 9fff 9b3c
00000040: 389c 953d c845 70be 8847 ef3d 0d38 43be
00000050: da08 cc3d 2510 c7bd 42dd dbbd 42eb 19bd
00000060: 7f31 033d aac9 4d3e 34de 73be 1354 753d
00000070: 36fe aabe 3684 9f3d 7249 80be 3787 ab3e
00000080: c023 7b3e 79fb 2b3d daae 143b a5db 37be
00000090: 48fe 24be dfa5 5d3e d523 173e 7c01 2cbd
000000a0: 29ba 9a3e 6595 903d b26a b4be cb42 43bb
000000b0: 2dcc 24be 39d8 93be 7ddd 8ebe e3fa fdbd
000000c0: 396f 98be 507e 77be c35e 9dbe 2cf7 cf3d
000000d0: f542 54be edd9 6fbe 161c 543e 5d97 9ebe
000000e0: 3038 a93a 9342 f53c edad a83e c5ea 72be
000000f0: fde4 85be d15c 6abd 6a7d 95bc 9243 96be
00000100: ee74 49be a9b9 52bd f159 b83d 2272 003e
00000110: 4b8f 9fbe 5f25 6bbe b724 b73c 1292 b43e
00000120: c41b bb3b 7995 25be 60f2 343e 9865 abbe
00000130: 6ef3 53be 719b 1e3e 82e9 e63d 46e6 8e3e
00000140: 4b65 0fbe 9f94 863e a1b2 253e 2117 36bd
00000150: 28ab 8cbd cba4 c73d 9780 abbd dc66 3e3e
00000160: 4fef 3abe 59d2 b03d 477e b4be fd1a b03e
00000170: de43 3cbc ea2b 843e 2dae eabc 4fcc 4ebe
00000180: 8387 b7bd 124f a63e 59ca 12bd 3f94 b1be
00000190: 90e3 ea3d f6e0 d8bb 387d 08be b1d8 823e
000001a0: a074 643d f5bb 85be 9e6b 0cbe 1aa7 7cbd
000001b0: afea a53e 9708 64be cb25 603e bb46 293d
000001c0: 5e70 a2be 6e3a 4b3e 9afb a23e 8836 94be
000001d0: d2cd 55be 0651 8c3c c78a e63d 2350 06be
000001e0: 6a58 713e 4ff1 05be e9f5 3bbb 6a2d 2ebe
000001f0: 55d3 2bbe 1a34 51be 3ab8 b4bb 398a 9b3d
00000200: e332 b13d 5d18 11bd ef04 cd3d 603c 9dbe
00000210: f3f4 eb3b 1433 703e ef1e 683e a4ae 18be
00000220: 722a 903e ace0 76bc 450d 2a3e 9bd3 e7bd
00000230: f923 20be dea8 93bd e911 0d3e d553 90bd
00000240: a223 8cbe 6647 023c 7675 0e3e adf6 a7bd
00000250: 8dc9 06be d552 113d 6b5f 923e 59be b43d
00000260: 806d 833e ac65 a1be d9de dbbc 42b0 a9be
00000270: 367f 07bd 759e 1c3e 140d 64be dbf8 1e3e
00000280: 3a80 2f3e 8716 cc3d c1c2 19be 2c40 4e3e
00000290: 91bf 143e ddac db3d a43e 8fbe 4a90 97be
000002a0: 44c1 88be 4d0c dc3d 97aa fc3b 1c55 ad3e
000002b0: 2114 5fbe a7bc 963d 7ab0 dd3c 6707 35be
000002c0: 59e0 293d 42b4 76be 7525 da3d 2d68 ae3e
000002d0: fe52 a2be 92c2 a73e ef4d 8a3e c611 983e
000002e0: c7b5 97be 4775 183e 12bb aebe 0962 023e
000002f0: d304 99be 2de3 40be 64ea de3d d3e3 8b3e
00000300: 233d 9dbd 33ad 7ebe ac3c 8e3e e1fc a0bd
00000310: 2419 c7bc ac23 a33e 3dd3 cc3c 7191 ca3b
00000320: 62ef 5ebe dfc5 aa3e 793c 303e 9546 b23e
00000330: 4b93 3abd 47de 473e 4a91 633e 0acb 4abe
00000340: 0566 4fbe f24c b33e 5a82 8f3e b374 a3bd
00000350: 5ffb cbbd 9223 713d d5fc 893e b3d1 2dbe
00000360: 28a5 823d 7c08 9bbe 81d8 443e 0088 7a3c
00000370: a773 a5bd 0d3e 193e fe7a 803e ee3a 6a3e
00000380: 71a5 943e a580 a8be 283d bf3d 4bd7 e7bd
00000390: 06c3 62be 6070 e5bd ba3e 693e d492 c73d
000003a0: 41f4 84bd f24b 18be 69a3 b9bd 1136 533d
000003b0: 61ff 15be e5dc e1bd 78d8 aabe d77b 513e
000003c0: 3dfc 8f3d 375c 88be 6206 98bd 1946 efbd
000003d0: fb63 d4bd 5e86 273e 3a82 963e a745 a83d
000003e0: 1ab3 993e 3712 29be 281a 71bd bc79 a83e
000003f0: 270b f53d 5a19 51bd a164 333e 8bda 063e

77 f4 [1, 64]
-0.019536877 -0.3012417 0.17057525 -0.31830454 0.164914 0.09146928 -0.13133447 0.23962827
-0.021875141 -0.14897221 0.31310102 0.33275127 0.31190616 0.124812745 0.033868574 -0.1399463
-0.3415049 -0.037547067 -0.3052676 0.07522858 0.31290042 -0.20114048 0.10682658 -0.15863533
0.32561964 0.20924856 0.07129422 -0.08449276 0.020789439 0.3060283 0.044197883 -0.30020273
0.2876348 -0.26098448 0.2512476 -0.34211725 -0.1945627 -0.2965867 0.21804398 -0.14875422
-0.08097758 -0.2444542 -0.09747217 -0.054108165 0.34523746 -0.08281493 0.32031327 -0.24360916
0.10833342 0.34218806 0.30979407 0.035101455 0.23764488 -0.06531699 0.15743458 -0.24244489
-0.26681513 -0.21191902 -0.08801383 -0.21699625 0.28946164 0.29204634 -0.094340116 0.28300193
00000000: cd0b a0bc 5a3c 9abe 47ab 2e3e d0f8 a2be
00000010: 37df 283e 3f54 bb3d 8b7c 06be 1d61 753e
00000020: 7f33 b3bc 2c8c 18be c74e a03e 605e aa3e
00000030: 2ab2 9f3e d39d ff3d c6b9 0a3d 154e 0fbe
00000040: bbd9 aebe f4ca 19bd 094c 9cbe 7111 9a3d
00000050: 7c34 a03e c5f7 4dbe e5c7 da3d 4d71 22be
00000060: 9eb7 a63e 4145 563e b402 923d 8a0a adbd
00000070: 9d4e aa3c beaf 9c3e d708 353d 2cb4 99be
00000080: de44 933e c29f 85be 87a3 803e fe29 afbe
00000090: 723b 47be 36da 97be ec46 5f3e 0753 18be
000000a0: 93d7 a5bd 3452 7abe 7d9f c7bd 86a0 5dbd
000000b0: f7c2 b03e e09a a9bd 1a00 a43e ae74 79be
000000c0: e9dd dd3d 4633 af3e 549d 9e3e 8bc6 0f3d
000000d0: 2e59 733e eac4 85bd 8836 213e 7943 78be
000000e0: fe9b 88be 4d01 59be 9840 b4bd 4434 5ebe
000000f0: 5134 943e 1987 953e 6435 c1bd a1e5 903e

16 f4 [1, 1, 8]
0.0 0.0 0.0 0.0 0.0 0.0 0.0 0.0
00000000: 0000 0000 0000 0000 0000 0000 0000 0000
00000010: 0000 0000 0000 0000 0000 0000 0000 0000
