root/tmva/sofie/input_models/RNN_d10_L20_h8_B1.onnx (onnx, 1592 bytes, 6 tensors)

fc.weight f4 [2, 8]
0.13262214 0.050757363 0.020452349 0.24777701 0.20068167 0.2524818 -0.0031507297 -0.19048601
0.023175413 0.0747157 -0.34024137 -0.022181718 0.02118056 -0.23949128 0.29354748 -0.25138715
00000000: 19ce 073e f4e6 4f3d af8b a73c 42b9 7d3e
00000010: 7f7f 4d3e 4b45 813e 797c 4ebb c40e 43be
00000020: 5dda bd3c 8b04 993d 1e34 aebe 6fb6 b5bc
00000030: db82 ad3c 343d 75be db4b 963e d1b5 80be

fc.bias f4 [2]
-0.07525497 0.13049595
00000000: 471f 9abd bba0 053e

33 f4 [1, 8, 10]
-0.2834812 0.0039028402 -0.2696372 -0.16544695 0.34857547 0.04876757 -0.0930127 0.2806285
0.07015579 0.18850684 -0.1338049 -0.19932248 -0.04040711 -0.07260958 -0.34710693 0.25159475
-0.16263044 -0.22455521 -0.017895298 0.13469379 0.12814921 -0.026353287 -0.1698638 -0.34016
-0.15148589 -0.087799594 -0.28121394 -0.12377045 0.0827652 0.076394066 0.24005787 0.024064502
-0.06118479 0.13328515 0.068754114 -0.046010535 -0.09607049 0.059178222 0.107002504 -0.13348177
0.22112153 -0.18131945 -0.090299666 0.19061877 -0.2956188 -0.109647386 0.11646072 -0.028661078
-0.055605475 0.269568 0.05945365 0.12275316 -0.26074287 0.06882003 -0.20246392 -0.22846563
0.23755819 0.31821755 0.25495586 -0.09818121 0.34984994 -0.2274026 -0.057804488 0.28758404
0.10556424 0.17414942 0.058675703 0.1340394 0.05726665 -0.12711927 -0.066646725 0.1855252
0.017836547 0.064506635 -0.04829485 -0.14602016 -0.09547285 -0.2665746 0.1270947 0.3281386
00000000: 7324 91be cbc6 7f3b e30d 8abe ed6a 29be
00000010: 7c78 b23e 81c0 473d 717d bebd 8aae 8f3e
00000020: d7ad 8f3d f007 413e 2704 09be 311b 4cbe
00000030: ed81 25bd 55b4 94bd 00b8 b1be 07d1 803e
00000040: 9888 26be cdf1 65be 2999 92bc 2bed 093e
00000050: 8c39 033e d9e2 d7bc c7f0 2dbe 7429 aebe
00000060: 1e1f 1bbe 46d0 b3bd 46fb 8fbe 5d7b fdbd
00000070: cd80 a93d 7e74 9c3d bbd1 753e eb22 c53c
00000080: e79c 7abd e77b 083e f5ce 8c3d 8b75 3cbd
00000090: 9bc0 c4bd dd64 723d 2124 db3d 72af 08be
000000a0: af6d 623e ceab 39be 08ef b8bd 9131 433e
000000b0: 595b 97be cf8e e0bd f582 ee3d a3ca eabc
000000c0: 91c2 63bd d104 8a3e ac85 733d 0266 fb3d
000000d0: 1780 85be 84f1 8c3d b452 4fbe e5f2 69be
000000e0: 7442 733e 69ed a23e 9389 823e 3b13 c9bd
000000f0: 881f b33e 3adc 68be 66c4 6cbd 373e 933e
00000100: 1032 d83d 3a54 323e ef55 703d a041 093e
00000110: 6f90 6a3d 8e2b 02be 147e 88bd 51fa 3d3e
00000120: f31d 923c 0e1c 843d d2d0 45bd 4f86 15be
00000130: 4587 c3bd 777c 88be 1d25 023e c801 a83e

34 f4 [1, 8, 8]
0.3328135 0.30610073 -0.33649486 0.29735112 0.22063163 -0.20386417 -0.14522636 -0.11230997
0.19676176 0.08634751 -0.1900173 0.30732235 0.27448517 0.11497533 -0.17497824 0.17440584
0.35105285 0.21424356 0.21053843 -0.18965277 -0.29991102 0.05623026 0.27470276 0.06945817
0.23418179 0.19310434 0.26944867 -0.33739617 -0.085999 -0.3429105 0.09352204 0.18551973
-0.30291194 0.16598102 -0.060704947 0.20241404 0.2794084 -0.2932718 -0.17503291 0.27286935
-0.215618 -0.33013958 0.19023144 0.15729178 -0.317939 -0.19814396 0.032848872 -0.09585887
0.26907244 0.2372554 0.28961083 0.13283898 -0.046925582 0.0762538 0.09928023 -0.11542395
0.066267446 -0.16019166 0.13937782 0.16245385 0.10713644 0.1763435 0.017812354 0.27674273
00000000: 8866 aa3e 3cb9 9c3e 0e49 acbe 683e 983e
00000010: 42ed 613e c5c1 50be 38b6 14be c502 e6bd
00000020: ea7b 493e f7d6 b03d e593 42be 5b59 9d3e
00000030: 5289 8c3e 3078 eb3d 7f2d 33be 7297 323e
00000040: 33bd b33e aa62 5b3e 6397 573e 5634 42be
00000050: f08d 99be b351 663d d7a5 8c3e 1640 8e3d
00000060: 5acd 6f3e 25bd 453e 2df5 893e 31bf acbe
00000070: 3e20 b0bd f791 afbe 7c88 bf3d e2f8 3d3e
00000080: 4617 9bbe eef6 293e c0a5 78bd a045 4f3e
00000090: 9e0e 8f3e b927 96be d43b 33be 88b5 8b3e
000000a0: f7ca 5cbe 0e08 a9be 08cc 423e 1911 213e
000000b0: e7c8 a2be 40e6 4abe 8a8c 063d a851 c4bd
000000c0: ddc3 893e 14f3 723e df47 943e f106 083e
000000d0: 0a35 40bd f42a 9c3d 6f53 cb3d 6463 ecbd
000000e0: 3ab7 873d 4809 24be 0fb9 0e3e 4d5a 263e
000000f0: 5a6a db3d 6493 343e 37eb 913c 39b1 8d3e

35 f4 [1, 16]
0.12043892 -0.052958146 -0.076969504 -0.0127072325 -0.051100988 0.28132752 -0.23983979 -0.34383437
0.09696683 -0.1475524 -0.009571423 -0.17631565 0.04280792 -0.08003648 0.08543423 0.0066547343
00000000: aea8 f63d a4ea 58bd 30a2 9dbd ff31 50bc
00000010: 454f 51bd 290a 903e 9098 75be 0f0b b0be
00000020: 8c96 c63d fa17 17be 75d1 1cbc 178c 34be
00000030: 5c57 2f3d 2bea a3bd 24f8 ae3d f50f da3b

16 f4 [1, 1, 8]
0.0 0.0 0.0 0.0 0.0 0.0 0.0 0.0
00000000: 0000 0000 0000 0000 0000 0000 0000 0000
00000010: 0000 0000 0000 0000 0000 0000 0000 0000
