root/tmva/sofie/input_models/SimpleNN_Alice.onnx (onnx, 27705 bytes, 5 tensors)

input.bias f4 [100]
00000000: cc69 69be e205 063d 57b9 e13d 7222 573d
00000010: 72df 0d3e 9dda 9fbe ad20 0ebd cd5b 073e
00000020: 060f bcbd e3ba d23d 78f7 003d 83ab a13e
00000030: cafe 21be 6e32 5e3e cca3 20bd 2a86 d2be
00000040: 069e 2bbe 5268 843d 4587 4ebd 7561 58be
00000050: f472 16be d99c ebbd b43e b73d 7eb7 a8bd
00000060: 6c3b d7bd 9e76 5dbe 0a82 7abe 734d 50be
00000070: bef0 87be 4508 783d e83e 3d3e 38fb a1bd
00000080: 017b ed3d c07b 003e 2664 883e 1406 d9bb
00000090: ae5b a2bd 5a9e 65bd 20d5 70bd 8474 1a3e
000000a0: 1ef3 393e 20ce d33d 0524 913e a0e5 c2be
000000b0: 14c2 7fbc 7e75 98be 5395 82bd 5f5f 91be
000000c0: 45e9 0b3e 327d a03c 10c7 a03d cb0d 723e
000000d0: e750 183d f7ba 883e a759 a3be f818 e13c
000000e0: 837d 41be 1c67 8abd d8c1 d0be 6ce2 7c3d
000000f0: 9f32 25be 0dd4 b13e be2c a1bd a720 eb3b
00000100: e586 e5bd bf17 993e 2aff 25bc 8968 a6be
00000110: 15cb 5ebe 6802 8dbe 49c0 61be adc5 9b3e
00000120: 3cda 893e b936 7a3d daff a53b b33c 0f3e
00000130: 7dc8 d33d 2e34 103c 591f 9d3e f43a cbbc
00000140: 5cbf 293e 133c 3f3e 9e7b a9bd aa34 d1bc
00000150: bc78 8ebe ac90 1f3e 2375 873d 00ac 953d
00000160: c892 40be db69 50bd ec71 30be 8d32 7b3d
00000170: f294 1cbe 3946 d1be 80b1 cfbc c050 b3be
00000180: d02b 49be 54cc b8be 281a 35be 1435 963c
-0.22794265 0.032720454 0.11021679 0.052523084 0.13854769 -0.31221476 -0.03469913 0.13218613
-0.09182553 0.10289552 0.031486005 0.31576166 -0.1581985 0.21698925 -0.03921871 -0.41117984
-0.167595 0.0646521 -0.05042197 -0.21130927 -0.14692289 -0.11504526 0.089475065 -0.08238123
-0.10509381 -0.2162728 -0.24463668 -0.20342045 -0.2655086 0.06055476 0.18481028 -0.07909244
0.11595727 0.12547207 0.26638907 -0.006623039 -0.07927643 -0.05605922 -0.058797 0.1508351
0.18159148 0.103420496 0.28347793 -0.38065815 -0.015610237 -0.2977714 -0.063761376 -0.28393075
0.13663204 0.019590948 0.07850468 0.23638074 0.03718653 0.26705143 -0.31904337 0.027477726
-0.18895535 -0.06757948 -0.4077289 0.06173937 -0.16132592 0.34732094 -0.07869862 0.0071755233
-0.1120737 0.2990093 -0.010131637 -0.3250163 -0.21757157 -0.27540898 -0.22046007 0.30424252
0.26924312 0.061087344 0.0050659003 0.13987999 0.103409745 0.008801503 0.3068798 -0.024808384
0.16576904 0.1867526 -0.08275531 -0.025537807 -0.27826488 0.15582532 0.06614139 0.07308197
-0.18805993 -0.0508822 -0.17230958 0.061327506 -0.15291193 -0.40873888 -0.025353193 -0.35022545
-0.1964562 -0.3609339 -0.17685759 0.018335856

l_2.bias f4 [50]
00000000: efea 213e 9df6 583e 403a 683f 9e3a dcbe
00000010: 5f60 21be 2af3 693e 32db 4b3f 690d 593f
00000020: 5042 2f3e 7a68 4c3f 38f5 3b3f 88ba 62bd
00000030: 9074 d0bc dd49 4e3f 0689 0b3d b569 8fbd
00000040: 74ee 5f3f 0122 6a3c 79d4 393f fb58 0f3e
00000050: fac6 0a3e 9de8 5abf 1e01 26bf 3877 b63e
00000060: bc17 6ebf c0fe 51bf 82aa c83d 1b6b 4c3f
00000070: fc73 1dbf 45ee 2abd c31e 3d3f fdeb a13a
00000080: 7bd0 3f3f e03a 8a3d 3de1 403e d393 8e3e
00000090: 630c 553f 24a7 6d3e 25ab 573f 0690 fd3d
000000a0: 8898 0d3e 2c78 683f dcae 44bf 7389 b5be
000000b0: d617 5d3f ab05 3f3f c573 403f ef01 d03e
000000c0: 6e66 303f 91a9 8dbc
0.15812276 0.21187826 0.9071388 -0.4301347 -0.15759419 0.22846666 0.7963134 0.8478609
0.1711514 0.7984692 0.7342105 -0.05535367 -0.025446206 0.80581456 0.034066223 -0.07002584
0.87473226 0.014290334 0.7258983 0.13998787 0.13552466 -0.8551119 -0.64845455 0.35637832
-0.93004966 -0.8202934 0.09798147 0.7985093 -0.61505103 -0.041731138 0.73875064 0.0012353655
0.7492749 0.06749511 0.18835922 0.27847156 0.83222026 0.2320829 0.8424552 0.12380986
0.13827717 0.9080837 -0.76829314 -0.35456428 0.86364496 0.74618024 0.7517665 0.40626475
0.68906295 -0.01729277

18 f4 [16, 100]
00000000: 0260 2e3f 6b80 11be de29 7f40 224d bdbf
00000010: 20bc 80c0 f055 913f 4586 30c0 b9d8 e83f
00000020: 996d 23c0 3b7c 8f40 2025 ee40 13f6 c2bf
00000030: 725c 6441 7eca 7040 2d61 dac0 9e7a 9f3f
00000040: 1782 01c1 7b52 673e 08eb 70c0 964b 70bf
00000050: 7883 1240 8ebd 9abf d543 853f 8e28 583f
00000060: cbd5 ac3f 3d4f b9bf 33ce c23f 6742 4f3f
00000070: 2b99 2f3e 01e8 d33f 14f8 5a40 ce84 a03f
00000080: c9ed 42c0 da73 1bc0 44ce 2bc0 a0d4 74be
00000090: 8482 bfbf 0c89 7e3f 208f b740 497e 8cc0
000000a0: 50b7 e83f 4ae3 4641 d168 923f 785b 0641
000000b0: 99ea 6840 a1e6 0e40 90a8 c540 7b23 aec0
000000c0: f92d b73f 8a22 e53e 247a 18c0 4682 5341
000000d0: d883 ab40 3c93 9a40 aa95 2840 a8da 2a40
000000e0: 83eb 0140 47e2 ab3e 9f19 c7bf dcdb aa3f
000000f0: fd58 0a40 c2d2 4440 4289 1140 5885 693f
00000100: 99bc 2940 ca79 893f 3d06 f23f 5296 3540
00000110: ea7e 1f40 cf39 6241 abd4 c4c0 9a54 613f
00000120: 9c5d 7e40 1e47 4140 06a6 6141 c615 9b3f
00000130: 32e7 b33f 8282 febf 0f84 4341 6905 9fc0
00000140: a653 863e b200 ee3f f537 643f 23f1 0c41
00000150: 65e9 2f41 2975 623f 9380 c740 eafe d040
00000160: 2be9 fac0 7089 c73f 6900 84c0 04c6 3340
00000170: 5fd8 0240 d69c c840 446e 3fc0 0a78 01c1
00000180: a684 f8c0 0556 e03e 311b b93f 48c3 53c0
00000190: 28a1 7fc0 2139 e83e c191 0540 3241 07c0
000001a0: 9374 8abe e477 c0be 6b26 93bf 6554 9d3f
000001b0: 30cc aa3f fec6 853f a0dc 6a3e b084 0c3f
000001c0: 0310 453f 6a34 933e 796d e63f 5eb1 abbe
000001d0: 7a93 db3f 99ae 40c0 6639 a1bf 5153 0440
000001e0: 33f3 653e 990d 2a3f eaf0 44be b7d3 18c0
000001f0: 4c61 9c3d 4d20 02bf 28d1 de3d f758 933d
00000200: 9057 32c0 d094 e1bf 35f1 5f3f 0e7e 1dbf
00000210: d677 9bbf 952e 1740 d894 0e3e 88e2 283f
00000220: ca4c 183f f7ff d03d 1ce1 4e40 97c4 a13e
00000230: c851 993f 150f 8fbe bacf 9fbe 72f0 3e3f
00000240: 4f71 bb3e 4162 663e 7e5f c83e a404 fa3f
00000250: 41c2 c53c 16a6 89c0 04f4 ab3f 2e0f 5b3e
00000260: f078 383f af5a e43e aa19 4240 8aa7 983f
00000270: 9d3e 063e 2629 4fc0 b0a6 ac3f 5327 3b3b
00000280: 8af7 be3f 123a 553e 7637 4440 14ad 5f40
00000290: 7d76 203f 2f3f e3bf 4ea9 963f 277e 003f
000002a0: 77ba 893f 7adc 473f 8035 f23f 6a4a 0cc0
000002b0: 3683 12bf f92b 683e 0579 763f 54e8 0ebf
000002c0: e755 15be 2fb7 74c0 d72c d93e d135 7c3f
000002d0: 63d7 2dc0 5b51 9f3f 0505 3abf 803d 9e3e
000002e0: a11f ff3e 06d1 c4bf ff29 a13e 16bf ee3e
000002f0: ab6b 1f3e d06f 843f ea1e 37bf b66a 143f
00000300: da42 973f 22ed 4740 4b95 debf a54c cc3f
00000310: efa7 a93f 9df7 95c0 d796 dc3f 4850 37bf
00000320: 30fa 543c 488a 53bb 4782 9cbb 8f2b ea3b
00000330: f17c 863a 3aa2 8f3d 419b 6e3b 6e50 5b3b
00000340: 3dc6 16bb 7687 1fba 02e0 b3ba 298d 80bb
00000350: 4e98 78bb e46e ba3a dfb5 71bb b8f6 993d
00000360: cb68 5dbb 7efd eb3b 934c 253b 723c ae3b
00000370: 7113 603b 510e 793b d97e 813d 9976 413d
00000380: dc09 893d 6b09 0037 496d 7a3d f9aa 5c3d
00000390: 6540 fb3b 0a5c 983d cd55 15ba aa5b 793d
000003a0: b9b5 a43b f6d0 0bbb e36d 203b 2bfe bfbb
000003b0: 5dc1 133b 070c 5b3d 17ac 81bb 4258 4abc
000003c0: 4ddc 683b a286 09bc 46e2 b33d 3813 41bb
000003d0: ace9 da3b 1198 913d b2f2 1c3c eeaa 9938
000003e0: a068 033b af40 823c bd13 813a 248f 72bb
000003f0: c867 52bb 2c18 0d3b 0c48 43b8 ab1b 9cb8
0.68115246 -0.14209144 3.9869304 -1.4789164 -4.0229645 1.1354351 -2.7581952 1.8191139
-2.5535643 4.483915 7.442032 -1.5231346 14.27257 3.7623591 -6.8243623 1.2459295
-8.09426 0.22590058 -3.7643452 -0.93865335 2.2892742 -1.2089097 1.0411326 0.8443688
1.3502744 -1.4477307 1.5219177 0.80960697 0.17148273 1.6555177 3.4213915 1.2540529
-3.0457633 -2.428946 -2.6844645 -0.23909235 -1.4961705 0.99427867 5.7362213 -4.3904157
1.8180943 12.4304905 1.1438237 8.397331 3.6393187 2.2328265 6.1768265 -5.441831
1.4310905 0.44752914 -2.3824549 13.219305 5.359844 4.830473 2.6341348 2.6695957
2.0299995 0.33571073 -1.5554694 1.3348346 2.1616814 3.0753636 2.2740026 0.9121909
2.652136 1.0740292 1.8908154 2.8372998 2.4921212 14.139113 -6.1509604 0.88019717
3.9744635 3.0199656 14.103033 1.211602 1.405493 -1.9883578 12.219741 -4.9694104
0.26235694 1.8593962 0.89147884 8.808871 10.994481 0.8846002 6.234445 6.5311174
-7.840963 1.5588818 -4.12505 2.808961 2.0444562 6.269145 -2.991105 -8.091806
-7.7661924 0.43815628 1.4461423 -3.308794 -3.9942112 0.45356086 2.087021 -2.1133542
-0.27042064 -0.3759147 -1.1496099 1.229138 1.3343563 1.0451353 0.22935724 0.54889965
0.76977557 0.28750926 1.8002158 -0.33533758 1.7154381 -3.0106566 -1.2595642 2.0675852
0.22456054 0.66427 -0.19232526 -2.387922 0.076357454 -0.5083054 0.10879737 0.07194703
-2.7865944 -1.7623539 0.8747743 -0.6152047 -1.2145946 2.3622181 0.13923967 0.6597066
0.5949217 0.102050714 3.2324896 0.315953 1.1978083 -0.27941194 -0.3121317 0.7458564
0.36609885 0.22498418 0.39135355 1.9532666 0.024140479 -4.301524 1.3433843 0.2139251
0.72059536 0.44600436 3.0328164 1.1926129 0.13109823 -3.2368865 1.3488369 0.0028557375
1.4919293 0.20822933 3.065885 3.4949389 0.626808 -1.7753657 1.1770418 0.50192493
1.076003 0.78070796 1.8922577 -2.1920419 -0.5723146 0.22673024 0.9627841 -0.55823255
-0.1458355 -3.8236806 0.42417023 0.9851962 -2.7162712 1.2446703 -0.7266391 0.30906296
0.49828818 -1.5376289 0.31477353 0.46630162 0.15568416 1.0346622 -0.71531546 0.5797533
1.1817276 3.1238484 -1.7389311 1.596089 1.3254374 -4.686476 1.7233533 -0.71606874
0.0129991025 -0.0032278467 -0.0047762725 0.007146306 0.0010260624 0.07013364 0.0036408457 0.0033464688
-0.0023006343 -0.0006085554 -0.0013723376 -0.0039230776 -0.0037932578 0.0014223722 -0.0036882085 0.07517761
-0.0033784385 0.0072018495 0.0025222644 0.0053172642 0.0034191275 0.0038002918 0.063230224 0.047232244
0.06691334 7.631587e-06 0.06113938 0.05387399 0.0076675885 0.0743943 -0.0005696684 0.060878433
0.005026546 -0.0021334267 0.002447956 -0.0058591566 0.0022545673 0.053478267 -0.0039572823 -0.012350144
0.00355317 -0.008393915 0.087833926 -0.0029460918 0.006680688 0.071090825 0.009579347 7.327447e-05
0.0020051375 0.015899984 0.0009847801 -0.0037011588 -0.0032105315 0.00215293 -4.655872e-05 -7.443813e-05

19 f4 [100, 50]
00000000: 7060 bdbd 9413 32bf ea83 8abe 57b6 f93e
00000010: a694 f83e 151e 7e3d f194 c9bd 9d9d a5bd
00000020: 3006 74be 8af2 d3bd b582 1bbe 84b5 ad3e
00000030: 63ea 18be 79ce 49be dead c33d 4004 4b3f
00000040: 0028 5cbe 6070 5abf 35c0 11be 613f 513e
00000050: 881e 313f 9e69 523e 9b5e 7e3b 2fa7 67bd
00000060: 7fa6 8f3e 14dd 54bd ea3e c13d 2226 fdbd
00000070: 3cb3 ad3d 5f89 ac3d ca2e 903c 330f 33be
00000080: 558f 33be c57a 58bd 665a 52bf 6237 763e
00000090: 9516 48be 9fe2 cb3e 0961 5fbd b41b 8b3e
000000a0: bb80 b23d 6688 f2bd 320c babd ddf3 f73e
000000b0: 10db 67be ffae 92bd 974c 02be 8bd4 f7bd
000000c0: 4648 4cbd 6a3e 023e 76c0 91be 14a7 47be
000000d0: 6583 e2bd 75d0 0ebd 6a6f b6bc cb90 32bd
000000e0: 0136 70be 6f53 2abe b9cd 0bbe 7dc1 813b
000000f0: 1725 17be 0c1b e53c 30f9 3b3d 645a ddbd
00000100: 4fb7 73bd 951e 593d 5036 b33d 45e1 36be
00000110: d87c babd 3420 5e3c 5437 f4bc a523 1dbe
00000120: ca3a 72bd 9436 cebd 04cd 4a3d d030 d73c
00000130: 2189 d5bd 2cf2 c2bd fb89 04bd 5d8f edbd
00000140: e523 60bc 6556 6bbd d0bc bebd 2172 08bc
00000150: 3472 cbbc aa17 c4bd a975 a4bd 7b7f 33be
00000160: 61f8 cd3b 8f91 7cbc 9db8 e3bd 83ca 16be
00000170: 6231 74bd e4c7 00bd 49af 1bbe 8f82 a2bd
00000180: c5ea 5fbe 469e fbbd b730 87be 6e0e 9dbe
00000190: c40c d53c c90f 653c c5d8 a13b f841 72bf
000001a0: c088 afbe 900c eb3b cb2f bb3d 509d d43c
000001b0: 06e5 0d3d 6726 653d 8201 8a3d 08bd 32bf
000001c0: bff7 aa3c 279c 403d bb0f a4bc 7d1f 58be
000001d0: 4402 623c 6da6 883b d51c 0c3d 7fe9 1ebd
000001e0: ff8b 9fbe e866 71be c2cf d5bf a425 81bc
000001f0: 12c9 123d 9812 51bf 1880 e93c 39c1 203d
00000200: 0b33 e7be f8b7 a1bd 9757 ee3c 39a7 8f3d
00000210: 6f10 1c3d 1dee 3c3d 9e6a 94bb b5ba 2fbf
00000220: 20b0 33bb c147 26be 00f2 833d a528 b7bc
00000230: 078c 273d 96a6 4b3d 2327 03c0 6265 ac3c
00000240: fb65 8b3b 3821 ab3c 2286 af3d 61e2 29be
00000250: a704 303d 4f1d 9c3d 1743 163b 9cfc 77be
00000260: 105b 83bc 8d95 31bf 6016 323c 46d3 463e
00000270: 9772 8f3e a4c3 023e 7aab 70be b394 3f3e
00000280: b2bf 193e 707d 90bd 9966 53bd 2d67 903e
00000290: eecd e53d 398b 6cbd c0ac 3b3d 7480 66be
000002a0: e5b7 483e d7de ecbc 029e 98bc 5217 c3be
000002b0: a9c1 f7be 0b5c 803e 05b7 af3e 763d 54be
000002c0: 1d38 8fbe 734a 803e 50d5 14bf f5e0 a9bd
000002d0: aa97 3b3e f193 24be cd01 1c3e 05b1 453e
000002e0: f359 f5be aa12 37be 6859 a83d eebc bdbe
000002f0: 6c6a 393e a271 aa3c 5be0 eabc 4fe3 2c3e
00000300: 3e92 dbbe 0afd bd3e b1fe 003e 65f8 c93d
00000310: fc7c 2f3e f224 4ebe afca 5b3e c187 82bb
00000320: f911 5d3d 88be febd f043 0f3e e9bd 05bf
00000330: 94af 87be 8590 4f3e e826 8d3e 576b f83d
00000340: c3c9 bcbd e73c a83e 7428 1d3e 0875 82be
00000350: 3a28 4cbe 3985 993e 53fc 583d 2e7b 03be
00000360: c374 0a3e a860 74be 5ecf d03e 024d 8fbb
00000370: 2e1e c4bd 8e61 9fbe da0f 9cbe da6f 063e
00000380: 5e9b 543c 86ce 9dbe 4427 66be 158f 453e
00000390: 2bfb e1be 0a82 46be 0550 bb3e 5de2 6cbe
000003a0: 0522 773e f337 5c3e 8cb2 46be e6b4 a5be
000003b0: 4655 ed3d 654c ddbe 82b6 9a3e e619 0cbd
000003c0: 0135 19bd 7e51 653e bc25 35be 9a71 e73e
000003d0: dab3 813e a1a6 783e e943 2b3e f8a4 92be
000003e0: b52a b63e c7e7 26be 56e2 903d 6b73 743e
000003f0: 244f 6f3d 3cff 16bc 45ca 6d3d 1353 aabd
-0.092469096 -0.69561124 -0.27053767 0.48771927 0.4855091 0.062040407 -0.098428614 -0.08086703
-0.23830485 -0.10348995 -0.1518658 0.33927548 -0.14933161 -0.1970767 0.09554647 0.7930336
-0.21499634 -0.8532772 -0.14233477 0.20434333 0.6918721 0.20548102 0.0038813713 -0.056555923
0.28056714 -0.05196865 0.09435828 -0.12360789 0.08481452 0.08424639 0.017600436 -0.17486267
-0.17535146 -0.052851457 -0.8216919 0.24044564 -0.19539864 0.39821336 -0.0545359 0.27169573
0.0871596 -0.11842422 -0.09084357 0.4842824 -0.2264216 -0.07162284 -0.12724529 -0.12101086
-0.049873613 0.12719122 -0.2846715 -0.19497329 -0.11060218 -0.03486677 -0.022269923 -0.043595117
-0.23458101 -0.1663339 -0.13652696 0.003959833 -0.14760242 0.027966999 0.04589194 -0.10808256
-0.05950099 0.05300768 0.08750594 -0.17859371 -0.09105843 0.0135574825 -0.029811539 -0.15345629
-0.059138097 -0.10069004 0.049511924 0.026268393 -0.10426546 -0.09518847 -0.03235815 -0.1159961
-0.013680433 -0.05745544 -0.09313357 -0.008327992 -0.02483473 -0.09574826 -0.080302544 -0.17529099
0.0062857126 -0.015415563 -0.111191966 -0.1472569 -0.059617408 -0.03144063 -0.15203585 -0.07935058
-0.21866901 -0.12286048 -0.26404354 -0.3067507 0.026007064 0.013980814 0.004939171 -0.9463191
-0.3428402 0.0071731284 0.09139975 0.025953919 0.034642242 0.055944826 0.06738569 -0.6981969
0.020870088 0.04702392 -0.020027032 -0.21105762 0.0137944855 0.00417023 0.034207184 -0.038796898
-0.31161496 -0.23574412 -1.6704028 -0.015765019 0.035836287 -0.81668997 0.028503463 0.03924677
-0.4515613 -0.078964174 0.0290945 0.07014317 0.03810161 0.04612552 -0.0045293113 -0.6864427
-0.002741821 -0.1623831 0.06442642 -0.022358248 0.040905025 0.049719416 -2.0492637 0.021044437
0.0042541004 0.020889863 0.08570506 -0.16590263 0.042973187 0.07622778 0.0022928172 -0.24217457
-0.016034633 -0.6936882 0.010869592 0.19416532 0.28017113 0.12769943 -0.23502913 0.18709068
0.15014532 -0.07055175 -0.051611517 0.28203717 0.112209186 -0.05774996 0.045819044 -0.22509938
0.196014 -0.028914852 -0.018630031 -0.3810373 -0.48389938 0.25070223 0.3431932 -0.2072657
-0.279725 0.250568 -0.5813799 -0.0829486 0.18319574 -0.1607206 0.15235062 0.19305809
-0.47920188 -0.17878214 0.08220178 -0.37058204 0.18107003 0.020806137 -0.028671434 0.16883586
-0.4288501 0.37107116 0.12597157 0.098618306 0.17137522 -0.20131281 0.21464036 -0.0039834683
0.05397222 -0.12438685 0.1399076 -0.52242905 -0.26501143 0.20269974 0.27568746 0.121298485
-0.092181705 0.32858965 0.15347463 -0.25479913 -0.1993722 0.29984453 0.05297501 -0.12839958
0.13521104 -0.23864996 0.4078321 -0.0043731937 -0.09576069 -0.31129116 -0.30480844 0.13128605
0.012976496 -0.30821627 -0.22475916 0.19292863 -0.44136938 -0.19385543 0.36584488 -0.23133226
0.24134071 0.21505718 -0.19404048 -0.32364577 0.1158853 -0.43222347 0.30217367 -0.034204386
-0.037404064 0.22394368 -0.17690176 0.4520386 0.25332528 0.24282314 0.16725124 -0.28641486
0.35579458 -0.16299354 0.0707442 0.23872153 0.058425084 -0.009216126 0.058054227 -0.083166264

20 f4 [50, 1]
00000000: 3eb1 01be 2c38 babe f2ec 143e 6e45 683d
00000010: bbe0 463e 2353 393e f9ff 1b3e 523d d53d
00000020: c0e9 6fbe 6448 223e f121 c93d cf56 303e
00000030: 1c86 9dbe 55d3 313e 366a 6f3e c940 703e
00000040: 8b1a 003e e9e7 adbe 539a 193e da00 9c3e
00000050: ee8c 813e 8aac 5c3d f1c0 6dbe 6174 493e
00000060: 7a25 5dbd c5ca 49be f63c 16be 90a1 203e
00000070: 41d1 0dbe 1fc9 c53d 8f4d 293e b54d 18be
00000080: 6d26 313e 4654 363e 1bc8 b3be ee42 af3d
00000090: 9b7b 293e fab9 463d 2844 273e 5b2e 873e
000000a0: 711e dfbd 5202 d53d fc31 43be 3f58 a5be
000000b0: a3b1 f43d f496 193e dce0 713d 76e9 7c3d
000000c0: 593e 1c3e 95c5 a0bd
-0.12665269 -0.3637098 0.14543512 0.05670684 0.19421665 0.1809812 0.15234365 0.104120865
-0.23429012 0.15847927 0.09820927 0.17220615 -0.3076638 0.17365773 0.2338036 0.23462214
0.12510125 -0.33965996 0.15000276 0.304694 0.25302833 0.053875484 -0.23218133 0.19673301
-0.05399082 -0.19706257 -0.14671692 0.15686631 -0.13849355 0.096575014 0.16533493 -0.14873393
0.17299815 0.17805585 -0.35113606 0.08557688 0.16551058 0.048517205 0.16334593 0.26402554
-0.10894478 0.10400833 -0.19062036 -0.3229389 0.11947944 0.1499899 0.059052333 0.061746083
0.15258159 -0.07850186
